lstm_model-en-GB.pth (torch, 113556 bytes, 15 tensors)

embedding.weight f4 [27, 32]
0	0x3efc5e42	0.49290663
1	0xbea6642f	-0.3249831
2	0xc027e429	-2.6233008
3	0x3f89fe6c	1.0780768
4	0xbf278c7f	-0.65448755
5	0xbee7c7e8	-0.45269704
6	0xbf1f7646	-0.62289846
7	0xbf00908a	-0.5022055
8	0xc0376a6f	-2.8658712
9	0xbe1eea6b	-0.15519111
10	0x3eca849d	0.395543
11	0xc015e8b0	-2.342327
12	0xc060b916	-3.5112967
13	0x400015d0	2.0013313
14	0xbee387c6	-0.44439524
15	0xbff5989a	-1.9187195
16	0x3fe71d21	1.8055764
17	0xbea233b6	-0.31680077
18	0xbf4bc841	-0.7960244
19	0x3fcd9316	1.6060512
20	0xbfe8ba58	-1.8181868
21	0x406b2be4	3.6745539
22	0xc06427bc	-3.5649252
23	0xc0179ebb	-2.3690631
24	0x3f14f2ae	0.581828
25	0xbfedc5d7	-1.8576001
26	0x3f516aea	0.8180376
27	0xbfc25227	-1.5181321
28	0x3e451f30	0.19250178
29	0xbfe21453	-1.7662452
30	0xbf3e1461	-0.74249846
31	0xc03de570	-2.9671288
32	0xbe82a6ab	-0.25517783
33	0x3e9589df	0.2920675
34	0xc0016c74	-2.0222445
35	0x3f58a2fc	0.84623694
36	0xbf91a6bd	-1.137901
37	0x3fffecc7	1.9994134
38	0xbf7a5ce3	-0.97797984
39	0x3fd58487	1.6681069
40	0xbf448cd0	-0.7677736
41	0xbf27feec	-0.65623355
42	0x3ee21666	0.44157714
43	0xbdf50b6b	-0.119650684
44	0x3fa6e77e	1.3039396
45	0xbfa659e2	-1.299618
46	0x3e7ebacb	0.24875943
47	0xbfb2e5b6	-1.3976352
48	0x4000d3bb	2.012923
49	0x3f969807	1.1765145
50	0x3e63ca6c	0.22245187
51	0x4016a4cb	2.3538082
52	0xbe1642d4	-0.1467393
53	0x3e9960e7	0.29956743
54	0xbe8aba35	-0.2709519
55	0xbfb7439e	-1.431751
56	0xbe4a3ca3	-0.19749694
57	0x3f960765	1.1721007
58	0x3f80a8ac	1.0051475
59	0xbd9b9e10	-0.075985074
60	0x3db09ec1	0.0862403
61	0x3e4f299f	0.20230721
62	0x3de3c455	0.11121432
63	0x3efbee1e	0.49205106
64	0xbff88dc2	-1.9418261
65	0x3e053d23	0.13011603
66	0xbf960a46	-1.1721885
67	0xbe4759fe	-0.19467923
68	0x3f65baf5	0.897384
69	0xbfa74efa	-1.3070977
70	0x3d6b4878	0.05744216
71	0x3eb3c68f	0.35112426
72	0xbdb0965f	-0.08622431
73	0xbfa7ef0f	-1.311983
74	0x3f4ebac7	0.8075375
75	0x3fc3ff7c	1.5312343
76	0xbf7606fc	-0.9610441
77	0xbfaae834	-1.3352113
78	0x4009d5b5	2.1536686
79	0xbf9559e1	-1.1668054
80	0xbf49b7b0	-0.7879591
81	0xbeaab1b8	-0.33338714
82	0xc009fa6b	-2.1559093
83	0xbf3ef1c9	-0.74587685
84	0xbfdf785e	-1.7458608
85	0x3fb24d4e	1.3929842
86	0xbec24514	-0.37943327
87	0x3f0a50fd	0.5402983
88	0x3fc960cb	1.5732664
89	0x3f4a5fa2	0.79052174
90	0xbf1e0912	-0.6173259
91	0x3fcc0b10	1.5940876
92	0x3f876554	1.0577798
93	0xbdc18456	-0.09449069
94	0x3f1492af	0.5803632
95	0x3ea382a4	0.31935608
96	0x3eea9a1f	0.4582071
97	0x3fc9a0ef	1.5752238
98	0xbf375a0d	-0.7162178
99	0xbfee0c0c	-1.8597426
100	0x3e8c4a50	0.27400446
101	0x3fd89e0c	1.6923232
102	0xbebe526f	-0.37172267
103	0xbfb9606b	-1.448255
104	0xbf98736a	-1.1910222
105	0xbf0df559	-0.55452496
106	0xbfb6e42b	-1.4288381
107	0x3f9b623c	1.2139354
108	0x3f1d2248	0.61380434
109	0x3fb97b8e	1.4490831
110	0xbee74fad	-0.45177975
111	0xbff86a0d	-1.9407364
112	0xbf3592a7	-0.709269
113	0xbf9ebc66	-1.2401245
114	0xbfbe8dbe	-1.4887006
115	0xbf464564	-0.7744963
116	0xbfcdcc63	-1.6077999
117	0x3f2c0f05	0.6721042
118	0x3e163814	0.1466983
119	0x3eab95d1	0.33512738
120	0xbf0c5527	-0.5481743
121	0xbfa3b5e7	-1.2789887
122	0x3e36c4ad	0.17848463
123	0x3e5ef103	0.21771626
124	0x3f65036e	0.8945836
125	0xbec0f6ba	-0.37688237
126	0x3fcc6db2	1.5970976
127	0x3e5b0c7a	0.21391478
128	0xbf82ccf8	-1.0218801
129	0xbea1c9ff	-0.31599423
130	0xbf16cc8c	-0.58905864
131	0xbfe24027	-1.7675828
132	0x3fa92cc6	1.3216789
133	0x3f4cf7cb	0.800656
134	0x3f772cb2	0.96552575
135	0xbfbf2e9b	-1.4936098
136	0x3fc793e8	1.5592012
137	0x3e81ff23	0.25389966
138	0x3f4f49e3	0.8097212
139	0x3ffa9490	1.9576588
140	0xbfbbdb5f	-1.4676322
141	0xbfe79986	-1.8093727
142	0xbe62d6b7	-0.2215222
143	0x3f4fbddb	0.8114907
144	0x3e8de3d0	0.2771287
145	0xbf886c0a	-1.0657971
146	0x3f506022	0.8139669
147	0x4007e1cf	2.1231573
148	0x3f00e3d5	0.50347644
149	0x3f3b6127	0.7319512
150	0xbf61741b	-0.8806779
151	0xbf6b01b4	-0.91799474
152	0x3f544a15	0.8292554
153	0x3f503f7f	0.8134689
154	0xbf8d4af3	-1.1038498
155	0x3fd584b0	1.6681118
156	0x3f76f13c	0.96461844
157	0xbf66d551	-0.90169245
158	0xbf8b815d	-1.0898854
159	0xbf8834c3	-1.0641102
160	0x3d181754	0.037131622
161	0xbd9d3716	-0.076765224
162	0x3f4ebd8f	0.80757993
163	0xbfc90ed5	-1.5707651
164	0x3d29b5e9	0.04143325
165	0xbe483404	-0.19551092
166	0x3f15c52c	0.58503985
167	0x3fdb1dba	1.7118447
168	0xbe95230e	-0.29128307
169	0x3d8c7cd5	0.06859747
170	0x3fc9a924	1.5754743
171	0xbf731c80	-0.9496536
172	0x3e877194	0.2645384
173	0xbeef1e76	-0.46702927
174	0x3ec411d2	0.38294846
175	0xbfefa61f	-1.8722571
176	0xbefae2f5	-0.4900128
177	0xbf39860f	-0.7247018
178	0xbf3407a2	-0.70324147
179	0x3e8a2b5e	0.26986212
180	0x3f3a2098	0.72705984
181	0x3ea06600	0.3132782
182	0x3eb028e8	0.3440621
183	0xbe3d6c32	-0.18498304
184	0xbe8ad6f7	-0.2711713
185	0x3f36d337	0.7141604
186	0x404084bd	3.0081017
187	0xbe8c80d2	-0.27442032
188	0xbfa1526d	-1.2603279
189	0x3f09b7a0	0.53795815
190	0x3ec49e7b	0.3840216
191	0xbfc1fa6c	-1.5154548
192	0xbfb837d3	-1.4392036
193	0xbfbdf360	-1.4839897
194	0xbfc0145b	-1.5006212
195	0xbee1c447	-0.4409506
196	0x3f22bf45	0.63573104
197	0x3fa72eb8	1.3061132
198	0xbefa9db5	-0.48948446
199	0x4035e764	2.842248
200	0xbf3a5067	-0.72778934
201	0x3fddb5a5	1.7321059
202	0x3eeb2d5c	0.45933044
203	0xbfec53a5	-1.8463026
204	0x3e51d442	0.20491126
205	0xbece4be7	-0.40292284
206	0xbec918e0	-0.3927679
207	0xbf0e5669	-0.556006
208	0x3e57b902	0.21066669
209	0xbeedf7f3	-0.46478233
210	0xbe1a4687	-0.15065967
211	0xbf10a15d	-0.5649622
212	0xbf6c6193	-0.92336386
213	0xbf228c1d	-0.63495046
214	0xbd570341	-0.052493338
215	0x3fa71d83	1.3055881
216	0xbe750078	-0.2392596
217	0xbf59ad5a	-0.8503014
218	0x3ec2bae1	0.38033202
219	0x3f23f828	0.6405053
220	0x3f3c3654	0.735204
221	0xbf34ab83	-0.70574206
222	0x3ec38fb7	0.38195583
223	0x3f9d63d9	1.2296096
224	0x4009a938	2.1509533
225	0xbcf348ff	-0.029697893
226	0xbfe74b7c	-1.8069911
227	0xbf3117bd	-0.69176847
228	0x3fafb1f5	1.3726183
229	0x3efa8f8a	0.48937637
230	0xbf858796	-1.0432003
231	0xbf0ccb86	-0.5499805
232	0x4004ef06	2.0770888
233	0xbf5d7fe1	-0.8652325
234	0xbefe23f3	-0.49636802
235	0x3fb4858f	1.4103259
236	0x3e5f07d9	0.21780337
237	0x3f704cd1	0.9386721
238	0xbf6e0342	-0.9297372
239	0xbe719a21	-0.23593952
240	0x4009a14c	2.1504698
241	0xbcd14e62	-0.025550071
242	0x3f2bad42	0.67061245
243	0x3fd51a46	1.6648643
244	0xbecd7435	-0.4012772
245	0xbf916ab6	-1.136069
246	0x3ed36e60	0.41295147
247	0x3eeaacba	0.45834905
248	0xbf4ed999	-0.8080078
249	0x3f813fb5	1.0097567
250	0xbef0681a	-0.46954423
251	0xc01bde43	-2.4354408
252	0x3fccbaad	1.5994469
253	0x3f7d5871	0.98963076
254	0x3f3acb2d	0.7296627
255	0x3eb07344	0.3446294

lstm.weight_ih_l0 f4 [128, 32]
0	0x3ee53e82	0.44774252
1	0x3dd1c141	0.102419384
2	0x3ecb8789	0.39751843
3	0xbe5c5ad2	-0.2151902
4	0x3ecea4b5	0.40360036
5	0xbb955e50	-0.004558362
6	0xbe4b2995	-0.19840081
7	0xbd86a291	-0.06573976
8	0xbdc21408	-0.09476477
9	0x3c5e38cd	0.013563347
10	0x3e703eca	0.23461452
11	0xbe974010	-0.29541063
12	0xbef3bff5	-0.4760739
13	0xbe17cf63	-0.14825206
14	0x3dade183	0.084902786
15	0xbea539e5	-0.32270733
16	0x3c344b05	0.011004214
17	0x3f141eb2	0.5785934
18	0x3b1ad35e	0.002362452
19	0x3e133d11	0.14378764
20	0xbf46ca17	-0.77652115
21	0xbc823635	-0.015894989
22	0x3e8473bb	0.25869545
23	0xbdfb7381	-0.1227789
24	0xbe5739a4	-0.21018082
25	0xbf5c56c2	-0.8606988
26	0x3f21cbe1	0.6320172
27	0xbed5d472	-0.41763645
28	0xbd94529c	-0.07242319
29	0x3ec7ac42	0.3899861
30	0x3d724116	0.059144102
31	0xbd167f0a	-0.036742248
32	0x3e809adb	0.25118145
33	0x3e8b36e8	0.27190328
34	0x3c865dd1	0.016402157
35	0xbef94243	-0.48683366
36	0xbdc22623	-0.0947993
37	0x3f31585d	0.69275457
38	0xbe861a04	-0.26191723
39	0x3db465c8	0.08808476
40	0x3de38725	0.11109761
41	0x3da34ea7	0.07973986
42	0x3ec86ed9	0.3914707
43	0xbeb38974	-0.35065806
44	0x3e83a4c6	0.2571165
45	0xbf3da5f5	-0.74081355
46	0xbe9109bb	-0.28327736
47	0xbeec5f48	-0.46166444
48	0x3eec66b9	0.4617212
49	0x3e5b92bd	0.21442695
50	0x3d888c05	0.066673316
51	0xbe099017	-0.13433872
52	0xbe9df181	-0.30848315
53	0x3e991015	0.29895082
54	0x3f8d5db4	1.1044221
55	0xbe3127e4	-0.17300373
56	0xbec3f1b7	-0.3827035
57	0xbeecfb00	-0.46285248
58	0x3f561602	0.8362733
59	0x3eb87ea8	0.3603413
60	0xbbde8446	-0.0067906706
61	0x3f2b15d9	0.6683021
62	0x3e4b2291	0.19837405
63	0x3d9e85d9	0.07740373
64	0xbe67b5ba	-0.22627917
65	0x3da02884	0.07820228
66	0xbd78e7b0	-0.06076783
67	0x3e39f138	0.18158424
68	0x3eb6728a	0.3563426
69	0x3e877e82	0.26463705
70	0xbde9e25a	-0.11420126
71	0x3c9fa575	0.019488076
72	0xbee12c53	-0.4397913
73	0xbea59423	-0.32339582
74	0xbe072a67	-0.13199769
75	0x3e6fb7df	0.23409985
76	0x3d47f9ce	0.048822217
77	0x3e471c89	0.19444479
78	0xbeb6015c	-0.35547912
79	0xbe0d6e58	-0.13811624
80	0x3eea435a	0.4575451
81	0x3e7e4e00	0.24834442
82	0xbd3258c4	-0.043541685
83	0xbe3e7b4f	-0.18601726
84	0xbf8d4529	-1.1036731
85	0x3edf65cc	0.43632352
86	0xbd7ad716	-0.06124028
87	0x3e924051	0.28564695
88	0xbd0e3656	-0.034719788
89	0x3e01ecb8	0.12687957
90	0x3cbae950	0.02281633
91	0xbe4557c5	-0.19271763
92	0x3dd85f49	0.10565049
93	0xbeae75c4	-0.34074223
94	0xbec347a5	-0.38140598
95	0x3ea9aa51	0.33137754
96	0xbe50845a	-0.20362988
97	0xbe26e39f	-0.16297768
98	0x3e15e25c	0.1463713
99	0xbcc9ba0e	-0.02462485
100	0xbe555e91	-0.20836855
101	0xbe1281d4	-0.14307338
102	0xbef45a0f	-0.4772496
103	0x3a4a4589	0.000771605
104	0xbee4ff2c	-0.4472593
105	0xbe81114f	-0.25208518
106	0xbd465ab6	-0.048426352
107	0xbe967ded	-0.2939295
108	0x3d5b40ec	0.05352871
109	0x3e503023	0.20330863
110	0x3e865695	0.26237932
111	0xbeac8ae8	-0.33699727
112	0x3dfe4538	0.12415546
113	0x3e098e18	0.1343311
114	0x3d82c85d	0.063858725
115	0xbe77d48f	-0.24202178
116	0x3cc98a25	0.024602005
117	0xbd260294	-0.040529802
118	0xbc23f862	-0.01000795
119	0xbedc7ffa	-0.43066388
120	0x3e68a186	0.22717866
121	0xbe5ef181	-0.21771814
122	0xbdd55a48	-0.104176104
123	0xbe06a3f6	-0.13148484
124	0x3e893efa	0.2680586
125	0xbe24ba4b	-0.1608669
126	0xbecc2718	-0.39873576
127	0xbe29b849	-0.16574205
128	0x3e526851	0.20547606
129	0xbd97ba54	-0.07408586
130	0xbdf8929a	-0.12137337
131	0x3e636ff0	0.2221067
132	0xbec27380	-0.37978745
133	0x3e13ec46	0.144456
134	0x3da62047	0.08111625
135	0x3d38ef6f	0.045150217
136	0xbeeec232	-0.46632534
137	0x3dc09bde	0.09404729
138	0xbe96a5bc	-0.2942332
139	0xbe47e30c	-0.19520205
140	0xbe4dbbb2	-0.20091131
141	0x3da39563	0.07987478
142	0xbe5affb8	-0.21386611
143	0xbedcad49	-0.43100956
144	0x3e3df645	0.18550976
145	0x3f017cdf	0.50581163
146	0xbdb83afb	-0.08995625
147	0x3e5a08ac	0.2129237
148	0xbba46d1a	-0.0050178887
149	0xbe25bf3c	-0.16186231
150	0xbdaba067	-0.08380204
151	0xbe90a2be	-0.28249162
152	0x3eb2cef4	0.34923518
153	0xbce01d5b	-0.027357748
154	0xbde6dc51	-0.11272491
155	0x3c861db0	0.016371578
156	0x3e588180	0.2114315
157	0xbf2d8b0d	-0.677903
158	0x3ef908b5	0.48639455
159	0xbe89f106	-0.269417
160	0xbd904196	-0.070437595
161	0x3e0e724a	0.13910785
162	0xbf076764	-0.52892137
163	0x3e8aca45	0.27107444
164	0xbe29de44	-0.16588694
165	0xbcf3c0fd	-0.02975511
166	0xbe998091	-0.299809
167	0x3d69170c	0.056906745
168	0x3e871bb0	0.2638831
169	0x3e1b5d12	0.15172222
170	0xbea5ae00	-0.32359314
171	0xbed8e97f	-0.42365643
172	0x3e79dd75	0.24400885
173	0xbe5c612c	-0.21521443
174	0xbe80a390	-0.25124788
175	0xbe50aaf0	-0.20377707
176	0x3f1dfee3	0.6171705
177	0x3e880f9d	0.26574412
178	0xbf388713	-0.72081107
179	0xbd0e2139	-0.034699652
180	0xbfa7d692	-1.3112357
181	0x3dd7aaf2	0.10530652
182	0xbe070611	-0.13185908
183	0x3de024cf	0.10944521
184	0xbe98b210	-0.2982335
185	0xbe4c642b	-0.19960086
186	0x3db26864	0.08711317
187	0x3ddd4f01	0.108060844
188	0x3de60c5c	0.11232826
189	0xbe8f23cd	-0.27957
190	0x3eeab804	0.45843518
191	0x3dbb9231	0.09158743
192	0xbed09156	-0.40735883
193	0xbe3a362c	-0.18184727
194	0x3e6f1a65	0.23349912
195	0x3e68af7a	0.22723189
196	0xbd5d3b39	-0.054011557
197	0xbd0742d9	-0.033022735
198	0x3c0f504d	0.008747173
199	0x3e4b79d5	0.19870694
200	0xbeeabc67	-0.45846865
201	0x3da1ffc4	0.079101115
202	0x3ed49326	0.41518515
203	0xbe68302b	-0.22674625
204	0xbe937a03	-0.28804025
205	0x3e6dade5	0.23210867
206	0x3e6b74a9	0.22993721
207	0xbe99889b	-0.29987034
208	0xbdf4cacf	-0.11952745
209	0xbe2b0020	-0.16699266
210	0xbeaa472a	-0.3325742
211	0xbe2b22f6	-0.16712555
212	0x3ea2a379	0.31765345
213	0x3e0a479f	0.13503884
214	0xbf55b9c4	-0.8348658
215	0xbe1dce6f	-0.1541078
216	0x3e04f638	0.1298455
217	0x3ec8f8d2	0.39252335
218	0x3e331b4e	0.17490885
219	0xbd175f30	-0.036956012
220	0xbf056413	-0.52105826
221	0xbee7ef6f	-0.4529986
222	0x3e959504	0.29215252
223	0x3c0c1487	0.008549816
224	0xbe80feee	-0.25194496
225	0x3f2b13df	0.66827196
226	0x3de7d20b	0.113193594
227	0x3f333af1	0.7001181
228	0xbecd9693	-0.40153942
229	0xbe959edd	-0.29222766
230	0x3e159d27	0.1461073
231	0xbf00d145	-0.5031932
232	0xbf31a771	-0.6939612
233	0x3f02d843	0.5111124
234	0xbdf38aeb	-0.11891731
235	0xbf36abac	-0.713557
236	0xbe46dfdf	-0.19421338
237	0xbdf0387a	-0.11729522
238	0xbe9fb389	-0.31191662
239	0xbdff6291	-0.12469972
240	0x3e1f0859	0.15530528
241	0x3ed8a54c	0.42313612
242	0x3e97bc5d	0.29635897
243	0xbdc9bc31	-0.09850348
244	0x3d97047a	0.07373901
245	0xbca9a4c8	-0.020708457
246	0xbdeaa5f0	-0.11457431
247	0x3e68fa6b	0.22751777
248	0x3e6a2b6b	0.22868125
249	0xbeac6ff2	-0.33679157
250	0x3bf6a222	0.007526652
251	0x3bbee6c3	0.005825849
252	0x3da53959	0.08067579
253	0xbd7d9fba	-0.061919905
254	0xbf24ec0e	-0.6442269
255	0x3e53484b	0.20633046

lstm.weight_hh_l0 f4 [128, 32]
0	0xbe8d3942	-0.27582747
1	0xbef2d678	-0.47429252
2	0x3f371893	0.7152187
3	0x3db8c72c	0.09022364
4	0xbf4aff38	-0.7929568
5	0xbed15c08	-0.40890527
6	0xbe8a621f	-0.27027985
7	0xbedb4982	-0.4282952
8	0x3eb13929	0.34613922
9	0xbdaf0879	-0.08546538
10	0x3dcdc779	0.10047812
11	0xbf169c52	-0.58832276
12	0x3f8a04a3	1.0782665
13	0x3f244202	0.6416322
14	0xbf94fafa	-1.1639092
15	0x3f37bb76	0.7177042
16	0xbf8afd1c	-1.0858493
17	0xbed06b8f	-0.4070706
18	0x3f265a41	0.64981467
19	0xbf37b783	-0.7176439
20	0xbe174609	-0.1477281
21	0xbed7d1d6	-0.4215228
22	0x3ecfb99d	0.405713
23	0x3d55d351	0.05220348
24	0xbecb1db8	-0.3967111
25	0x3f5a63de	0.85308635
26	0x3dbaba25	0.091175355
27	0x3f33e28d	0.70267564
28	0x3f669351	0.90068537
29	0xbe3d0098	-0.18457258
30	0xbea0a19b	-0.31373295
31	0xbead1980	-0.33808517
32	0x3f911b72	1.1336501
33	0x3c5ee709	0.013604888
34	0x3ed6e8d9	0.41974524
35	0x3f52c012	0.82324326
36	0x3fc09ae2	1.5047266
37	0x3c666ef7	0.014064542
38	0xbea1d9c3	-0.31611452
39	0xbe8d02b7	-0.27541134
40	0xbf44e6ba	-0.7691456
41	0xbe857038	-0.2606218
42	0x3f0158a1	0.5052586
43	0x3e8d7628	0.2762921
44	0x3f4864a4	0.78278565
45	0x3dc3a586	0.095530555
46	0xbe0def05	-0.1386071
47	0x3f4aa85e	0.7916316
48	0xbf939bd9	-1.1531936
49	0x3cc67966	0.02422781
50	0xbea7a1d4	-0.32740653
51	0x3f7d13aa	0.9885813
52	0xbe5d60d1	-0.21618964
53	0x3f298e80	0.6623306
54	0xbe878b4f	-0.26473472
55	0xbd2ac4dc	-0.041691646
56	0xbf1f35a9	-0.62191254
57	0x3e164cc8	0.14677727
58	0xbeb348d1	-0.35016492
59	0x3ea3390b	0.31879458
60	0x3f12dedd	0.5737131
61	0x3f6828ac	0.9068706
62	0xbeb2335a	-0.34804803
63	0xbe82ce49	-0.25548008
64	0xbe6c565a	-0.23079816
65	0xbf64bdde	-0.89352214
66	0x3e10179b	0.14071505
67	0x3ec84a72	0.39119297
68	0xbf5a1a79	-0.85196644
69	0x3f5bfa29	0.8592859
70	0xbe94eda9	-0.2908757
71	0xbefd5dff	-0.49485776
72	0x3f7284b3	0.9473373
73	0xbe574bab	-0.21024959
74	0x3f0f1359	0.558889
75	0xbd008193	-0.03137357
76	0x3f467d0d	0.7753456
77	0x3ef775e4	0.4833213
78	0x3f68da16	0.9095777
79	0x3e9a1a75	0.3009831
80	0xbe7c7437	-0.24653707
81	0xbdd00da5	-0.101588525
82	0xbed91d1b	-0.42405018
83	0xbeb1cd0b	-0.34726748
84	0x3f6249cd	0.8839386
85	0x3f2eed3b	0.68330735
86	0x3dd753f3	0.10514059
87	0x3e82c08f	0.25537536
88	0xbf3c2213	-0.73489493
89	0xbe89a18a	-0.26881057
90	0xbf191eae	-0.5981244
91	0x3e183b8a	0.14866462
92	0xbf2bc164	-0.67091966
93	0x3f06d4c1	0.52668387
94	0xbed43a29	-0.41450623
95	0xbd61839f	-0.055057164
96	0xbe8c9588	-0.27457833
97	0x3e867c59	0.26266745
98	0xbcb1e059	-0.021713423
99	0xbecee597	-0.40409538
100	0xbe74898e	-0.23880598
101	0x3d98a068	0.0745247
102	0xbd03a3dd	-0.032138694
103	0x3e55c713	0.20876722
104	0x3d666bb8	0.056255072
105	0x3ddfeea5	0.1093419
106	0xbde7fa89	-0.11327083
107	0xbdc7bddb	-0.09753009
108	0x3d6a43e7	0.057193663
109	0xbe3dd103	-0.18536763
110	0xbcd49355	-0.02594916
111	0xbe225021	-0.15850879
112	0xbee145a2	-0.43998438
113	0xbe13c954	-0.1443227
114	0xbdf417a2	-0.1191857
115	0xbe6ced1d	-0.23137327
116	0xbead4949	-0.33844975
117	0xbd04f68d	-0.03246169
118	0x3d7385df	0.05945384
119	0x3e6765a6	0.2259737
120	0xbe215186	-0.15753755
121	0x3eb6dee9	0.35716942
122	0xbcdc557d	-0.026896233
123	0xbf14bb75	-0.58098537
124	0x3eeefbb5	0.46676412
125	0x3e41a5e0	0.18910933
126	0xbe45c6b3	-0.19314079
127	0x3df47b0c	0.11937532
128	0x3f1d7872	0.6151191
129	0x3ead814a	0.33887702
130	0x3ed098af	0.40741488
131	0xbec29eb6	-0.38011712
132	0xbf0b2b17	-0.54362625
133	0xbc34d593	-0.011037248
134	0xbf13aa25	-0.57681495
135	0x3e5af4b1	0.21382405
136	0x3ebcdff9	0.36889628
137	0xbe9b7857	-0.3036525
138	0x3e708a0d	0.23490162
139	0x3ebc0872	0.36725193
140	0x3d054877	0.03253981
141	0xbee61fb1	-0.44946054
142	0xbdabcd5b	-0.08388778
143	0xbe2e29e1	-0.17008163
144	0x3e5244e1	0.20534088
145	0xbdf6c411	-0.120491154
146	0xbf21b181	-0.63161474
147	0xbc8faf38	-0.017539605
148	0xbf2f1161	-0.68385893
149	0xbc937247	-0.017998828
150	0xbdbb3433	-0.091408156
151	0xbe662444	-0.22474772
152	0x3eb1ee6b	0.3475221
153	0xbe8ffe49	-0.28123692
154	0xbec35f93	-0.38158855
155	0x3d1b26f4	0.037878945
156	0x3ed90011	0.42382863
157	0xbf012b04	-0.5045626
158	0x3e9c8e85	0.30577484
159	0x3f60c328	0.87797785
160	0x3fa269f0	1.268858
161	0xbf0c16ae	-0.54722106
162	0x3f9f66e6	1.2453277
163	0x3e1ecfca	0.15508953
164	0xbf258137	-0.6465029
165	0x3eece93d	0.46271697
166	0xbe8d51b2	-0.2760139
167	0xbf45d2eb	-0.7727496
168	0x3f90a315	1.1299769
169	0xbcf087d0	-0.029361635
170	0xbdcfc945	-0.10145811
171	0xbe6fef81	-0.23431207
172	0xbe9aa5c1	-0.30204585
173	0xbb6f8318	-0.0036546644
174	0xbecfcf9a	-0.40588075
175	0x3f5c543a	0.8606602
176	0xbf3e29ec	-0.7428272
177	0x3e730a60	0.23734426
178	0xbea0d7c9	-0.3141463
179	0xbf57c8bd	-0.8429068
180	0x3ff48e44	1.9105916
181	0xbf278f73	-0.6545326
182	0x3e8a6e94	0.2703749
183	0x3fa07716	1.2536342
184	0xbf2d5c57	-0.67719024
185	0x3fb5f2e1	1.4214746
186	0x3fa35606	1.2760627
187	0x3e0e7bcc	0.13914412
188	0x3e651c3c	0.22374052
189	0x3fd9bb72	1.7010329
190	0x3edfecf4	0.43735468
191	0xbf7523db	-0.95757836
192	0x3eeb06a1	0.45903495
193	0x3dc6139d	0.0967171
194	0x3e5a5fbf	0.21325587
195	0x3e72646d	0.23671122
196	0xbd4605a8	-0.048345238
197	0x3d0d5ecd	0.034514237
198	0xbefd5ac2	-0.49483305
199	0xbee86dcc	-0.45396268
200	0xbdb00156	-0.08594005
201	0x3e453f16	0.19262347
202	0x3e326106	0.17419824
203	0x3e44d8fe	0.19223401
204	0x3fd1161a	1.633487
205	0xbd1c7ee6	-0.038206957
206	0xbea0b88d	-0.313908
207	0xbeab088e	-0.33404964
208	0xbeca9b0b	-0.39571413
209	0x3f9a7ad9	1.206874
210	0x3e8b2385	0.27175537
211	0x3f0ce5c4	0.55038095
212	0x3f0af7b7	0.5428423
213	0x3efd2d05	0.4944841
214	0x3f542797	0.8287291
215	0xbf2e19eb	-0.680083
216	0xbf7043b9	-0.93853337
217	0x3f0232da	0.50858843
218	0x3fac174d	1.3444611
219	0x3e4b00aa	0.19824472
220	0x3f9122b5	1.1338717
221	0x3f635aca	0.8881041
222	0x3f9db5d1	1.2321111
223	0xbf7e19fc	-0.992584
224	0x3f32391c	0.6961839
225	0x3ed7bf52	0.42138153
226	0xbe6b8e1a	-0.23003426
227	0xbe9860ba	-0.29761297
228	0x3c99a726	0.01875646
229	0xbf8a96a8	-1.0827227
230	0xbfaa50cb	-1.3305906
231	0x3e9c80b3	0.3056694
232	0x3fd5fcd6	1.6717784
233	0x3f0304fd	0.51179487
234	0x3f0cdc8c	0.5502403
235	0x3e3ce3fc	0.18446344
236	0x3e573103	0.2101479
237	0xbf616fb6	-0.8806108
238	0xbee4366f	-0.4457278
239	0x3e942634	0.28935397
240	0xbf3bff24	-0.7343619
241	0x3e4c0794	0.19924766
242	0xbf572a26	-0.8404869
243	0x3ee4b939	0.44672564
244	0xbed24ac1	-0.41072658
245	0xbe418058	-0.18896616
246	0xbf08f3d3	-0.53497046
247	0x3e994611	0.2993627
248	0xbf8e33e2	-1.1109583
249	0x3f2f4cc5	0.68476516
250	0x3e5ce008	0.21569836
251	0xbc31879e	-0.010835556
252	0x3f948de8	1.1605806
253	0x3f968e8d	1.1762253
254	0x3f12469d	0.57139
255	0xbf18c4ca	-0.59675276

lstm.bias_ih_l0 f4 [128]
0	0x3eb70a07	0.35749838
1	0x3ecbd003	0.39807138
2	0x3e7f4707	0.24929439
3	0x3e13736f	0.14399503
4	0x3e1eeeca	0.15520778
5	0x3e9d84d8	0.30765414
6	0x3efce034	0.49389803
7	0x3e76834f	0.24073528
8	0x3ea8be66	0.32957762
9	0x3aa0417e	0.001222655
10	0x3d42f42a	0.047596134
11	0x3da18035	0.07885782
12	0x3decd85e	0.11564706
13	0x3e2a37b4	0.16622812
14	0x3ddfb390	0.10922921
15	0x3ea7f6e2	0.32805544
16	0x3d9483ed	0.07251725
17	0xbdc78730	-0.09742582
18	0xbe09e069	-0.13464512
19	0x3ab90776	0.0014116603
20	0x3e855bcc	0.26046598
21	0xbd5634b2	-0.052296348
22	0x3eba2bc8	0.36361527
23	0x3e7a9bc3	0.24473481
24	0x3de3b51e	0.1111853
25	0x3f07cd33	0.53047484
26	0x3effa7eb	0.499328
27	0x3ead3104	0.33826458
28	0x3ec29c48	0.38009858
29	0x3e9e2de9	0.30894402
30	0x3d77346a	0.06035272
31	0x3ec6e698	0.38847804
32	0xbe21b840	-0.15792942
33	0xbe8d2f4f	-0.27575156
34	0x3e011b67	0.1260811
35	0x3dd5ee81	0.10445882
36	0x3d06120c	0.032732055
37	0x3d57079e	0.0524975
38	0xbe24cea4	-0.16094452
39	0xbdebe762	-0.11518742
40	0x3e003e14	0.12523681
41	0x3ebecdda	0.37266427
42	0x3dcd5a62	0.10027005
43	0x3e16a86f	0.1471269
44	0xbe5b8b33	-0.21439819
45	0x3e871c31	0.26388696
46	0xbe93151c	-0.28727043
47	0x3e74129a	0.23835221
48	0xbe421be0	-0.18955946
49	0x3e29f45d	0.16597123
50	0x3d081d79	0.033231232
51	0x3e8ae83d	0.2713031
52	0xbe89a483	-0.26883325
53	0x3e44ab53	0.1920598
54	0xbd69c25c	-0.05707012
55	0xbe27be16	-0.16381106
56	0xbc3c565a	-0.011495197
57	0x3ea6253e	0.3245029
58	0x3dfcdef5	0.12347213
59	0xbe653ea1	-0.22387172
60	0xbe3af005	-0.18255623
61	0xbdd6b941	-0.10484553
62	0x3e734de9	0.23760189
63	0xbec0c4c0	-0.37650108
64	0x3e96ff66	0.2949173
65	0x3e4ef53d	0.20210738
66	0x3e3c8c6b	0.1841294
67	0xbdc95db9	-0.09832329
68	0xbe02c2e9	-0.12769665
69	0x3e13b4ea	0.14424482
70	0xbea10cd9	-0.31455114
71	0xbe470044	-0.19433695
72	0x3decf91a	0.1157095
73	0xbddfc5f5	-0.10926429
74	0x3ea65cf0	0.3249278
75	0x3e926105	0.28589645
76	0x3dea1a28	0.1143077
77	0x3e79a1e5	0.24378164
78	0x3d715a0a	0.05892376
79	0x3ee6787c	0.45013797
80	0xbdf9ac62	-0.121910825
81	0x3d5c128a	0.053728618
82	0xbe641fd7	-0.22277771
83	0xbe8ffc22	-0.2812205
84	0xbe01365e	-0.12618396
85	0x3e46fde4	0.19432789
86	0x3e36acbc	0.1783933
87	0x3e07f688	0.13277638
88	0x3e851ccf	0.25998542
89	0x3ec542fc	0.38527668
90	0x3c33725b	0.010952557
91	0xbe09edcb	-0.13469617
92	0x3cf8ab81	0.030355217
93	0x3db71701	0.089399345
94	0x3e759020	0.2398076
95	0xbd73dafa	-0.059535004
96	0x3e5953d3	0.21223383
97	0x3e9d1018	0.3067634
98	0x3e73f858	0.23825204
99	0x3de11bb8	0.10991615
100	0x3ed23155	0.41053262
101	0x3eb70fb5	0.3575417
102	0x3e823d20	0.2543726
103	0x3e37b9b0	0.17941928
104	0x3de334a6	0.11094026
105	0x3d54db7e	0.051967137
106	0x3e4334a2	0.19063047
107	0x3df944d6	0.121713325
108	0x3e56e392	0.20985249
109	0x3db9a2b7	0.090642385
110	0x3ef5abc9	0.47982624
111	0x3da31475	0.07962886
112	0x3e9bb595	0.30411974
113	0x3e2cbd1d	0.16869016
114	0xbd99e15f	-0.07513689
115	0x3d61cab4	0.055124953
116	0x3eaca72f	0.337213
117	0x3d87bb6b	0.06627544
118	0x3e2cd668	0.16878664
119	0x3ef47635	0.47746435
120	0x3ecf0a19	0.4043739
121	0x3da2691c	0.07930204
122	0x3e20c5ef	0.15700506
123	0x3f0a7dbd	0.5409811
124	0x3ee3f655	0.44523874
125	0x3dad901b	0.084747516
126	0x3e828c7c	0.25497806
127	0x3ec1bcee	0.37839454

lstm.bias_hh_l0 f4 [128]
0	0x3eb43eeb	0.35204253
1	0x3ee12795	0.4397551
2	0x3e8f7b59	0.28023794
3	0xbd03ffbf	-0.03222632
4	0x3e7ba21a	0.24573556
5	0x3ead3ec0	0.33836937
6	0x3ef73916	0.4828574
7	0x3e7f2e7d	0.24920078
8	0x3e80e14d	0.2517189
9	0x3e2dc6b2	0.16970327
10	0x3e4397fd	0.19100948
11	0x3e48935a	0.1958746
12	0x3e5e69ed	0.21720095
13	0xbcc4c205	-0.024018297
14	0xbd857ec3	-0.065183185
15	0x3e0c0b38	0.13676155
16	0x3db383cb	0.08765372
17	0x3dad85c8	0.084727824
18	0xbe1cb1cb	-0.15302198
19	0xbe06f4e3	-0.13179354
20	0x3c2a9b14	0.01041295
21	0x3e1e812c	0.15478963
22	0x3e2f6669	0.1712891
23	0x3da36f6b	0.07980236
24	0x3e3659e1	0.17807724
25	0x3f472bf9	0.7780147
26	0x3ebf99ef	0.3742213
27	0x3ed72498	0.42020106
28	0x3e80a076	0.25122422
29	0x3e4321d1	0.19055869
30	0x3d4271f3	0.04747195
31	0x3e5c4800	0.21511841
32	0xbd924086	-0.07141213
33	0xbeb16d97	-0.34653923
34	0xbd71647b	-0.058933716
35	0xbdab6e91	-0.08370698
36	0x3de355bd	0.11100338
37	0x3d89fcc6	0.06737666
38	0x3cf0f6e2	0.029414598
39	0xbd3a5e29	-0.045499954
40	0x3c129b16	0.008948108
41	0x3eb0f0c4	0.3455869
42	0x3ea7ae66	0.32750243
43	0x3dd84a18	0.10561007
44	0xbd70b71f	-0.058768388
45	0x3c3f8fb0	0.011691973
46	0xbea6d1e0	-0.32581997
47	0x3e3dcfb2	0.1853626
48	0xbe46d9dc	-0.19419044
49	0x3e1fe2e8	0.15613902
50	0x3ca2d00a	0.019874591
51	0x3e552f1c	0.20818752
52	0xbd81e15d	-0.06341813
53	0x3c808830	0.01568994
54	0xbdbe05eb	-0.092784725
55	0xbe72f592	-0.2372649
56	0xbe2ae6b2	-0.16689566
57	0x3d91b30a	0.07114227
58	0x3e30f855	0.17282231
59	0xbe7f034e	-0.24903604
60	0xbebf63e8	-0.3738091
61	0x3cdbf101	0.026848318
62	0x3e7e79cb	0.24851148
63	0xbe9363e2	-0.28787142
64	0x3e269a6b	0.16269843
65	0x3e831575	0.25602308
66	0x3e9332f4	0.28749812
67	0xbdd1efa5	-0.10250787
68	0x3ccc82cd	0.024964714
69	0x3da7170a	0.08158691
70	0xbdc4a995	-0.09602658
71	0xbd97821b	-0.073978625
72	0x3eab2578	0.33427024
73	0xbe31a9e4	-0.17349964
74	0xbc60f906	-0.013731247
75	0x3e62d0c0	0.22149944
76	0x3eb7f032	0.35925442
77	0x3e1c60b0	0.15271258
78	0x3d0e5104	0.03474523
79	0x3e591743	0.2120028
80	0x3d138b41	0.036021475
81	0xbd857669	-0.065167256
82	0xbdf57ad3	-0.119863175
83	0xbe88664a	-0.2664054
84	0xbb9a9418	-0.004717361
85	0x3ebc5bae	0.36788696
86	0x3dc007c6	0.09376483
87	0x3e89c853	0.26910648
88	0x3d76a2d3	0.060213875
89	0x3e2891ac	0.1646182
90	0x3e1039fa	0.14084616
91	0xbe380dad	-0.17973967
92	0xbe7ce6d4	-0.24697429
93	0x3e407b2d	0.18796988
94	0x3e124ff6	0.14288315
95	0x3e429b40	0.19004536
96	0x3d0a5920	0.033776402
97	0x3e91895e	0.28425115
98	0x3e34330b	0.17597596
99	0x3eb6085d	0.35553256
100	0x3e7f9510	0.24959207
101	0x3e665d94	0.22496635
102	0x3e9fe27a	0.31227475
103	0x3e75daf4	0.24009305
104	0x3e7a62cc	0.2445175
105	0x3e883d7f	0.26609418
106	0x3e555312	0.2083247
107	0x3e3a80b8	0.18213165
108	0x3e178e76	0.14800438
109	0xbdebd593	-0.115153454
110	0x3ec166c9	0.3777373
111	0x3c8e18b3	0.017345762
112	0x3e9f92dd	0.31166735
113	0x3d30fe40	0.04321122
114	0x3e22aff9	0.1588744
115	0x3dcd29a0	0.10017705
116	0x3e605074	0.2190569
117	0xbdd0b099	-0.10189933
118	0x3d810aef	0.063009135
119	0x3f0bc09c	0.54590774
120	0x3e8f8e37	0.2803819
121	0x3eb2f4ef	0.34952495
122	0xbcdee654	-0.027209438
123	0x3f0993fe	0.53741443
124	0x3edd6d5b	0.43247494
125	0x3eb9cc80	0.36288834
126	0x3ba5f5e5	0.0050647133
127	0x3e66ec00	0.22550964

lstm.weight_ih_l1 f4 [128, 32]
0	0x3f9a5dce	1.2059877
1	0x3cdbf712	0.02685121
2	0x3d633e61	0.05547941
3	0x3e4e8858	0.20169199
4	0x3ea76b35	0.3269898
5	0xbed2ecb6	-0.4119622
6	0x3e4675a1	0.1938081
7	0xbe610064	-0.21972805
8	0x3eacf6be	0.33782
9	0xbeef6300	-0.46755219
10	0x3ed2dacb	0.4118255
11	0x3da04c4d	0.07827053
12	0x3d54fdb6	0.05199977
13	0x3dbd6145	0.09247068
14	0x3e425c8d	0.18980618
15	0x3e57bb44	0.2106753
16	0x3e3b6646	0.18300733
17	0x3d713377	0.05888697
18	0x3f0049b0	0.5011244
19	0x3ecd256a	0.40067607
20	0xbe0127ea	-0.12612882
21	0xbeecac9f	-0.4622545
22	0xbf431f85	-0.7621997
23	0xbefbc5ab	-0.49174246
24	0x4001be29	2.0272315
25	0xbe1c6395	-0.15272363
26	0xb8e5e5f0	-0.000109624
27	0x3e208ebd	0.1567945
28	0xbea6b273	-0.3255802
29	0x3e9e9fb9	0.30981234
30	0x3e2cbcfe	0.1686897
31	0xbe77aac9	-0.24186243
32	0x3e3dab0b	0.18522279
33	0x3e48a52b	0.19594257
34	0xbcaf5728	-0.021403864
35	0xbdfd5216	-0.12369172
36	0xbe013d04	-0.12620932
37	0x3c845674	0.016154505
38	0xbdee49e3	-0.116351865
39	0xbe704553	-0.23463945
40	0x3b971edb	0.0046118326
41	0x3c4c3b42	0.0124653
42	0xbd87d5e8	-0.06632596
43	0x3e0f3274	0.1398409
44	0x3e33f05d	0.1757216
45	0x3dc46a59	0.09590597
46	0x3d855bec	0.06511673
47	0x3dfea495	0.12433735
48	0x3d52c755	0.05145963
49	0x3e584f7f	0.21124075
50	0x3dc9ec11	0.09859479
51	0xbb6b8934	-0.0035939934
52	0x3da69a04	0.08134845
53	0xbc1c9e21	-0.009559185
54	0xbd094137	-0.03350946
55	0xbdbb7108	-0.091524184
56	0xbd943ef0	-0.07238567
57	0x3e35fb9a	0.1777176
58	0x3e7ebf6d	0.2487771
59	0x3da0f944	0.07860044
60	0x3d90bd6b	0.070673786
61	0x3e83230d	0.2561268
62	0x3e75dbc4	0.24009615
63	0xbe81aaba	-0.25325567
64	0x3e8a137c	0.2696799
65	0xbe23223d	-0.1593103
66	0x3d822bfb	0.06356045
67	0xbebc182f	-0.367372
68	0xbde344df	-0.110971205
69	0x3e37181f	0.17880295
70	0xbeaca525	-0.33719745
71	0xbd8589cb	-0.065204225
72	0x3b132764	0.0022453899
73	0xbebbfba2	-0.36715418
74	0x3e435dd8	0.19078767
75	0x3d8a4eb6	0.06753294
76	0xbda0cd8a	-0.078517035
77	0x3c1e5d4a	0.0096657965
78	0xbd866f71	-0.065642245
79	0x3c6e6806	0.014551168
80	0xbda8ff32	-0.082518
81	0x3f0865c9	0.5328031
82	0xbceaf84f	-0.028682856
83	0xbe57c698	-0.21071851
84	0x3ecf2db6	0.40464562
85	0x3e581ba3	0.21104293
86	0xbc690304	-0.01422191
87	0x3e9dd5d5	0.30827203
88	0x3d8db7f2	0.069198504
89	0x3c5bb290	0.013409272
90	0x3e551dfd	0.20812221
91	0x3e6851f8	0.22687519
92	0xbe311e76	-0.17296776
93	0x3dca32af	0.098729484
94	0x3ef205ba	0.47269994
95	0xbf191c31	-0.5980864
96	0x3dd94922	0.10609652
97	0x3e0bb76b	0.13644187
98	0x3d21c6f9	0.039496396
99	0xbe1354bd	-0.14387794
100	0x3b84140a	0.004030709
101	0xbe532966	-0.20621261
102	0xbe5cc4f2	-0.21559504
103	0xbe0ee4b0	-0.13954425
104	0xbdb465d6	-0.08808486
105	0xbdffcfe8	-0.12490827
106	0x3c59cbef	0.01329325
107	0x3ce50770	0.027957648
108	0xbd22b09c	-0.03971921
109	0x3e5bef14	0.2147792
110	0xbdf1b9a0	-0.11802983
111	0x3e6cb06f	0.23114179
112	0x3dbb807e	0.09155367
113	0x3d4c73e4	0.04991521
114	0xbde6fe96	-0.11279027
115	0xbe5c7e5a	-0.21532574
116	0x3e64799e	0.22312018
117	0x3e4d5a7d	0.2005405
118	0x3dcbec08	0.09957129
119	0x3e048d94	0.12944633
120	0xbe0e39fc	-0.13889307
121	0x3e1cc143	0.15308098
122	0x3e1c0c2a	0.15239015
123	0x3dd72647	0.10505348
124	0xbe305ed7	-0.17223679
125	0xbd567585	-0.05235817
126	0xbcf28d84	-0.029608496
127	0xbc416bda	-0.011805499
128	0x3ca48afa	0.0200858
129	0x3ed075de	0.40714926
130	0x3eb0fcad	0.34567776
131	0x3e7d2b28	0.24723494
132	0x3f26fdab	0.65230817
133	0x3e792046	0.24328718
134	0xbed45c70	-0.41476774
135	0x3f18b527	0.59651417
136	0xbec676db	-0.38762555
137	0x3e574fad	0.21026488
138	0x3d551694	0.052023485
139	0xbe64c79e	-0.22341773
140	0xbf432185	-0.7622302
141	0xbe50d4af	-0.20393632
142	0xbe7f71bc	-0.2494573
143	0xbe511de0	-0.20421553
144	0x3e26c626	0.16286525
145	0x3ea04557	0.31302902
146	0xbef66793	-0.48125896
147	0xbee3a576	-0.44462174
148	0xbe3a6b3e	-0.18204972
149	0x3ed3ac5e	0.41342443
150	0x3f1e10b1	0.6174422
151	0x3f69b985	0.91298705
152	0x3f44f5ef	0.76937765
153	0xbe4c1fdc	-0.19934028
154	0x3eca7f7f	0.39550397
155	0xbf5f0278	-0.8711314
156	0x3e14e4c0	0.14540386
157	0xbf0bb0ba	-0.5456654
158	0x3ee341b7	0.44386074
159	0xbe5c276f	-0.21499418
160	0x3ea6ad14	0.32553923
161	0x3ec18635	0.37797704
162	0x3cded1cb	0.027199646
163	0xbdfad1e7	-0.12247067
164	0xbd83f439	-0.06443066
165	0x3e0e5067	0.13897859
166	0xbe1f928e	-0.1558325
167	0xbc739e85	-0.014869337
168	0x3e112287	0.14173327
169	0xbdfcb7c2	-0.123397365
170	0x3dd89519	0.10575313
171	0x3de4bc2c	0.111687034
172	0x3e308e5e	0.17241809
173	0x3e0655ee	0.13118717
174	0xbe00e270	-0.12586379
175	0x3bc3dede	0.0059774956
176	0xbe76fa41	-0.24118902
177	0xbca4fb8e	-0.020139482
178	0xbe112e3c	-0.14177793
179	0xbe371041	-0.17877294
180	0xbcac5e5d	-0.02104109
181	0x3e3c54e3	0.18391757
182	0x3deeb5a4	0.11655739
183	0xbe67ff86	-0.22656068
184	0xbeb75473	-0.35806617
185	0x3e927696	0.286061
186	0x3e484e80	0.19561195
187	0x3e4960a4	0.19665772
188	0xbe38b3de	-0.18037364
189	0x3ea5de97	0.32396385
190	0x3c2d0156	0.010559401
191	0xbdb4f821	-0.08836389
192	0x3e460dbb	0.19341175
193	0x3d00ae20	0.03141606
194	0x3e3f07c0	0.186553
195	0xbdcb7285	-0.09933952
196	0x3ccd359c	0.025049977
197	0x3e2ea1da	0.17053929
198	0xbe742e1a	-0.23845711
199	0xbe47690a	-0.19473663
200	0x3dbb331c	0.09140608
201	0x3d15c203	0.036561977
202	0x3ceabecb	0.02865543
203	0xbcda67a6	-0.026660752
204	0x3bcd6212	0.0062677944
205	0xbcc922e6	-0.024552774
206	0xbcb72116	-0.022354644
207	0xbd711b3a	-0.058863856
208	0x3d986ae3	0.07442262
209	0xbd1cdc6f	-0.03829616
210	0x3de53ac7	0.111928515
211	0xbddd778a	-0.10813816
212	0x3e354a34	0.17704087
213	0xbd0e7599	-0.03478012
214	0xbdae6a8d	-0.08516417
215	0xbdcd3846	-0.10020499
216	0xbe53b2d7	-0.2067369
217	0xbafad15c	-0.001913588
218	0x3dfb4c92	0.12270464
219	0xbe225a51	-0.15854765
220	0xbdc81523	-0.097696565
221	0x3d04a4ed	0.032383848
222	0xbc4cd099	-0.012500905
223	0x3e0268c2	0.12735274
224	0x3e800c3c	0.25009334
225	0x3e6b263e	0.22963807
226	0x3e0d1085	0.13775833
227	0xbf55ebe9	-0.83563095
228	0x3f346e0e	0.7048043
229	0xbdea8d92	-0.11452784
230	0x3e1e4b41	0.15458395
231	0xbd4e56f6	-0.0503759
232	0xbf08bc40	-0.53412247
233	0xbf437e5e	-0.76364696
234	0xbe727724	-0.23678261
235	0xbd642e44	-0.055708185
236	0xbe8046a6	-0.250539
237	0x3f018487	0.50592846
238	0xbebda0ab	-0.37036642
239	0x3f202b51	0.62566096
240	0xbf78371a	-0.9695908
241	0x3e937fd0	0.2880845
242	0x3e696951	0.22794081
243	0xbe421c82	-0.18956187
244	0x3edc2619	0.42997816
245	0x3e377fff	0.1791992
246	0xbd0f8b36	-0.03504487
247	0x3f0f0957	0.55873626
248	0xbe2024c6	-0.15639028
249	0x3e8e43e4	0.2778617
250	0x3f891dc6	1.0712211
251	0xbe6b5fe2	-0.22985795
252	0x3e1c5afd	0.15269084
253	0x3f54af57	0.8308005
254	0x3de70886	0.112809226
255	0xbf54d902	-0.8314363

lstm.weight_hh_l1 f4 [128, 32]
0	0xbf4380d2	-0.7636844
1	0x3d33d9c1	0.04390884
2	0x3cd5fde2	0.026122037
3	0x3ed95e73	0.42454872
4	0xbe965e68	-0.293689
5	0x3db9d28c	0.09073362
6	0x3f31ef72	0.6950599
7	0x3e12707a	0.14300719
8	0x3e088d20	0.13335085
9	0x3f5b9523	0.8577444
10	0x3efe46e5	0.49663463
11	0x3e284490	0.16432405
12	0xbd9fc5f6	-0.0780143
13	0x3d6e5fb5	0.058196742
14	0xbe02a51c	-0.12758297
15	0x3eca0f5f	0.39464852
16	0x3f0920a4	0.5356543
17	0x3dc2d8c5	0.09514002
18	0x3db7587d	0.08952425
19	0xbe88e552	-0.26737458
20	0x3e9f1171	0.31067994
21	0x3f1e2b13	0.61784476
22	0x3e16610c	0.14685458
23	0x3ec2515c	0.37952697
24	0xbe7ac500	-0.24489212
25	0x3dbb8c50	0.09157622
26	0xbed69d99	-0.41917112
27	0x3f0461ef	0.51711935
28	0x3f10f4cf	0.5662355
29	0xbe997f96	-0.29980153
30	0xbcd1a886	-0.025593054
31	0x3b7d7615	0.0038675119
32	0x3e00cdbc	0.12578481
33	0xbd7d84f8	-0.061894387
34	0x3e6457f2	0.22299173
35	0xbe0279cf	-0.12741779
36	0x3d901ee8	0.07037145
37	0xbc4dd463	-0.012562844
38	0x3d4183a2	0.047244675
39	0x3e606730	0.21914363
40	0xbd5835f8	-0.052785844
41	0xbb823699	-0.0039737937
42	0xbe04faf3	-0.12986355
43	0x3e777dd6	0.24169096
44	0x3df2e066	0.11859207
45	0xbd0d8887	-0.03455403
46	0xbdb1f11e	-0.086885676
47	0x3e444937	0.19168554
48	0x3e80ec7c	0.25180423
49	0x3d9f5626	0.077801034
50	0xbe0c7d13	-0.13719587
51	0xbe46f6f3	-0.19430141
52	0x3e83678b	0.25664935
53	0xbd300c87	-0.042980697
54	0x3e346ef6	0.17620453
55	0xbd889b48	-0.066702425
56	0x3e03e4a7	0.12880193
57	0xbc508dad	-0.012729091
58	0xbdfb3721	-0.122663744
59	0xbe4df161	-0.2011161
60	0xb980ebc2	-0.00024589716
61	0x3e5fc76d	0.21853419
62	0x3c47889e	0.012178568
63	0x3e8c409c	0.27393043
64	0x3e9c16c2	0.30486113
65	0x3e31a648	0.17348588
66	0x3e701ed2	0.23449257
67	0xbe5f581d	-0.21810956
68	0xbe700d9e	-0.23442695
69	0x3e62044e	0.22071955
70	0xbe6a2f31	-0.22869565
71	0x3eaab703	0.33342752
72	0x3d507b7e	0.05089902
73	0xbde553ec	-0.111976475
74	0xbea5dd50	-0.3239541
75	0x3e7ab64d	0.24483605
76	0x3e47f0eb	0.19525497
77	0x3e26d788	0.16293156
78	0xbdb59439	-0.08866162
79	0xbd8b4b4c	-0.06801471
80	0x3d094e80	0.03352213
81	0xbd9e386f	-0.077256076
82	0x3e9eadbc	0.30991924
83	0x3e14efeb	0.14544646
84	0x3d2c8ccf	0.042126473
85	0x3e9406f0	0.28911543
86	0x3eb0f6ab	0.34563193
87	0x3e0af39b	0.1356949
88	0x3d94a6c7	0.07258373
89	0x3cc24345	0.023713717
90	0xbcfd0a1c	-0.03088861
91	0xbe98f99b	-0.29877934
92	0x3e14c313	0.1452754
93	0x3eb48ffd	0.35266104
94	0x3da15a30	0.0787853
95	0x3dea1cfd	0.1143131
96	0xbd4cf0d9	-0.050034378
97	0x3d81cfd1	0.06338466
98	0x3c9ed0c5	0.019386658
99	0x3c51b81d	0.012800244
100	0xbe362e54	-0.1779111
101	0x3db2084b	0.08692988
102	0xbe2d1b69	-0.16904987
103	0x3def44bb	0.11683031
104	0xbd335f09	-0.043791804
105	0x3c1db4f6	0.009625664
106	0x3d3e73d0	0.046497166
107	0x3e351919	0.17685355
108	0xbd0d7e3d	-0.03454422
109	0x3d13b9c2	0.036065824
110	0x3dde6623	0.10859325
111	0x3da9ba86	0.0828753
112	0x3e171f20	0.14757967
113	0x3e7b731a	0.24555627
114	0x3e400176	0.18750557
115	0xbe41d6ec	-0.18929642
116	0x3e65985c	0.22421402
117	0x3dc87ac1	0.097890384
118	0xba7846f2	-0.0009471021
119	0x3cb27ba2	0.021787468
120	0x3d94972a	0.07255395
121	0x3e808b70	0.25106382
122	0xbb6246e0	-0.0034527108
123	0xbd03db2b	-0.032191437
124	0x3dbcc9cc	0.09218177
125	0x3d432b0a	0.047648467
126	0x3e3bd0b0	0.18341327
127	0x3e3d6add	0.18497796
128	0xbe41109a	-0.18853989
129	0x3e93282c	0.28741586
130	0x3c7cc426	0.015427625
131	0x3e983320	0.29726505
132	0xbe9e464b	-0.30913004
133	0xbcf726f1	-0.030169936
134	0x3d9e543b	0.077309094
135	0x3d263348	0.04057625
136	0xbe65e796	-0.22451624
137	0xbe9182f5	-0.28420225
138	0x3edaa3f6	0.42703217
139	0x3ec1f5cb	0.37882838
140	0x3f101d1e	0.5629443
141	0xbf0d86bd	-0.5528372
142	0x3e450988	0.19241917
143	0xbc922e71	-0.01784441
144	0x3f64320a	0.89138854
145	0xbdd4824e	-0.10376416
146	0x3dcfc634	0.10145226
147	0xbee01b27	-0.43770716
148	0x3f03ecc0	0.51533127
149	0x3f0654ac	0.5247295
150	0xbe2729c5	-0.16324528
151	0xbe827c87	-0.25485632
152	0x3f5995d5	0.8499425
153	0x3e65338a	0.22382942
154	0xbe2a1346	-0.16608915
155	0x3db66681	0.0890627
156	0x3ce75666	0.02823944
157	0x3eb635af	0.35587832
158	0x3ddd22c6	0.10797648
159	0x3da16d22	0.078821436
160	0xbd9049a4	-0.07045296
161	0x3e6251a7	0.2210146
162	0x3e661bde	0.22471568
163	0xbe07ee68	-0.13274539
164	0x3d62c0f7	0.055359807
165	0x3d4d3942	0.050103433
166	0xbe78a12f	-0.24280237
167	0x3dcae1e5	0.09906367
168	0x3d80cccd	0.06289063
169	0xbde438e2	-0.11143662
170	0xbe1a853c	-0.15089887
171	0xbdad896a	-0.08473475
172	0x3dc7004b	0.09716853
173	0xbe7c3ddc	-0.24632972
174	0x3cd11342	0.025521878
175	0x3db44cc0	0.088037014
176	0x3d1b81aa	0.037965454
177	0xb8a78143	-7.9872574e-05
178	0x3d3f63fc	0.046726212
179	0x3dd35060	0.10318065
180	0x3c807b57	0.015683813
181	0x3d4150bc	0.047196135
182	0x3e3ba4ec	0.18324631
183	0x3e21fe69	0.15819706
184	0xbcb6025a	-0.022217918
185	0xbd704df8	-0.058668107
186	0xbcd2f994	-0.025753774
187	0xbe2b0486	-0.16700944
188	0xbb76a485	-0.0037634682
189	0x3e488bf0	0.19584632
190	0x3e84dbb1	0.2594886
191	0x3d83cdd7	0.06435745
192	0xbd23395d	-0.039849628
193	0x3dcb6fac	0.09933409
194	0x3e71b85a	0.23605481
195	0xbe42db34	-0.19028932
196	0xbe125233	-0.14289169
197	0xbb8c756f	-0.00428646
198	0xbcdd38d5	-0.027004639
199	0x3e448f72	0.19195345
200	0xbd25f4e5	-0.040516753
201	0x3d524877	0.05133864
202	0xbe2f135b	-0.17097227
203	0x3c4e2d8c	0.012584101
204	0x3ce9c1ff	0.028534887
205	0xbe5eb2c1	-0.21747877
206	0xbc441fcd	-0.0119704725
207	0xbda6c40f	-0.08142864
208	0x3e38d665	0.18050535
209	0xbd9f632e	-0.07782589
210	0xbe1d8a2b	-0.15384738
211	0x3dcff699	0.10154457
212	0xbde138f8	-0.10997194
213	0x3e6f27d2	0.23355034
214	0x3e70560a	0.23470321
215	0x3e3632d1	0.17792822
216	0xbde497c8	-0.111617625
217	0x3e781ca3	0.24229674
218	0xbcfb29aa	-0.030659515
219	0xbd08a24b	-0.0333579
220	0xbcca705f	-0.024711786
221	0x3c81f35e	0.015863117
222	0x3df0f42f	0.11765324
223	0xbd8e2064	-0.06939772
224	0xbd63f754	-0.055655792
225	0xbe3c19a6	-0.18369159
226	0x3e9cd0f4	0.3062817
227	0xbf0e5670	-0.55600643
228	0xbf47774c	-0.7791641
229	0x3eb1887f	0.3467445
230	0xbd50977d	-0.05092572
231	0x3e197c76	0.14988884
232	0x3ee28e53	0.4424921
233	0xbd7b8687	-0.061407592
234	0xbeae2b0d	-0.3401722
235	0xbe7602f6	-0.24024567
236	0xbdd1335c	-0.10214874
237	0xbec58c37	-0.38583538
238	0x3ecb28d1	0.39679578
239	0x3eb4a445	0.35281578
240	0x3eac7c68	0.33688664
241	0xbee97201	-0.4559479
242	0xbf7dbee3	-0.99119395
243	0x3f151167	0.5822968
244	0x3dd1d834	0.102463156
245	0x3f32669f	0.6968784
246	0x3ea5b34d	0.32363358
247	0x3f4a446e	0.79010665
248	0x3fbd80b9	1.4804908
249	0x3f0cb87c	0.54969
250	0x3f1daaca	0.6158873
251	0x3ea61673	0.32439002
252	0x3f445c9b	0.76703805
253	0xbec1bc2b	-0.37838873
254	0xbe56f53f	-0.20991991
255	0xbde084f3	-0.10962858

lstm.bias_ih_l1 f4 [128]
0	0xbd3ad9d4	-0.045617893
1	0x3e18135e	0.14851138
2	0x3e137f01	0.14403917
3	0x3d55349e	0.052052133
4	0xbdd3b8b5	-0.103379644
5	0xbd14b684	-0.036306873
6	0x3da8b505	0.08237652
7	0x3eb88e7f	0.36046216
8	0x3e7ac1b9	0.24487962
9	0x3dc63062	0.09677197
10	0x3d8d9950	0.06914008
11	0x3d56c301	0.052432064
12	0xbd1e3614	-0.03862579
13	0x3e89eec9	0.2693999
14	0xbde9acad	-0.114098884
15	0x3ddcf185	0.10788254
16	0x3d90f199	0.07077331
17	0x3e25a3e1	0.16175796
18	0x3e79d0bd	0.24396034
19	0x3e21a97b	0.15787308
20	0x3e827694	0.25481093
21	0xbb318ef1	-0.0027093256
22	0x3db627fc	0.08894345
23	0x3e4793f1	0.19490029
24	0x3e6481b6	0.22315106
25	0x3e466771	0.19375397
26	0x3e778bf1	0.24174477
27	0x3e638125	0.22217233
28	0x3dd2a427	0.10285216
29	0xbdbe0d1f	-0.092798464
30	0x3e8ab297	0.27089378
31	0x3e33410e	0.17505285
32	0xbdfd53be	-0.12369488
33	0x3e2b1c72	0.1671007
34	0x3d847a98	0.064686954
35	0x3d4820a6	0.04885926
36	0xbd202288	-0.03909543
37	0x3e393986	0.1808835
38	0x3e04dcf4	0.12974912
39	0x3d97d5c1	0.07413817
40	0x3d2ae140	0.04171872
41	0xbd7b9282	-0.061419018
42	0x3e07f006	0.13275155
43	0x3d1d9b6b	0.038478296
44	0x3e2c95e1	0.1685405
45	0x3d9d50f7	0.076814584
46	0x3d863e8f	0.06554901
47	0x3e3e8dfc	0.1860885
48	0xbdb01210	-0.08597195
49	0xbe142a5c	-0.14469284
50	0x3db45b8a	0.08806522
51	0xbe7fa4af	-0.24965166
52	0x3e58b1f6	0.21161637
53	0x3e80de6f	0.25169703
54	0x3e4cbb73	0.19993381
55	0xbdfa8027	-0.12231474
56	0x3ccccbc0	0.0249995
57	0xbd1c0af9	-0.0380964
58	0xbe0bdd89	-0.13658728
59	0x3e7bd933	0.24594574
60	0x3e7679fd	0.24069972
61	0x3e5ffa44	0.21872813
62	0x3e095d92	0.134146
63	0xbdc40335	-0.09570924
64	0x3e1969d9	0.14981784
65	0x3e0fed9b	0.14055483
66	0x3e261b46	0.16221341
67	0xbe76de91	-0.2410834
68	0xbe2278f6	-0.15866455
69	0x3e2647a6	0.16238269
70	0xbe1d0152	-0.15332535
71	0x3e86e2e5	0.26344982
72	0xbd429c74	-0.047512487
73	0xbd94ffc3	-0.07275345
74	0xbe357c89	-0.17723288
75	0x3e716e31	0.23577191
76	0x3dfbbd2f	0.12291943
77	0xbe8f4454	-0.27981818
78	0x3e213bad	0.15745421
79	0x3db84398	0.089972675
80	0xbc1e9492	-0.009678977
81	0x3e559be4	0.20860249
82	0x3c0d7925	0.00863484
83	0x3d8ee61f	0.06977486
84	0x3e140f8c	0.14459056
85	0x3dd4655d	0.10370896
86	0x3e371463	0.1787887
87	0x3e31c9b3	0.17362098
88	0xbe13e9ad	-0.14444609
89	0x3e0e60fb	0.13904183
90	0x3dd78002	0.105224624
91	0x3c80238d	0.015641952
92	0x3e5d425b	0.21607344
93	0xbc7c6af0	-0.015406355
94	0x3d673fbf	0.056457277
95	0xbc910fb9	-0.017707692
96	0x3e379f7c	0.17931932
97	0x3e805938	0.25068069
98	0xbd3b6e06	-0.045759223
99	0xbd1df1fa	-0.038560845
100	0xbe624ecb	-0.2210037
101	0x3e29a144	0.16565424
102	0x3cf65636	0.030070405
103	0xbcde5aa3	-0.027142828
104	0x3d3ef2b9	0.046618197
105	0x3e174282	0.14771464
106	0x3df5307f	0.119721405
107	0xbe2842f3	-0.16431789
108	0x3d824914	0.06361595
109	0x3d2255f8	0.039632767
110	0x3e566c6f	0.20939802
111	0xbe5d6046	-0.21618757
112	0x3ea7cdab	0.327741
113	0x3d0b8603	0.03406335
114	0x3d66ff5c	0.056395873
115	0x3e4598f8	0.19296634
116	0x3dba1067	0.0908516
117	0x3da4c699	0.08045692
118	0x3b3b55b3	0.0028585016
119	0xbc51f52f	-0.012814804
120	0x3e9a7197	0.30164787
121	0x3e8631a0	0.26209736
122	0xbd39adba	-0.045331694
123	0xbdfdacf2	-0.12386502
124	0x3e2f5c17	0.17124973
125	0xbd50f3b7	-0.051013675
126	0xbb314675	-0.0027050052
127	0xbd79f9b0	-0.061029136

lstm.bias_hh_l1 f4 [128]
0	0x3e8e3380	0.27773666
1	0x3dc4aa1c	0.09602758
2	0x3e476859	0.19473399
3	0x3d37cf2e	0.044875316
4	0x3e1bf73c	0.15231031
5	0xbd4e74cc	-0.050404355
6	0x3d75edc6	0.06004121
7	0x3ea3eaa8	0.32014966
8	0x3e7e22fb	0.24818031
9	0xbccfb74c	-0.025355957
10	0x3df377d0	0.11888087
11	0xbc072505	-0.008248572
12	0x3e47ff7b	0.19531052
13	0x3eb8010f	0.35938308
14	0x3d9fa771	0.07795609
15	0xbcdd8f80	-0.027045965
16	0x3d4ed703	0.05049802
17	0x3da901af	0.08252274
18	0x3f035fa5	0.51317817
19	0x3e1e1bad	0.15440245
20	0xbd5a5c52	-0.0533107
21	0x3e57aae4	0.21061283
22	0x3e6fe5e7	0.23427545
23	0x3e83b4f1	0.25723985
24	0x3eda61e4	0.4265281
25	0x3e35cd23	0.17754035
26	0x3d98794e	0.07445012
27	0x3e470922	0.19437078
28	0xbca9c82e	-0.020725336
29	0x3be4d1f9	0.0069830385
30	0x3e7494ec	0.23884934
31	0x3e218cc7	0.15776359
32	0xbdedb728	-0.116072
33	0x3c00cd4a	0.007861445
34	0x3d85a068	0.06524736
35	0x3e5640bf	0.20923136
36	0x3e0d21ab	0.13782375
37	0x3e2e0c42	0.16996863
38	0x3df6f82d	0.120590545
39	0x3da342c2	0.079717174
40	0xbdd5e1ae	-0.104434356
41	0xbe363706	-0.17794427
42	0x3bf857ec	0.0075788405
43	0xbd9e1b50	-0.07720053
44	0xbd9384a6	-0.07203035
45	0xbe5a9b0e	-0.21348211
46	0xbd3459e0	-0.044031024
47	0x3e886ffd	0.2664794
48	0xbe2be6f1	-0.16787316
49	0xbd938d02	-0.072046295
50	0x3ce45063	0.027870363
51	0xbd4fd6bf	-0.050741907
52	0xbbec46e7	-0.0072106007
53	0x3e80de6e	0.251697
54	0xbc9c3c92	-0.01907185
55	0x3e1d6b1b	0.15372889
56	0xbe0bb90a	-0.13644806
57	0x3e8d2142	0.27564436
58	0xbd7e15a4	-0.062032357
59	0x3e80cd6b	0.2515672
60	0x3e6a4f8f	0.22881912
61	0x3d3b3cdb	0.045712333
62	0x3db57ba4	0.08861473
63	0x3e3208b6	0.17386135
64	0x3dea0e13	0.11428466
65	0x3e5f7e51	0.2182553
66	0xbcae9a9a	-0.021313954
67	0xbe04e425	-0.12977655
68	0xbe3eebe6	-0.18644676
69	0x3d1fc6fd	0.03900813
70	0xbe7f626a	-0.24939886
71	0x3e361b3a	0.17783824
72	0xbd6bf9b8	-0.057611197
73	0xbe329ba2	-0.17442182
74	0xbe4497fe	-0.19198605
75	0x3e171cd6	0.14757094
76	0x3e0124b5	0.12611659
77	0xbe9fcb92	-0.3121
78	0x3cf701d0	0.030152231
79	0x3e7ec864	0.2488113
80	0xbd1d81ac	-0.038453743
81	0x3d0e7431	0.034778778
82	0x3d4fc7fc	0.05072783
83	0xbd1ea330	-0.038729846
84	0x3e1785d1	0.1479714
85	0x3e5692d1	0.20954444
86	0x3bfed4f2	0.00777685
87	0x3e0481e9	0.12940182
88	0x3e20c2c3	0.15699296
89	0x3e11f697	0.14254223
90	0xbda24ee0	-0.079252005
91	0xbe4bff85	-0.19921692
92	0x3df750ae	0.12075935
93	0x3e6d43d6	0.23170409
94	0x3eb37294	0.35048354
95	0x3c8bd213	0.017067945
96	0xbc816b18	-0.015798137
97	0x3e3c710f	0.18402503
98	0xbdd4fca2	-0.103997484
99	0x3c1dc54a	0.009629557
100	0x3d5e49ab	0.054269474
101	0xbda203e7	-0.079109006
102	0x3e929de8	0.28636098
103	0x3dc5f75b	0.0966632
104	0xbcf4d33d	-0.029885883
105	0x3e5b1829	0.21395935
106	0xbb82f84c	-0.0039968845
107	0xbe4bd7b5	-0.19906504
108	0x3ae1a5c6	0.0017215542
109	0x3ce48216	0.027894061
110	0x3e22c94b	0.158971
111	0xbba370ed	-0.004987827
112	0x3e646816	0.2230533
113	0xbc1ba39e	-0.009499459
114	0x3db5290c	0.0884572
115	0xbdaeb903	-0.08531382
116	0x3e5f057f	0.2177944
117	0x3e22dacd	0.15903778
118	0x3d9f1ef3	0.07769575
119	0x3d5112b9	0.051043246
120	0x3e66847f	0.22511481
121	0x3e57af05	0.21062858
122	0x3e6e06f3	0.23244838
123	0x3d0d11ed	0.034440923
124	0x3dd8bdff	0.10583114
125	0xbd83538b	-0.06412419
126	0x3d6e88d8	0.058235973
127	0x3dae3a15	0.08507172
