lstm_model.pth (torch, 151461 bytes, 7 tensors)

embedding.weight f4 [30, 64]
000000 b1 d7 89 be 27 be 94 bc 87 4c 22 40 99 5d 95 3f
       -0.26922372 -0.018157078 2.5359209 1.1669189
000010 02 77 43 bf ec 7e 8d bf fd 98 a4 3f 26 1f 56 3f
       -0.76353467 -1.1054358 1.2859188 0.8364128
000020 ba ec 8a 3f 19 e5 f9 3f 5c 47 e2 3e 46 83 23 bf
       1.0853493 1.952304 0.44195068 -0.6387218
000030 09 b0 56 bf 93 32 3a c0 c6 1b a5 bf e1 6d 0c 3d
       -0.8386236 -2.9093368 -1.2899101 0.034284476
000040 5d f4 27 40 7f 8f 43 3f f7 54 1f 40 bf 36 9e 3f
       2.6242898 0.7639083 2.4895608 1.2360457
000050 63 8f a8 3e 98 be 6c bf af fe 1b 40 60 d5 ab be
       0.32921895 -0.92478323 2.4374197 -0.3356123
000060 7c 21 9d bf 90 53 b2 3d 77 10 5e 3f 06 07 ae 3d
       -1.2275844 0.087073445 0.86743873 0.08497433
000070 c3 35 88 3e c2 bb 8a bf 04 5d e8 3e b4 c5 79 40
       0.26603517 -1.0838549 0.45383465 3.9026918
000080 bf 93 54 40 a4 15 2c be 6d 3b 2d c0 c0 43 67 bf
       3.3215177 -0.1680513 -2.706752 -0.90337753
000090 76 85 55 3f 02 14 9f bf 91 59 84 3f 95 28 de 3e
       0.8340677 -1.2427981 1.0339833 0.43390337
0000a0 56 5c 02 40 93 ca a2 3e 5d 5e 66 bf ef ab cb 3f
       2.0368857 0.31795177 -0.89987737 1.5911845
0000b0 5f 88 6b bf 48 c2 28 bf 4a 34 4d 3f 7f 5b c3 bf
       -0.9200496 -0.6592145 0.8015791 -1.5262297
0000c0 ff 03 d8 3f 90 95 ec bf 92 02 b6 bf 31 2b 0e c0
       1.687622 -1.8483143 -1.4219534 -2.2213862
0000d0 ac 91 0b c0 92 f4 02 40 e3 f8 cb bf df df 45 bd
       -2.180766 2.0461774 -1.5935329 -0.048309203
0000e0 6d 44 55 3f 2c 36 7d 3f 7e d3 2c 3f ac b4 1b be
       0.83307534 0.98910785 0.6751021 -0.1520564
0000f0 3e aa 12 c0 f7 8d b2 3f ad 3e 77 40 84 c3 be bf
       -2.2916408 1.3949574 3.8632004 -1.4903417
000100 55 20 1c bf a9 d2 d3 3f 8b ac 5e 3f 80 d1 1f 40
       -0.60986835 1.6548663 0.8698203 2.4971619
000110 65 da 36 3e de 52 f9 be 33 eb 4f bd 24 e6 e1 be
       0.17856748 -0.48696035 -0.050761413 -0.44120896
000120 96 c5 35 3e 2e 73 5a 3f 1e 0b 93 bf 06 42 05 3f
       0.17751154 0.85332 -1.1487768 0.5205387
000130 df a2 3e bf a3 26 09 c0 8d 76 60 3f b5 cc a3 bf
       -0.7446727 -2.1429832 0.87680894 -1.2796847
000140 2d 7b 0a 3f 02 75 81 3f 9c 29 b9 3f 87 03 c4 3f
       0.540942 1.0113833 1.4465823 1.5313576
000150 68 3a a5 3f 68 3d a5 bf 7c 02 5c 3f 2a 3b b4 be
       1.2908449 -1.2909365 0.8594129 -0.3520139
000160 71 f4 cf be c6 fe 06 40 f0 4b 15 3f 67 8d 96 3f
       -0.40616181 2.1093001 0.58318996 1.1761903
000170 1e 47 aa be d3 71 97 be 02 43 42 3f a6 62 43 40
       -0.33257383 -0.29579028 0.75883496 3.052896
000180 6f 40 07 40 4c 25 97 bf 45 48 2f c0 43 76 86 3e
       2.1133077 -1.1808257 -2.738786 0.26262102
000190 56 23 cd 3e e7 45 a5 be d5 7f c0 bf f6 c8 9c 3f
       0.40066022 -0.32279894 -1.5039011 1.2248828
0001a0 79 d9 1b 40 a3 fc b3 bf c3 51 70 3e 67 41 97 bf
       2.4351485 -1.4061474 0.2346869 -1.1816834
0001b0 24 a2 f9 be a0 6e 4a bf db 6b cd 3f 63 85 7a bf
       -0.48756516 -0.7907505 1.604854 -0.9785978
0001c0 d9 26 2c 40 b2 26 a0 bf cc 77 70 bf ab d4 e7 bd
       2.689871 -1.2511809 -0.93932796 -0.1131986
0001d0 eb 11 07 c0 89 1b ed 3f ba 36 c8 bf 27 66 02 c0
       -2.1104686 1.8524028 -1.5641701 -2.037485
0001e0 27 e2 0b 40 12 84 de 3f b5 56 46 be 65 c9 3a 3d
       2.1856782 1.7384055 -0.19369014 0.04560222
0001f0 6a f1 20 c0 cf e2 c3 3f 83 3b 0f 40 1e 5c 2e bf
       -2.5147347 1.5303591 2.2380073 -0.6810931
000200 45 d3 cc be ae 8c b7 be 7c 28 1c 3e 54 f6 86 bf
       -0.40004936 -0.35849518 0.15249819 -1.0543923
000210 d5 b2 09 be 53 6e 89 bc bd 1f ae 3f 7b f4 ac 3f
       -0.13447125 -0.01677624 1.3603436 1.351211
000220 e3 0e 62 c0 8e f5 e4 3e b1 ed 12 3f 58 e9 13 40
       -3.5321586 0.44718593 0.5739394 2.3111172
000230 00 26 fd 3f 9c 34 82 bf 57 8f 95 3e 15 7e 56 bf
       1.9777222 -1.0172305 0.29210922 -0.83786136
000240 ce 16 80 3e f1 da ff be 75 b3 9f 3e 0a 6a 31 3f
       0.250174 -0.49971727 0.31191602 0.6930243
000250 b2 4c 8c 3e 40 e3 ae 3e 50 20 99 bf ee da b1 3f
       0.27402264 0.34157753 -1.1962986 1.3894937
000260 2c 86 1f bf cc b0 91 3e 4a ab da 3e 34 2d 35 bf
       -0.62314105 0.28455198 0.42708808 -0.707721
000270 09 1a 3a bd cf 68 cc be cb a4 88 3f 53 ca 9a 3f
       -0.045434985 -0.39923713 1.0675291 1.2092994
000280 e9 71 fd 3e 4d 96 96 be 1b 8e 78 bf 66 b3 26 3f
       0.4950097 -0.29411545 -0.97091836 0.6511749
000290 1b e5 0a bf 61 68 ea 3f 43 1b bd bd 38 3d bd bd
       -0.5425584 1.8313104 -0.092337154 -0.09240192
0002a0 3b 5c f9 bc 1c 95 76 3f 15 1e 33 3f ab 29 ae bd
       -0.030439487 0.9632127 0.69967777 -0.08504041
0002b0 b5 76 ba 3f 6d 9b 4c 3f ab cf 9a 3f 14 51 da 3e
       1.4567477 0.7992466 1.2094625 0.42639983
0002c0 43 46 a1 bf 68 93 d2 bd 94 70 a5 be 79 78 9d bf
       -1.2599567 -0.10282022 -0.32312453 -1.230239
0002d0 10 9c 1a be e7 2b cb bf e3 f6 8d be a3 4e 8a bf
       -0.15098596 -1.5872773 -0.27727422 -1.0805248
0002e0 b5 f3 54 bf 23 7e ad bf 73 0c 30 3f 33 9c 1f bd
       -0.8318437 -1.3554119 0.68768996 -0.038967323
0002f0 12 b8 d3 be fe 4b 22 3e 9f 82 97 3e 4a 2d e8 3f
       -0.41351372 0.15849301 0.29591843 1.8138821
000300 86 2e 62 3e b1 16 88 3e 3c 64 a1 3f 61 9b 21 bf
       0.2208806 0.26579812 1.2608714 -0.63127714
000310 2e ea c9 be ac 31 6d c0 81 6c 65 3e 77 20 58 bf
       -0.39436477 -3.7061567 0.22404672 -0.8442454
000320 48 8b 3d be be f1 8b bf f5 c4 38 bf a2 1f ca bf
       -0.18510163 -1.0933149 -0.7217553 -1.5790904
000330 e1 0c 27 bf b9 57 8e 3f 4f 88 e2 3f 55 21 92 3f
       -0.65254027 1.1120521 1.7697848 1.1416422
000340 13 17 ab 3e 35 96 fd be 12 e7 60 3f 82 ff 16 3d
       0.33416042 -0.4952866 0.87852585 0.036864765
000350 c7 03 3a 3f 98 0e f3 3e 76 7c b5 3e 96 79 58 3f
       0.72662014 0.47472072 0.3544652 0.84560525
000360 8f 93 b2 3e d4 e8 fd 3e 00 fb a4 bf 71 ce 85 3e
       0.34878203 0.49591696 -1.2889099 0.26134065
000370 97 e3 c4 bf 9f 79 a3 bf 94 14 07 bf b3 2b 5c bf
       -1.5381955 -1.2771491 -0.52765775 -0.8600418
000380 3a b0 d4 bf d6 a0 89 3f e1 21 92 3f c9 27 43 bf
       -1.661628 1.0752208 1.1416589 -0.7623258
000390 e0 96 1d be 2e 95 1c 3f b9 c8 8d 3f e3 b6 6c 3e
       -0.15389585 0.6116513 1.1076881 0.23116641
0003a0 3b c1 9c 3e c3 5d 2c c0 b4 5e 3a bf 2b dc 25 be
       0.30616173 -2.6932228 -0.72800756 -0.16197269
0003b0 8a 8b cb 3f 2c fb 83 bf 4e a6 dc 3e 39 0b fb bf
       1.5901959 -1.0311027 0.4309563 -1.96128
0003c0 ea 6e c4 be 68 80 d3 be c5 a1 cd bf 96 50 46 3f
       -0.3836587 -0.41308904 -1.6064993 0.77466714
0003d0 51 91 07 c0 63 05 80 bf 1f b8 b4 3e 03 e9 a1 3f
       -2.1182444 -1.0001644 0.35296723 1.2649235
0003e0 01 06 f9 3e 51 86 4d be 9d 80 a4 be f9 5d 4e 3f
       0.48637393 -0.20070769 -0.32129374 0.8061214
0003f0 37 c9 17 bc 2a 65 c8 3d d7 5d e7 3f 02 fc 2f 3f
       -0.009264282 0.097849205 1.8075513 0.6874391

lstm.weight_ih_l0 f4 [256, 64]
000000 6e f5 01 3d 1e 2d db 3e 3f d0 37 3e 6f ac 84 bd
       0.0317282 0.4280786 0.17950533 -0.064782016
000010 71 4c 5a be cd a2 97 be 43 cd 23 3e 1b d5 5d be
       -0.21318223 -0.29616395 0.1599627 -0.21663325
000020 fe e4 c0 be f8 20 b2 3e 4e 86 e6 3d b7 14 0e bc
       -0.37674707 0.34790778 0.11256085 -0.008671931
000030 64 df 8f 3e b2 00 43 be b4 22 8f be 9f e0 f5 3d
       0.2810012 -0.19043234 -0.27956164 0.12005734
000040 83 92 ce 3e 2d 21 96 3e 33 1e b5 3e e4 b0 1b 3f
       0.40346155 0.29322186 0.35374603 0.6081679
000050 ad 2a 92 3a ca 67 f0 bc 5a 8a a1 bd b4 28 cd 3e
       0.0011151634 -0.029346365 -0.078877166 0.40070117
000060 42 6e 45 be ea 62 6d bd 55 e5 9b bd ec 4d 31 be
       -0.19280341 -0.05795566 -0.07612101 -0.17314881
000070 1d d4 5c be 2b d0 92 bd 3d 1b 1c 3c 57 f8 9b 3d
       -0.2156529 -0.07168611 0.0095279785 0.076157264
000080 2e 84 8c 3e ac 10 89 3e 71 64 23 3e 7a ff 4c bd
       0.27444595 0.26770532 0.15956284 -0.05004833
000090 63 47 47 be 52 79 b5 3c 6d 04 69 be ed eb ad be
       -0.19460826 0.022152577 -0.22755595 -0.3396906
0000a0 61 3c 0e 3f df a5 f7 3d e4 31 71 3b 3f fb 8d 3d
       0.5556088 0.12092184 0.0036803419 0.06932687
0000b0 b4 aa b2 bc 84 3d f6 3e 52 95 1b 3d c7 f0 25 3e
       -0.021809913 0.48093808 0.0379842 0.1620513
0000c0 be 88 5e 3e e2 53 e9 be 80 04 81 3e e2 a3 87 3e
       0.2173185 -0.4557181 0.25198746 0.2649222
0000d0 be ca 6d be ba 5c d2 bd f8 a0 88 3d 32 c9 a6 be
       -0.23221871 -0.102715924 0.06671327 -0.32575375
0000e0 18 18 a0 bd 87 c0 a1 be 09 01 3d 3e f5 f2 6c 3e
       -0.078170955 -0.315922 0.18457426 0.23139556
0000f0 de 3c 85 3e 7f ad 3d 3e cd 97 b8 bd 24 dd 5f 3d
       0.26023 0.18523215 -0.09013329 0.054654256
000100 a8 4a 2b be 0d 8c 0f be 95 57 0f be a7 fa e0 3e
       -0.16727698 -0.14018269 -0.13998254 0.43941233
000110 b5 39 80 3d 99 86 c3 bd 3e f3 d6 bd 1e c0 00 3e
       0.06261007 -0.09547157 -0.104956135 0.12573287
000120 7d da 04 bd a2 4b 64 3e 0b b0 18 3e ec 58 2e 3e
       -0.03243493 0.22294477 0.14910905 0.17026109
000130 2b 94 4b be 08 48 c3 3d 82 87 ce bd 93 ae 83 be
       -0.1988074 0.09535223 -0.1008444 -0.25719127
000140 bf 10 6f bd 8f ea 05 3e 86 ed e1 3d 85 2f 41 be
       -0.05836558 0.13077758 0.11031632 -0.18865784
000150 83 d0 b9 3d 80 ec 98 bd 85 4b 45 3e b0 8e a4 bd
       0.090729736 -0.07466984 0.1926709 -0.08035028
000160 5d a0 cf 3e 6d b5 1f bd 90 f8 93 3d 96 a8 1d 3d
       0.40552035 -0.03899138 0.07225144 0.038490854
000170 81 1e 56 bd 24 4a fa bd 0f ea 41 bd 4d 11 80 3d
       -0.052275185 -0.122211725 -0.047342356 0.062533
000180 35 05 95 be d2 51 06 bc 7e 87 c4 3b d2 71 04 3c
       -0.29105535 -0.008198218 0.0059975972 0.0080837775
000190 05 db 52 3d 5a 21 36 be e3 1c 84 3e f7 19 8a bd
       0.051478405 -0.1778616 0.2580329 -0.06743234
0001a0 b5 54 88 3c c5 01 60 be bb a4 d5 bd a4 62 23 bd
       0.016641954 -0.21875675 -0.104318105 -0.039888993
0001b0 f1 fb bc 3d fc ad f2 be e5 a4 c1 bd 99 49 f4 be
       0.092277415 -0.47398365 -0.09455279 -0.477124
0001c0 20 83 3d 3e b5 5f 9e bd 34 b5 98 be cb cb cc bc
       0.18507051 -0.077330984 -0.29825747 -0.02499952
0001d0 bf e5 cc 3d 20 4d 4a bc 9f 11 a4 bd 00 89 aa 3e
       0.10004758 -0.01234749 -0.080111735 0.33307648
0001e0 e6 f6 38 3e 0e e5 79 3e 90 08 59 3c d1 4e 85 3c
       0.18062934 0.24403784 0.01324667 0.016272934
0001f0 c9 0f 6a be 1c 42 c8 3e 56 b5 e5 bb 63 8c c6 bd
       -0.22857584 0.39112937 -0.0070101423 -0.096947454
000200 36 6c 67 3e 3a 2b 33 bd fd 18 a3 3d a9 9f 45 3d
       0.22599873 -0.043742396 0.079637505 0.048247967
000210 45 0d f8 3d 74 45 44 3c e3 cb 84 3e 18 29 6e be
       0.12111906 0.01197945 0.25936803 -0.23257864
000220 6d f7 98 3d b0 ff f8 3d a3 78 af bd a8 b6 17 be
       0.07469068 0.121581435 -0.085679315 -0.14815772
000230 40 bf cb be 1b dc 42 3e 4d 89 fd bd 5a 18 83 3e
       -0.3979435 0.19029276 -0.12379704 0.25604516
000240 6f 7e 03 be 58 86 d2 be 9f b0 3e 3c 9e 82 3c 3e
       -0.128412 -0.4111812 0.011638789 0.18409202
000250 14 81 7f be 1d 3d f0 bd 8c 62 12 bc d9 e2 6c bd
       -0.24951583 -0.117304064 -0.008934628 -0.057833526
000260 aa 87 88 3b 27 93 0a be e6 dd 91 3d a9 f9 2c be
       0.004166563 -0.13532697 0.07122402 -0.16892113
000270 17 78 a0 3d be 77 30 3e 44 4f 16 be 68 66 2e 3d
       0.07835405 0.17233178 -0.14678675 0.04257813
000280 db 96 23 bd 49 7c 82 be b2 83 8d be 61 f2 fc bd
       -0.03993879 -0.25485447 -0.27639538 -0.123509176
000290 7b 3d 2a bd 36 a9 9f bd ac 69 2d bd 9c 7c 17 3d
       -0.04156254 -0.07795946 -0.042337105 0.03698407
0002a0 39 52 25 bd 83 e5 3f 3c 16 e7 8f bd 8e 69 07 be
       -0.040361617 0.011712435 -0.07026498 -0.1322386
0002b0 1e bf f2 3d 85 14 ef 3d ee 9e 71 3e 46 06 ff 3d
       0.11852859 0.11673836 0.23595783 0.124523684
0002c0 32 c6 58 bb bb 3a ef bd d2 12 f6 bd 62 52 07 bd
       -0.0033077118 -0.11681124 -0.120153084 -0.03303755
0002d0 38 58 41 be 22 0b bd bd 91 38 e9 bd 19 e5 d0 3d
       -0.18881309 -0.09230639 -0.11387742 0.10199947
0002e0 67 66 ae 3d 4f 5f 66 be 3f 1a 93 3e 1d b5 0f 3e
       0.085156254 -0.22497295 0.28730962 0.14033933
0002f0 e2 e4 a2 be 85 bd 45 3e fe b8 8d 3e fb 8c 8d bd
       -0.3181525 0.19310577 0.276802 -0.069116555
000300 6f 2f a7 be ab b7 1a 3e de 5c 3b 3d 17 23 3e 3e
       -0.32653376 0.15109126 0.045742862 0.18568073
000310 b1 a3 bf bc 0e 42 5e 3d 28 64 8a 3e 86 5d ee 3e
       -0.023393484 0.054262213 0.27029538 0.46555728
000320 61 3f 5e be 3d 11 b5 3e ca be 71 be 2c fa 2d bd
       -0.21703865 0.35364714 -0.23607937 -0.04247491
000330 3c c8 db bc 89 10 89 be 67 98 0a 3e a5 96 87 be
       -0.026828878 -0.26770428 0.135347 -0.2648212
000340 f6 5b cd 3d e8 35 ce 3d f1 b8 1d bf 54 0b 0f be
       0.10027306 0.100688756 -0.61610323 -0.13969165
000350 7d c3 29 bc 81 7a c2 bd 8b 7b 5a 3d a0 dd 33 bc
       -0.010361549 -0.09496022 0.053340476 -0.0109781325
000360 73 2d 4c 3e 8d 88 32 bd 24 8f 05 bc 7a 54 fc bc
       0.19939213 -0.043587256 -0.008151803 -0.030802
000370 16 49 50 bd 41 55 cc 3c 03 cd 40 3d 4f 5b a1 3e
       -0.05085095 0.024942996 0.047070514 0.31514975
000380 9e 64 0d be 32 9b fc 3d 7a 68 86 3e 9f 13 bd be
       -0.13807914 0.12334289 0.26251584 -0.36929032
000390 96 a2 80 bd 7f 06 5e be 1a bb d9 3c 6b 5b 26 3d
       -0.06281011 -0.21682166 0.026578475 0.040614527
0003a0 e6 21 be 3e f5 2a 43 bd d2 97 2a be 44 45 c5 bc
       0.37135237 -0.04764839 -0.16659477 -0.02408088
0003b0 1f 14 06 bd e4 f2 1e 3e f4 cc 10 3e 93 f2 8c be
       -0.032734033 0.15522343 0.14140683 -0.2752882
0003c0 f3 8e 9e 3c a2 c6 2c be 20 3c 0a 3d c9 ea 47 be
       0.019355273 -0.16872647 0.033748746 -0.19523157
0003d0 5f 87 bc bc b9 02 53 3d 61 46 5c be f9 94 28 be
       -0.023013769 0.05151627 -0.21511222 -0.16463079
0003e0 90 4c 1c bc e2 8a 4a be 04 e5 14 be e6 17 05 3e
       -0.009539738 -0.19779542 -0.14540488 0.12997398
0003f0 b7 34 0a 3d 12 a9 07 3f 2c 87 b4 3d dc ce c4 be
       0.03374168 0.52992356 0.088148445 -0.3843907

lstm.weight_hh_l0 f4 [256, 64]
000000 93 f9 2d 3e 84 20 42 3f 76 09 2b 3e bb fb 8a 3e
       0.16989736 0.75830865 0.16702828 0.2714518
000010 f4 53 15 bf f4 d6 d5 bd 11 86 fb 3d f6 50 26 3e
       -0.5833123 -0.1044139 0.122814305 0.16241822
000020 4f 9d 17 3f 98 44 bc 3d b8 00 0e bf 3a 99 d8 3e
       0.5922441 0.09192771 -0.55469847 0.42304403
000030 ec 2d 96 bf 2e 75 90 be e3 e9 94 bd 66 67 3f 3e
       -1.1732764 -0.282144 -0.07271173 0.18691787
000040 8d 15 e1 3e 26 5a 99 3f 98 2c 3c 3e 2f 57 ac bc
       0.43961754 1.1980636 0.18376386 -0.021037666
000050 a3 89 b1 be a8 77 4d 3e 45 2f 52 3e 31 18 85 bf
       -0.3467532 0.20065176 0.20525844 -1.0398008
000060 f4 73 fd be dd 19 ef 3d 43 66 33 bf cc cf 3a 3f
       -0.49502528 0.11674855 -0.70077914 0.7297332
000070 19 15 9d 3e a0 7a 8e be 6c 18 86 3f 2e c2 61 3f
       0.3068016 -0.2782793 1.0476203 0.8818692
000080 26 b7 07 bd 3d ec 49 3f 33 4e e8 3d 58 77 5d 3d
       -0.03313365 0.78876096 0.1134304 0.054068893
000090 c4 7f 38 be f6 d2 64 3e 65 5c 2c 3e bd 34 9a bd
       -0.18017489 0.223461 0.1683212 -0.0752959
0000a0 3b 70 9f be ab 0b 8e bd 59 bc 55 bf 5d 79 8b bf
       -0.31140313 -0.06935819 -0.8349052 -1.0896412
0000b0 3e 13 6a 3f 6e a0 f0 be 13 9d 95 be 38 70 99 3e
       0.9143561 -0.46997398 -0.292214 0.2996843
0000c0 4f 52 b9 bd d5 52 3d 3f eb d3 ab 3f 9f 51 cf bd
       -0.09048902 0.73954517 1.3424047 -0.1012299
0000d0 45 74 56 3e b6 4c b2 3d 1d a5 86 3e 48 60 19 3e
       0.20942791 0.08706038 0.26297846 0.14978135
0000e0 55 ed 6f 3d 3c 5d 33 3d 2e 8a 0f bf 7b d6 96 3f
       0.058575947 0.043790087 -0.5607022 1.1784204
0000f0 08 5a 74 3e 8d 82 ac bd d6 a9 35 3e 3b 8e ce 3e
       0.23862469 -0.08423338 0.17740569 0.40342888
000100 23 39 44 3e 30 12 2c 3d 2c 8a d5 3c 23 9e db 3e
       0.19162421 0.042009532 0.026066862 0.42894086
000110 08 2d 02 bf 95 5d 2a 3e d1 9b 5d 3e 0e c7 b7 3d
       -0.5084996 0.16637261 0.2164147 0.089735135
000120 40 d7 ca be 0d c7 9f 3c 5c b2 eb be 04 a1 5e 3e
       -0.39617348 0.019504094 -0.46034515 0.2174111
000130 88 04 03 bf 67 5a 39 bf 54 ac ef be 9c 10 ce bc
       -0.5117879 -0.7240357 -0.46811163 -0.025154404
000140 cf a7 1c bf 77 09 1e 3e 1a c7 4c 3f a2 be 8b 3d
       -0.61193556 0.15433298 0.79991305 0.0682347
000150 73 99 96 3e 6c af a8 bc 35 99 3c bf f5 ec b5 be
       0.29413947 -0.02059146 -0.73671275 -0.35532346
000160 fa 99 f8 bd a7 5c 4e 3f 5d 10 94 3e 65 8d fb bd
       -0.12138744 0.80610126 0.28918734 -0.12282828
000170 47 87 9a 3d b0 31 5e 3e e9 13 e0 3e c6 43 6a be
       0.07545333 0.21698642 0.4376519 -0.22877416
000180 1f 8f 8a bd 9b 63 93 bd 47 18 d4 be b4 7f bc 3d
       -0.067655794 -0.071967326 -0.41424772 0.09204045
000190 6c f4 b1 3e 4c b3 bf 3e 9f e2 cf 3e e2 77 23 3e
       0.34756792 0.3744148 0.40602586 0.159637
0001a0 87 77 07 3f ad 24 0c bf b8 3d da bd e7 33 97 be
       0.5291676 -0.5474346 -0.10656303 -0.29531786
0001b0 ec ad 11 3f ba 01 cd bd 0d 7c c3 be 4f 58 18 bf
       0.5690601 -0.10010095 -0.3818058 -0.5950975
0001c0 16 48 7b 3d 1b d7 8e 3e d9 1a 17 3e f1 2b b4 3e
       0.061348043 0.27898487 0.14756335 0.35189775
0001d0 91 48 51 bf d5 c6 21 3f 38 bb 6d 3d aa bc 9b bd
       -0.8175135 0.6319402 0.058039874 -0.07604344
0001e0 32 b2 de 3e c4 d9 5c bf 08 d9 69 be 85 b1 84 be
       0.43495327 -0.86269784 -0.22836697 -0.25916687
0001f0 43 db a0 3e 8e 09 36 3e e0 5d 91 be 72 15 ba 3e
       0.31417283 0.17777082 -0.28391933 0.36344486
000200 16 29 81 bd d3 bf cc 3e a2 0b ce 3d f3 f3 c7 be
       -0.06306665 0.399901 0.100608125 -0.39053306
000210 e5 68 98 3d ca 8e 78 3d f2 ca a4 bf fd 0c 19 bf
       0.07441882 0.06068305 -1.2874434 -0.59785444
000220 ff 47 26 3e c5 92 cb 3e d2 ca 21 3f f5 9e 9f be
       0.16238402 0.39760414 0.63200104 -0.31175962
000230 c2 58 75 bf 9e d4 af 3a 04 f2 57 bf 0a bd db 3e
       -0.9583856 0.0013414805 -0.8435366 0.42917663
000240 d2 81 d3 3b 51 ae 34 3e 29 82 2f be 5f d7 98 be
       0.006454685 0.17644621 -0.17139496 -0.29851815
000250 91 9a ee 3d 24 f0 3d be 88 9e 53 bf 7c 25 2f 3e
       0.11650575 -0.18548638 -0.82663774 0.17104143
000260 93 2d c3 3d 26 38 c3 3e 89 d9 38 3e ab 2a d2 3e
       0.09530177 0.38128775 0.18051733 0.41048178
000270 84 f8 63 3f 8d 48 af bd d3 a9 0b bf 09 08 da 3e
       0.8905108 -0.0855876 -0.54556006 0.42584255
000280 3a 95 0e be 6f af a9 be 21 dc 9b 3e 33 29 81 bd
       -0.13924113 -0.33141658 0.30441383 -0.06306686
000290 60 35 4f 3f 36 54 eb bd 21 c3 df 3d 32 2a 92 bf
       0.8094082 -0.11490671 0.1092589 -1.1419127
0002a0 ca 97 98 3e f4 d4 48 3d 16 8b 2b 3e 10 6a e0 3e
       0.29803306 0.049031213 0.16752276 0.4383092
0002b0 f1 2d 15 bd b1 d8 27 bf 69 33 fa 3e 7d 67 c9 be
       -0.036420766 -0.6556502 0.48867348 -0.39336768
0002c0 9b b8 fc be f0 e2 14 3f 80 3d 9a 3f 77 30 a4 3c
       -0.49359593 0.5815878 1.2050018 0.020042641
0002d0 d5 90 3a bc a3 f1 0a bf aa c8 27 3f b0 f0 23 bd
       -0.01138707 -0.5427496 0.65540564 -0.04002446
0002e0 de c5 0b 3d 4b 95 43 3f e3 e1 d4 3e a9 7d 36 3f
       0.034124248 0.7639968 0.41578588 0.7128549
0002f0 69 51 8f 3e 95 97 86 3b 9d ff 05 3f db 55 f6 3e
       0.279918 0.0041074255 0.5234316 0.48112378
000300 e2 e4 9a bf e9 04 7d be eb 06 8e 3f dd 87 d7 be
       -1.21011 -0.24708904 1.1095861 -0.42095843
000310 db 16 f1 3e 05 3a c3 be 55 5a 0e bf 39 de 64 3f
       0.4708775 -0.38130203 -0.55606586 0.89401585
000320 65 9e 72 3f e4 a3 16 3f 27 48 8c be d8 10 0f bf
       0.9477294 0.5884383 -0.27398798 -0.55885077
000330 a0 5c e7 3c ae 64 2a 3e e5 47 f2 3e 7d ef 4e 3f
       0.02824241 0.16639969 0.47320476 0.8083418
000340 06 2b 95 be 52 fc ff 3d d3 9a 7b bf 6d 46 c4 3d
       -0.29134387 0.12499298 -0.9828312 0.09583745
000350 80 84 28 3f c8 8e e2 bd 05 e2 b0 3e d9 fa 8a 3f
       0.6582718 -0.110623896 0.3454744 1.0857803
000360 31 ae 28 bf d0 1a 81 3e 2a 6f 18 be 78 de 74 be
       -0.65890795 0.2521577 -0.14886156 -0.2391299
000370 e6 ba 36 3e 25 ba d3 bd 6f e5 6f 3c 6c 8a 50 3f
       0.17844734 -0.103382386 0.014642104 0.81461215
000380 8e 02 30 3f 69 2a 33 3f 2c 50 8e be 73 e8 e7 bd
       0.687539 0.6998659 -0.2779554 -0.11323633
000390 f9 6b 60 3f 37 47 2b 3e 13 48 1f 3e 57 fa 18 bf
       0.87664753 0.16726385 0.15554838 -0.5975699
0003a0 e8 e6 c0 be 81 bf d1 3e ce 71 60 bf 9b 41 5b 3e
       -0.37676167 0.40966418 -0.8767365 0.21411745
0003b0 e9 f5 89 be ab 74 e8 bc 2a 21 fd be 9c 02 4b 3f
       -0.26945427 -0.028375944 -0.49439365 0.79300857
0003c0 d9 43 dd be d1 70 67 3c 46 17 14 be 9c e5 f7 3e
       -0.43215826 0.014126019 -0.14462003 0.48417366
0003d0 79 5a f9 be 97 92 cb 3e bc 21 ef be f3 67 96 bd
       -0.48701838 0.39760277 -0.46705425 -0.073440455
0003e0 d4 4d 57 3c be ea 12 3e 25 c1 85 bf 70 65 e3 3c
       0.013141114 0.1434736 -1.0449568 0.02775833
0003f0 c8 3e bb 3d 8a 1c f3 bb 00 58 46 3e e6 38 de bf
       0.09142834 -0.0074191736 0.19369507 -1.7361114

lstm.bias_ih_l0 f4 [256]
000000 a8 b3 af 3e 37 c1 76 3d 9a 5a 24 3e 60 85 8e 3c
       0.34316754 0.060242858 0.16050187 0.017397583
000010 cb 41 af 3e 9c cf 45 bc f2 35 16 3e ee a6 8e 3a
       0.34229884 -0.012073424 0.14669016 0.0010883489
000020 47 98 77 3e 47 4c 03 3e 72 ff 8a 3e 53 ae 85 3e
       0.24179183 0.12822066 0.27148014 0.2610956
000030 9e 81 0c 3e 38 46 f5 bc 32 2e 5a 3e 8f ee 43 3e
       0.1372132 -0.02994071 0.21306685 0.19133972
000040 86 14 18 3e 65 4e 8e 3e b7 60 97 3e 78 29 74 3d
       0.14851579 0.27794185 0.29565975 0.05960986
000050 ef b0 5c 3e 0c 88 82 3e b6 0e c6 3e 69 88 04 3e
       0.2155187 0.2549442 0.386831 0.12942661
000060 25 cb 7d 3e 18 4a 80 3e e9 bf 38 3e 30 94 4c 3e
       0.24784525 0.2505653 0.18041958 0.19978404
000070 09 00 31 3e 29 3b 3a 3d c6 98 83 3e 25 26 73 3e
       0.1728517 0.045466576 0.25702494 0.2374502
000080 9b 82 85 3d 77 86 7d 3e ea cf 47 3e ec 91 db 3d
       0.06519052 0.24758326 0.19512907 0.10721192
000090 73 b3 a2 3d 7c f2 41 3e a7 af 78 3e 4f 3e 33 3d
       0.079443835 0.18940157 0.24285756 0.043760594
0000a0 7e 73 74 3e 1b 85 14 3e 3b b9 64 3e 9e b9 74 3e
       0.23872182 0.145039 0.22336285 0.23898932
0000b0 63 d1 17 3d 15 c6 b9 3d 52 55 90 3e db c0 57 bd
       0.03706492 0.09070984 0.28190094 -0.052674156
0000c0 39 e2 29 3d a9 a6 8d 3d 8e 74 5a 3e 50 f2 65 3e
       0.04147551 0.069165535 0.21333525 0.22455716
0000d0 ee cb c2 3d 22 bc 35 3d f0 a6 af 3c c6 b5 24 3d
       0.09511553 0.04436887 0.021441907 0.040212415
0000e0 48 79 6b 3e 79 53 8e 3e ec 25 84 3e b1 f9 11 3e
       0.22995484 0.2779806 0.25810182 0.14255406
0000f0 9f a8 0c 3d 60 05 8b 3e 81 de c2 3e 26 ff 30 3e
       0.034340497 0.27152538 0.38060382 0.17284831
000100 23 b8 55 be b5 9d 4a 3d fe 28 4f 3d ca 56 87 3d
       -0.20871024 0.049466807 0.050576203 0.066083506
000110 72 69 9f bd 6a 7c 1b 3d 69 a1 38 bd 71 46 23 3d
       -0.07783784 0.037960447 -0.045075808 0.0398621
000120 7d a6 94 3d 82 ef e0 3d 72 9f 42 be 9f 13 12 3e
       0.072583176 0.109831825 -0.19006136 0.14265297
000130 8d d5 24 be 74 d2 cb 3d 72 e7 c7 3d 7a 55 52 be
       -0.16097088 0.0995225 0.097609416 -0.20540419
000140 04 db 30 3e e4 af 11 3e a4 fb 0b bc 96 1b 70 3d
       0.17271048 0.14227253 -0.0085438825 0.058620058
000150 c1 bb 89 be f3 0a 5c bc fd 59 91 be 11 b1 89 bd
       -0.26901057 -0.013430345 -0.28388968 -0.06723226
000160 0d 1b c7 bd 2b c3 2f be 5f 3c 02 3e 58 00 0f bd
       -0.097219564 -0.17164294 0.12718342 -0.034912437
000170 c4 d3 d7 3a 3d 3d a5 3d 27 f8 0b 3e 9e 4e 10 bd
       0.0016466309 0.08068321 0.13668881 -0.035231225
000180 21 29 6a 3d 7b d5 b3 bd d7 04 9d 3e 3f 9c a6 bd
       0.05716813 -0.087809525 0.30667755 -0.0813527
000190 ef 8c 24 3d 22 95 d3 3d 67 3a f9 3d 71 ec 2a 3e
       0.040173467 0.10331179 0.121693425 0.16691758
0001a0 03 eb 0f 3e 84 d4 22 bd 63 b1 fb 3d 24 6f f4 bd
       0.14054494 -0.039753452 0.12289693 -0.11935261
0001b0 d5 f1 bd 3d ac 79 02 bb 63 a4 97 3c f0 9f 44 bd
       0.092746414 -0.0019908948 0.018511003 -0.04800409
0001c0 c4 cc 45 3c 61 66 ac bb 6b 38 0b be 4d 83 18 3e
       0.012072746 -0.005261228 -0.1359574 0.14893837
0001d0 98 5c c9 bd d4 91 05 3e c3 3b a7 3d e8 04 fc 3d
       -0.09832114 0.1304391 0.081656955 0.12305623
0001e0 8f 88 b0 bd d4 7d 2b 3d b2 38 5b be 62 22 35 bd
       -0.086197965 0.041868046 -0.21408346 -0.044222243
0001f0 0f fd 08 3d ff e1 21 3d 35 9b fa bd 3b da fb bc
       0.03344446 0.039522167 -0.12236635 -0.030743709
000200 dc 1a 22 be 4a 17 fc bd ab b1 30 3e 7f 25 6a be
       -0.15830559 -0.123091295 0.17255275 -0.22865866
000210 c6 e9 41 be c3 c1 0b 3d ba 82 c6 bd f7 67 fc 3d
       -0.18936834 0.034120332 -0.09692903 0.12324517
000220 ad f4 e8 3c 5c 94 10 3e fc da 46 3e 08 c6 13 be
       0.028436983 0.14119095 0.19419473 -0.14431012
000230 aa 48 e1 bd 76 f3 19 be 6d 98 64 3d bc 39 87 3c
       -0.11000188 -0.15034279 0.055809427 0.016507022
000240 91 f7 4e be 7c c8 5e 3e 43 f7 60 3d c0 5f 4e 3d
       -0.20211627 0.21756166 0.054923307 0.050384283
000250 13 b8 8b 3c 48 eb 0b 3e 70 a6 96 bb 79 17 22 be
       0.017055547 0.13663971 -0.0045974776 -0.15829267
000260 ac 7d a4 3d dd 6f 6f 3d 59 1d e9 bc e8 40 bd 3d
       0.080317825 0.05845629 -0.028456377 0.092408955
000270 49 e8 da 3d 5e 95 a1 bd 7b 32 ef bd 03 7f 72 3e
       0.10688836 -0.07889818 -0.1167955 0.23681264
000280 e2 e6 55 be 8b 8d 02 3e fa 3e 16 be 8b 2b 0f 3e
       -0.20888856 0.12749307 -0.14672461 0.13981454
000290 7b a8 c4 3c f1 43 3a 3e 20 92 86 3d 36 8b 75 be
       0.024006119 0.1818998 0.0657084 -0.23978886
0002a0 08 4f 3a 3e 6e b9 29 be 6e 68 04 be aa 15 30 3b
       0.1819421 -0.16574642 -0.12930462 0.0026868382
0002b0 76 7b 9f 3d 44 3a 51 be 53 92 1b bd 22 be 7d bc
       0.0778722 -0.20432383 -0.037981343 -0.015487226
0002c0 67 7e 5d be e7 22 4e 3d 5c 28 02 3e 11 1f 80 3d
       -0.2163025 0.050326254 0.12710708 0.062559254
0002d0 98 c0 e8 3d 73 29 01 3e 8b 65 99 bd 33 bf 2f be
       0.11364859 0.12613468 -0.07490071 -0.1716278
0002e0 a5 8e a2 3b ca 5f 13 be 8d 54 bd 3d 74 4b 07 3e
       0.004960852 -0.1439201 0.092446424 0.13212377
0002f0 a0 cf ee 3c 6b eb d4 3d 24 72 cf 3c a9 d3 fd 3c
       0.029151738 0.10396465 0.025322981 0.030984716
000300 6f d7 6e 3d ec dd 3a 3e ff 41 04 3e 21 85 47 3e
       0.058310922 0.18248719 0.129158 0.19484378
000310 01 70 8e 3e d9 9d 3b 3e 5d 34 aa 3e de 2b 17 3e
       0.27819827 0.18321933 0.33243075 0.14762828
000320 07 f3 a0 3e 61 05 51 3e bf c8 bc 3e 19 46 20 3e
       0.31435415 0.20412208 0.36871907 0.1565174
000330 2c 7d 43 3e c6 66 ea 3d 4a 75 63 3e cc 89 10 3e
       0.19090718 0.11445384 0.22212711 0.14115065
000340 84 1c 91 bd b7 dd 76 3e 09 74 db 3e 44 bf 11 3e
       -0.07085517 0.24108015 0.42861965 0.14233118
000350 2e 44 3f 3e be da c3 bd 40 76 61 3e 1b f2 31 3e
       0.18678352 -0.09563206 0.22017765 0.17377512
000360 5e 57 5c 3e 71 c9 a5 3e f1 f4 9b 3e 96 1e f6 3d
       0.21517703 0.3238025 0.30460313 0.120175526
000370 d8 b6 25 3e f4 af d9 3d 9c 6f 11 3e 60 49 2d bc
       0.1618303 0.106292635 0.14202732 -0.010576576
000380 b3 65 1a 3e 60 48 07 3e b7 aa 35 3e b2 b2 54 3e
       0.15077858 0.13211203 0.17740904 0.20771292
000390 d2 f0 9f 3e 32 63 af 3e a4 10 77 3e a8 8b 1b 3e
       0.3123842 0.34255368 0.24127442 0.15189993
0003a0 e8 e1 b9 3d ba 25 a5 bc 37 70 39 3d d7 94 dd 3d
       0.09076291 -0.020159591 0.045273032 0.108194046
0003b0 be 8a 55 3e 62 c8 89 3e c5 15 29 3e d2 bd 4f 3e
       0.20853707 0.26910692 0.1651221 0.20287254
0003c0 ed 81 00 3e 0b 0f 4f 3e 75 fd 93 3e 0c 1c 30 3e
       0.12549563 0.20220582 0.2890431 0.17198199
0003d0 7f ec 46 3e 2b 4c b1 3c 63 80 10 3e f5 d5 c4 3e
       0.19426154 0.021642765 0.14111476 0.38444486
0003e0 f7 f1 46 3d c0 dd 64 3e 87 00 da 3d e8 8d 4b bc
       0.0485706 0.22350216 0.10644632 -0.01242397
0003f0 e5 f2 4f 3d 49 9a 82 3d 78 3c 37 3e 03 c8 74 3e
       0.05076875 0.06377084 0.17894161 0.23904423

lstm.bias_hh_l0 f4 [256]
000000 c0 63 ad 3e d2 a4 ff 3d 9f bd e4 3c ab 16 e2 3d
       0.33865166 0.12482609 0.02792245 0.1103948
000010 3e 03 cf 3e 50 b1 54 3e b3 3b 6a 3e 88 63 ae 3c
       0.4043216 0.20770764 0.22874336 0.021287695
000020 80 ce 91 3d 22 77 fe 3d a0 67 ca 3e 18 54 33 3e
       0.07119465 0.124250665 0.39532185 0.17512548
000030 14 b1 48 3e c6 05 dc 3d 8d 2e c0 3c 2b 07 cb 3e
       0.195988 0.10743289 0.023459697 0.39653906
000040 d2 ca 0f 3e 52 f1 e4 3d 40 00 84 3e 12 51 7a bc
       0.14042214 0.11178841 0.2578144 -0.015278118
000050 b1 05 23 3e c0 e3 88 3e c0 7d ae 3e 7c 46 8a 3e
       0.1592014 0.2673626 0.34080315 0.270069
000060 ff 0f 98 3e 5a 2c f6 3d ed 2d e9 3d 74 8d b8 3d
       0.29699704 0.12020178 0.11385713 0.09011355
000070 5c 55 aa 3d 7a 72 06 3e 7a 65 87 3e 60 8a 12 3e
       0.08317062 0.13129607 0.26444608 0.14310598
000080 b3 4c 55 3e 83 a0 59 3e 2b 31 b4 3e 61 71 10 3e
       0.2083004 0.21252637 0.35193762 0.1410575
000090 39 41 0e 3e 66 54 03 3e cc b7 3d 3e f3 ac 5c 3d
       0.13892068 0.12825164 0.18527144 0.053875875
0000a0 9f bc 95 3d 9d f0 83 3e 79 39 58 3e b7 97 a0 3d
       0.07311367 0.2576951 0.21115674 0.07841437
0000b0 27 1d 59 3d a0 59 0c 3e 94 e4 ba 3d d4 12 21 be
       0.053006317 0.13706064 0.09125629 -0.15729839
0000c0 7c 3f 82 3e c4 c7 6d 3d e4 ff 42 3e b2 df 6d 3e
       0.2543906 0.05805184 0.19042927 0.23229864
0000d0 d1 07 68 3d 7a f9 36 bd dd 57 1f 3e 69 44 bb 3d
       0.05664808 -0.044671513 0.15560861 0.091439076
0000e0 76 65 d9 3d f1 76 b9 3e 3d 80 40 3e a4 88 60 3e
       0.10615055 0.36223558 0.18798919 0.21927124
0000f0 b6 e9 48 bd d2 ee c9 3d ab 0a b2 3e c4 19 70 3e
       -0.04905101 0.098600045 0.34773764 0.23447329
000100 41 3d b8 be 92 fa f9 3d 30 dc 82 3c 60 f6 cd 3d
       -0.35984233 0.122059956 0.015974134 0.10056758
000110 c4 ef a9 bd 5a 25 8f bd e8 e2 07 be df 19 03 bc
       -0.08297685 -0.06989546 -0.13270152 -0.008001774
000120 6c a5 91 bc f7 f3 02 3e 2b 03 3d 3c bd 66 32 bd
       -0.017779075 0.12788378 0.0115364 -0.04355501
000130 0e d8 f6 3b 9e 78 99 3d 0e c3 ae 3d 7c fe 30 be
       0.00753308 0.07493709 0.085332975 -0.17284578
000140 fa 33 0a 3e 50 a8 83 3d d4 53 ac 3d 62 df 07 3e
       0.1349639 0.064285874 0.084144264 0.13268808
000150 2f 9d 1d be 59 9c 9c 3d f0 5c 74 be 8a 0e 58 be
       -0.15391992 0.076470084 -0.23863578 -0.21099296
000160 66 4e 58 bd 7d d2 41 be 7a bb 75 3d 22 13 d8 3d
       -0.05280914 -0.18927951 0.059993245 0.10550524
000170 0e b8 6b bd 05 ca f4 bb e8 8a 1e bd 0a 82 0a be
       -0.057548575 -0.0074703717 -0.03870669 -0.13526168
000180 0d 70 20 3e a4 cd 34 3d e4 19 0d 3e c5 00 9b 3d
       0.15667744 0.044141427 0.13779408 0.07568506
000190 06 20 08 bc 99 f0 4f bb 99 86 9d bc c7 11 04 3e
       -0.008308416 -0.00317291 -0.01922922 0.12897407
0001a0 fe a3 90 3d d1 08 a0 3d 33 fc 26 3d 6e 5e 13 be
       0.07062529 0.078141816 0.04076786 -0.14391491
0001b0 06 cb b0 bc 88 0f 3e 3e 5f 86 b6 bd 04 95 af bd
       -0.021581184 0.18560612 -0.08912348 -0.08573344
0001c0 e3 3a b3 bb e1 b1 e3 bb 21 0b e4 bd fe 85 ba 3d
       -0.0054696663 -0.006948695 -0.11134935 0.09107588
0001d0 1c ef ad bd f1 f5 85 3c a8 26 2e bd 21 5c cb 3d
       -0.08492872 0.016352626 -0.042517334 0.099296816
0001e0 2e e1 8d bc 5b 89 c9 bd 0c 06 90 be 1c 3c 61 bd
       -0.017319288 -0.098406516 -0.28129613 -0.054988965
0001f0 34 09 44 3e ed 42 eb 3c 2e 38 82 3c 36 9e 9a 3b
       0.19144136 0.028718436 0.01589593 0.0047185672
000200 7e bc 6d be 88 58 ce 3c 59 4b 40 3e 6e e2 10 be
       -0.23216435 0.0251887 0.18778743 -0.14148876
000210 b5 fa fd bd b1 5c 8a bd 6a fe 8a 3d 61 ed 4e 3c
       -0.12401334 -0.06755961 0.06786807 0.012629838
000220 07 78 2e 3e 2b 83 d9 3c 70 1a 34 3e bc a5 48 be
       0.17037974 0.026551804 0.1758821 -0.19594473
000230 b4 91 e2 bd e6 30 5c be c2 aa ad bd aa eb 18 3d
       -0.11062947 -0.21503028 -0.08479835 0.03733412
000240 b9 68 23 be 3b 23 38 3c d1 ff f9 bd f2 1b d5 3d
       -0.15957917 0.011238868 -0.12206996 0.10405721
000250 1a 20 97 3d c1 b1 b1 3d 94 69 98 bd bc 11 03 3d
       0.0737917 0.08676482 -0.074420124 0.031999335
000260 28 9b 56 3d 0b ac cc bd c2 d1 23 be be 48 61 bd
       0.052394062 -0.09993752 -0.15997985 -0.055001013
000270 56 01 fc 3d ab 92 1b bd ab 15 eb bd f4 51 ba 3d
       0.12304942 -0.03798167 -0.11478742 0.090976626
000280 1a 98 7f be ac 36 0e 3e 75 04 c1 bd 8d 14 5f 3d
       -0.24960366 0.13888043 -0.09424678 0.054462958
000290 e6 02 c8 bd 79 7c 4e 3d 46 d2 8e 3e b3 d5 9b be
       -0.09766178 0.050411675 0.278948 -0.30436477
0002a0 2f 22 85 3e 0d 4e 3e be d3 57 1b be 86 5e 03 3e
       0.26002643 -0.18584462 -0.15170221 0.12829027
0002b0 7c 79 15 3e 94 ad 11 be bb 7e 17 be 84 3c 12 be
       0.14597124 -0.14226371 -0.14794438 -0.14280897
0002c0 96 e7 63 bc fb a7 9d 3d 10 da 21 3e 1e 5c e9 3d
       -0.013910195 0.07698055 0.1580584 0.11394523
0002d0 16 99 fa 3d ab 0b 33 3e 4d 1f 59 be cd b5 f0 3b
       0.1223623 0.1748492 -0.21203347 0.007345891
0002e0 7e f8 1a 3e f9 d6 4a be fc e0 31 3d 24 09 df 3d
       0.15133855 -0.19808568 0.043427452 0.10890415
0002f0 0b 9a 9d 3d 48 a8 62 3e c9 ad 54 3e fd 9d 8c bd
       0.07695397 0.22134507 0.20769419 -0.068660714
000300 47 f7 03 3e a8 9c 4e 3e c1 0a 43 3e f5 d1 17 3e
       0.12887298 0.20176947 0.19047071 0.14826186
000310 cf 3d ab 3d 62 97 86 3e 5b ba 0d 3e e8 43 b6 3e
       0.083613984 0.2628737 0.1384062 0.35598683
000320 79 38 98 3e 8a b8 cf 3d 75 99 8c 3e f5 e9 80 3e
       0.29730585 0.1014262 0.27460828 0.25178495
000330 11 75 1f 3e 58 f1 b7 3e 19 aa 9d 3e ed 3e 49 3e
       0.15572001 0.35926318 0.30793837 0.1965291
000340 c5 07 54 3d 3c 3f f8 3d 23 6c af 3e 5a ea 2d 3e
       0.051765222 0.12121436 0.3426219 0.1698393
000350 0f 5c 7a 3e 1b 57 41 bd cf 3a 8a 3e 3d 91 27 3e
       0.2444918 -0.04720221 0.26997992 0.16363998
000360 88 0b 6f 3e 53 fa d4 3e 25 79 c0 3e 03 01 55 3e
       0.23344243 0.41597232 0.37592426 0.20801167
000370 38 41 d1 b9 20 1f 9b 3e 56 96 1d 3e 84 6a 79 bc
       -0.00039912178 0.30297184 0.1538938 -0.015223149
000380 97 ef 2c bd 59 2c 9d 3e b9 84 4b 3e f3 34 80 3e
       -0.04222068 0.30697897 0.19874848 0.25040397
000390 ca b6 ce 3e 04 77 61 3e 63 c1 47 3e e0 a2 48 3e
       0.40373832 0.22018057 0.19507365 0.19593382
0003a0 50 63 f1 bd 37 21 4f 3e 05 95 bc bc 7c 24 8d 3e
       -0.117865205 0.20227514 -0.023020277 0.27566898
0003b0 cd 15 8e 3e c0 98 22 3e fb d4 6e 3e ca 7f 6c 3d
       0.27751008 0.15878582 0.23323433 0.057739057
0003c0 30 57 01 3e 51 75 41 3e 1e 0a 7f 3e 0b cb 0a 3e
       0.12630916 0.18892409 0.24906203 0.13554017
0003d0 e1 a9 0e 3e df 6b da 3d a5 b7 85 3d d1 44 48 3e
       0.13931991 0.10665106 0.06529168 0.19557501
0003e0 99 e9 c1 bb 6c 04 a5 3e d3 5c eb 3d 53 95 89 bd
       -0.0059177396 0.32229936 0.11492314 -0.067179345
0003f0 07 1e bc 3c 7f 56 86 3d e8 ea 16 3e 31 0d 39 3e
       0.022963537 0.065594666 0.14738047 0.18071438

fc.weight f4 [30, 64]
000000 9f 85 52 bf 2c 99 f0 be 53 31 ba bd 4a 6e 7e 3e
       -0.8223514 -0.4699186 -0.09091439 0.2484676
000010 77 2c e4 bd 58 fd 84 3e f6 0a a9 3e 0f 8d db 3d
       -0.111412935 0.25974536 0.33016175 0.10720264
000020 d2 f7 9a 3e 5e 8a 22 be d6 f0 7a be ff fb 7b be
       0.30267197 -0.15873095 -0.24505934 -0.24607848
000030 4c 11 08 bf c4 f4 b7 be 0f 54 f3 3d 71 11 a3 bd
       -0.5315139 -0.3592893 0.11881267 -0.07962311
000040 e5 40 dd 3e cf 5f be 3e 05 47 fc 3e 5c 87 c1 be
       0.43213573 0.3718247 0.49272934 -0.37798584
000050 c6 e5 75 be 4e 7b 83 3e cd 3c f8 3e 10 09 10 bf
       -0.24013433 0.25680012 0.48483887 -0.5626383
000060 6d f1 0b be cf d7 3f 3f aa ac 2a bf 2f 34 39 bf
       -0.13666315 0.7493867 -0.66669714 -0.7234525
000070 d7 b3 0a 3e 55 68 29 3f c1 66 e0 be 2a 20 a1 3e
       0.13545166 0.66174823 -0.43828395 0.31469852
000080 b0 3b 3d 3e c0 1f 77 3e d5 2e be 3c c7 88 1c be
       0.184798 0.24133205 0.02321569 -0.15286551
000090 61 fb 0f bf 86 6d e2 3e ba 8c 49 bd e9 d0 47 be
       -0.5624295 0.44224185 -0.049206473 -0.19513287
0000a0 50 28 8d 3e ff 03 e9 bc e2 72 8b be cf 24 f2 3e
       0.27569818 -0.028444288 -0.27236086 0.47293708
0000b0 66 06 22 3e e8 5c d6 bd e5 2a 51 3f 1d a7 f8 be
       0.15822753 -0.10466939 0.81706077 -0.48564997
0000c0 ed 97 56 3e 8d d0 c4 3e 1b c6 a4 3e 83 ef 21 be
       0.20956393 0.38440362 0.32182392 -0.15814023
0000d0 c5 e4 e8 3e 4d 53 5a 3e 2e 24 62 be 75 62 5d 3f
       0.45487037 0.21320839 -0.22084114 0.8647836
0000e0 e7 01 d6 3e 4b ab 39 be 92 de 0d be 0f 84 82 bb
       0.41798326 -0.1813175 -0.13854435 -0.003983028
0000f0 55 8f b0 3d ff 47 6b be 6f 5b 9a 3d b5 6f d9 be
       0.086210884 -0.22976683 0.07536971 -0.42468038
000100 ef b2 23 3f e3 8f ed 3c 5a 86 3e bf 1c f9 2e 3f
       0.63944906 0.028999275 -0.74423754 0.6834886
000110 7c e5 28 3f 1f c3 3b 3f b6 c1 80 3d 3e e7 0d bf
       0.65975165 0.73344606 0.062869474 -0.5543097
000120 9a 6b 12 bf dd 07 45 bf 07 bf 07 bf fc 0f 2c 3f
       -0.57195437 -0.76965123 -0.5302586 0.6721189
000130 d0 a4 05 3f 7a 8e 29 3f 95 6b 1d 3f 4e 2b 26 bf
       0.5220461 0.66233027 0.6149228 -0.6490983
000140 0d 3d 4b 3f 08 a9 51 bf 1f a3 3c 3f 17 4c 60 bf
       0.7939003 -0.81898546 0.73686403 -0.87616104
000150 6b f6 26 bf c2 c0 48 bf 54 36 83 3d 0e 8c 7e bc
       -0.65219754 -0.78419125 0.06406847 -0.015536321
000160 1b f9 8f be fa 20 ba 3e c7 ea 13 3f 59 19 30 bf
       -0.2811974 0.36353284 0.57780117 -0.6878868
000170 0b ba d0 be eb ee 0d 3f f0 12 de 3e b0 b6 09 bf
       -0.4076694 0.55442685 0.43373823 -0.53794384
000180 8c 99 54 3f 9a d9 32 bf 78 8c 4d 3f c5 c3 48 bf
       0.83046794 -0.69863284 0.80292463 -0.7842372
000190 c2 8b dc 3e e4 b9 2f bf 09 d2 41 bf 96 46 46 3f
       0.43075377 -0.6864302 -0.75711113 0.77451456
0001a0 1f be 1b bf 96 d7 52 3f 20 82 56 3f 42 47 00 bf
       -0.60836977 0.8236021 0.83792305 -0.5010873
0001b0 c1 ab 3f bf e3 d1 2d 3f c8 bf 2c 3f 20 6c 12 3f
       -0.7487145 0.67898387 0.67480135 0.57196236
0001c0 dd 4f 2c 3f ae c0 1c bd 23 e0 0f bf 46 db 25 bf
       0.6730936 -0.03826969 -0.5620138 -0.6478771
0001d0 f7 6f f2 be 88 98 2d bf 42 1d 1d 3f 84 af 1a 3f
       -0.47351047 -0.6781087 0.6137277 0.60424066
0001e0 cc e5 00 bf 12 60 25 3f 22 8c b6 be 09 68 38 bf
       -0.5035064 0.64599717 -0.35653788 -0.72033745
0001f0 4e 09 32 bf 28 92 48 bf d3 23 4c bf 32 44 b0 3e
       -0.6954545 -0.78348017 -0.79742163 0.3442703
000200 76 74 d6 3e ed bf 1d 3f a3 b0 e5 3d 9a 5a db 3e
       0.41885728 0.6162098 0.112153314 0.4284256
000210 d2 94 b4 bd f0 f0 17 bf 6e 6a ea 3e 6d 05 0a 3f
       -0.08817448 -0.59352016 0.45784324 0.5391453
000220 2e 48 8f 3e 82 20 8f 3e aa 26 57 3f 8c 43 26 3f
       0.27984756 0.2795449 0.8404337 0.6494682
000230 82 14 09 bf 51 51 9f 3d 06 bd 8b be a8 07 3b bf
       -0.5354692 0.07779182 -0.2729265 -0.7305856
000240 4c 23 c2 be f9 4f 42 3e 57 94 60 3e ea 75 ba bd
       -0.37917554 0.1897582 0.21931587 -0.091045216
000250 e1 5b 27 3e 4e 0d 58 3e 5d fd bb be 40 18 95 bd
       0.16343643 0.21098825 -0.36716738 -0.07280016
000260 b7 fb 0d be f7 e2 e9 3e 4b 1b 89 be e5 13 06 bf
       -0.13865553 0.45680973 -0.26778635 -0.52374107
000270 a3 6f 9f 3e 38 68 e6 3d 2e 74 7f 3e 11 4a 06 3e
       0.3113986 0.11250347 0.24946663 0.13114192
000280 ea 77 df be 91 91 a0 3d 93 15 35 be 5d b8 11 3f
       -0.43646175 0.078402646 -0.17684011 0.5692194
000290 ee 68 2e 3e 9f b9 f9 be 97 23 ed 3d b0 29 10 be
       0.17032215 -0.4877443 0.11579054 -0.14078403
0002a0 da 48 d3 be 89 4c d5 be ec c9 8d be 4b ca 42 be
       -0.4126652 -0.41659954 -0.27693117 -0.19022481
0002b0 83 16 80 be 56 fc 94 bd 01 b6 56 bd ef 18 7e be
       -0.25017175 -0.07274692 -0.052419666 -0.24814199
0002c0 6b d3 20 3d ce 4a 20 3f 6d 01 d9 bd 54 54 ef be
       0.039264124 0.6261414 -0.10595975 -0.46744025
0002d0 f0 f6 ab 3e 8f d4 e8 3e 3f 28 eb be bc 90 3b 3d
       0.33586836 0.4547467 -0.45929143 0.045792326
0002e0 77 b6 a3 3e 3c 53 8c 3e af e5 f3 be 68 ac c6 3e
       0.31975147 0.27407253 -0.47636172 0.3880341
0002f0 c3 2a dd 3c f1 19 d1 bb b3 91 4f 3e 16 6d 01 be
       0.02699793 -0.0063812663 0.20270424 -0.12639269
000300 95 b4 13 bf c8 5b b7 be d8 51 21 bd ed 41 98 be
       -0.5769742 -0.3581221 -0.039384693 -0.29737797
000310 7e aa 14 3f 86 03 af 3d f3 7e 55 be 33 5b 2e bd
       0.5807265 0.08545594 -0.20849209 -0.042567443
000320 a5 05 36 3e d7 7a 21 3e 8a ca 04 bf 56 ff 95 be
       0.1777559 0.15769516 -0.5187155 -0.29296368
000330 cc e8 57 be 22 ff bb 3e 85 ce 89 3e f8 1d 56 3f
       -0.21084899 0.36718088 0.26915374 0.8363948
000340 d6 4b f2 3e 00 17 4c 3e 4b 74 75 bf 99 c6 31 3e
       0.47323483 0.19930649 -0.95880574 0.17360915
000350 56 3c ab 3e 75 75 af bf b5 9a 7d be 16 57 4d 3e
       0.3344447 -1.370772 -0.24766047 0.20052752
000360 98 ff 18 bd 19 14 f8 be 89 8c 29 3e f9 13 04 3f
       -0.03735313 -0.48452833 0.16557516 0.51592976
000370 43 d1 1b bf df 60 cd be e1 0d e4 3d 79 05 ba 3e
       -0.60866183 -0.4011297 0.1113546 0.363323
000380 15 bb 57 bd 59 67 d1 be 18 66 13 be 25 c0 60 3e
       -0.05266865 -0.4089916 -0.14394414 0.21948297
000390 e1 bb 94 bd 7a 52 bb be 5b e5 3e 3e fa 4a ab bd
       -0.072623976 -0.36586362 0.1864218 -0.0836391
0003a0 ec 91 d6 3e 4c e7 22 3e 1b 25 9f 3e d8 9b e2 be
       0.41908205 0.15908545 0.31082997 -0.44259524
0003b0 cc c1 41 be f9 92 90 be d5 64 ae bd b4 b1 a7 3e
       -0.18921584 -0.2823713 -0.08515326 0.32752764
0003c0 c6 95 b0 3d 35 98 b9 3c 4a c3 40 3e 9e 34 4a bf
       0.08622317 0.022655586 0.18824497 -0.7898654
0003d0 8e 68 b0 3e b0 12 10 3e 55 21 74 3f 94 c2 0b 3f
       0.3445477 0.14069629 0.9536336 0.5459378
0003e0 77 e7 f6 be 83 4c 07 bf 19 e5 a9 3e cf cc 01 bf
       -0.4822347 -0.5285112 0.331826 -0.5070314
0003f0 b5 7b c8 3e c3 f8 23 3e 1e f0 fa 3e af 9e bd 3e
       0.3915688 0.16012864 0.4901132 0.37035128

fc.bias f4 [30]
000000 b6 cf a8 bb b5 2c 2f bf 16 9b 1e 3d 9c 21 5e 3c
       -0.005151714 -0.6842759 0.03872212 0.013557818
000010 1b d0 00 be c4 94 d8 3d 02 1f b9 3d 8a 29 ac bc
       -0.12579386 0.1057525 0.090391174 -0.021015901
000020 81 4f d9 bd 98 af 2f bc f7 bb 71 3d d7 4e 18 be
       -0.10610867 -0.010723017 0.059017148 -0.14873825
000030 5f 13 1b be b2 90 e4 bc 2a 3c 85 3d 37 fa a9 bd
       -0.15144108 -0.027901027 0.06505616 -0.08299678
000040 90 ac 45 3e e7 55 03 3d dc f8 eb be 66 34 b4 bc
       0.19304109 0.032064345 -0.46088302 -0.021997642
000050 09 5c b9 3d b1 6f 2f 3e c7 aa d9 3c 12 31 3b bb
       0.090507574 0.1713245 0.02657069 -0.0028563184
000060 89 f8 32 bc 66 18 8a be e3 47 41 3e e9 09 74 be
       -0.010923513 -0.2697174 0.18875079 -0.23831905
000070 de 89 83 be bc 20 e3 bd
       -0.25691122 -0.11090228
