lstm_model-cy_GB.pth (torch, 420052 bytes, 15 tensors)

embedding.weight f4 [30, 64]
000000 50 01 51 40 d1 ae cf bf 02 2f 2b 40 33 05 ad 3f
       3.265705 -1.6225225 2.6747441 1.3517212
000010 f5 71 9b bf e9 51 e6 be 64 2d 0c c0 ac c9 71 bf
       -1.2144152 -0.44984367 -2.1902704 -0.9444835
000020 4b df 29 c0 f0 e9 d9 bf e2 6c b1 bf e1 1d c4 bf
       -2.6542537 -1.7024517 -1.3861353 -1.5321618
000030 0f 0b da bf 35 73 10 3f 71 20 54 3f f0 ad 6a bd
       -1.7034625 0.5642579 0.82862 -0.057294786
000040 6f 24 70 3f bb 7d d2 3f e3 a8 64 c0 5e 0d de 3b
       0.93805593 1.644462 -3.572808 0.006776496
000050 e7 5b 21 3f e3 8e 12 be 6e 7b 9e be 80 91 b7 3e
       0.63030857 -0.1431232 -0.30953544 0.35853195
000060 58 42 a9 be be 56 69 c0 43 8e 53 bd 6f 20 bf 3f
       -0.3305843 -3.6459193 -0.051649343 1.4931773
000070 12 da a0 3f 38 68 d7 3e 60 77 14 c0 27 f8 b2 bf
       1.256655 0.420717 -2.319786 -1.398198
000080 02 73 29 40 5f b9 ec 3f 41 19 d3 3f f0 2a 40 3f
       2.6476445 1.8494071 1.6492082 0.7506552
000090 a8 6c 20 3f 9b 5b 71 3f ed 7c da 3f 9d f2 dc 3f
       0.62665796 0.94280404 1.7069374 1.726154
0000a0 95 ba 1b c0 a6 7f 08 bf 13 7c ca 3e 01 80 39 3f
       -2.433263 -0.53319776 0.39547786 0.72460943
0000b0 7a 15 1b bf 31 0f bc 3f ab 58 a1 bf 6d 62 1e 3f
       -0.60579646 1.4692136 -1.2605184 0.61868936
0000c0 1e 14 9b 3f 7e 38 05 40 8b d0 49 40 c3 12 13 c0
       1.2115514 2.081573 3.1533535 -2.2980201
0000d0 c9 2b a0 3f 06 c8 3f bf 16 41 fa bf bc e7 01 c0
       1.2513362 -0.74914587 -1.9551113 -2.029769
0000e0 f4 14 3b 3e 24 75 74 bf 88 7c 70 bf 32 96 6b 3f
       0.18269712 -0.9549124 -0.9394002 0.92026055
0000f0 1d 8b 16 40 95 29 12 be 63 b9 d3 bf 8f 0d 20 40
       2.3522408 -0.14273675 -1.654095 2.5008276
000100 3b 76 7e 3f df c5 0c c0 99 4e 04 40 47 0c c7 3e
       0.99399155 -2.199577 2.0672972 0.38876554
000110 98 1b b9 be c5 f9 ae bf 5a 6c 1f 3f 78 46 72 bf
       -0.36153865 -1.3669974 0.62274706 -0.94638777
000120 94 06 c5 be bf 7f 1a bf f0 bb cc bf 50 94 2a c0
       -0.3848158 -0.60351175 -1.5994854 -2.6653023
000130 a3 d5 67 bd 6e 97 22 3f c9 da 1a bf c9 56 21 40
       -0.056600224 0.63512313 -0.6049009 2.520922
000140 58 87 9f 3f 3a 1b 6f 3f 5d 1a 2a be 26 52 ab be
       1.2463179 0.9340092 -0.1661162 -0.33461112
000150 b4 1c e9 3e e0 51 63 3f 32 af 11 bf e9 41 c4 3b
       0.4552971 0.88796806 -0.5690795 0.0059893024
000160 10 9f 66 3f 81 1e 0e c0 f5 9b 6e 3f 64 11 8b 3e
       0.9008646 -2.2206118 0.9320672 0.27161705
000170 12 ee 7b 3f 7c ad 19 bf 87 af f6 bf dd 91 47 c0
       0.9841014 -0.6003034 -1.9272317 -3.1182778
000180 5a 69 0f 3f 1b 69 58 3f 1c a6 e2 3f dc d6 b8 bf
       0.5602013 0.8453538 1.7706943 -1.444057
000190 e7 c3 80 3f 80 73 08 bf 7a d4 ba 3f f3 e5 5e 40
       1.0059785 -0.5330124 1.4596093 3.482785
0001a0 97 af 15 bf 8d 41 71 be c3 5f 61 3f 66 4f 71 3f
       -0.58471054 -0.23560162 0.88036746 0.9426178
0001b0 f8 45 87 3e e9 c7 24 40 10 99 31 c0 f5 14 81 3e
       0.2642057 2.5747015 -2.7749672 0.252113
0001c0 f6 2b 9e 3f 31 3a 46 3e 8a d2 23 40 be d9 1b be
       1.2357166 0.19358136 2.5597253 -0.15219781
0001d0 c6 3b 35 40 82 a9 98 bf f9 8f 14 c0 bd 53 35 c0
       2.8317733 -1.192673 -2.3212874 -2.833236
0001e0 41 96 df 3f 3f 79 1d bf 56 03 b9 be 27 cc 47 3e
       1.7467729 -0.6151313 -0.36135358 0.19511472
0001f0 ae 1d 9b 3f e3 9a 09 bf 69 a0 46 3f 5e 53 bf 3f
       1.2118433 -0.53751963 0.77588516 1.4947317
000200 c6 c4 63 bf a5 4a 48 3f d0 22 68 3f 8a 13 14 bf
       -0.8897213 0.782389 0.9067812 -0.57842314
000210 1b 70 f9 3f 47 3c 7c 3e 12 7d c8 3e a9 0c 56 3e
       1.9487337 0.24632369 0.3915792 0.20903267
000220 2e 6d f4 3f 38 98 5b bd 54 0d 9f 3e 99 fb d0 3f
       1.9095819 -0.053611964 0.31064856 1.6326782
000230 e3 e7 31 bf 6a ba 7a bf 9e b4 e3 3d 20 d9 05 3f
       -0.69494456 -0.97940695 0.11118434 0.5228443
000240 81 30 65 bf 59 e9 54 3f 5f 6b bb 3e ee 6c d2 3f
       -0.89527136 0.8316856 0.36605355 1.6439493
000250 62 cd 27 3e 3e d4 11 3f 7e 66 80 be a9 61 98 3f
       0.16386941 0.5696448 -0.25078195 1.1904804
000260 2f 3d 5e bf 89 ce 07 3f fc 95 d2 3f 2f ac 19 3f
       -0.8681211 0.5304952 1.6452022 0.60028356
000270 5f 42 7d bd 19 91 0c c0 3b c7 e6 be 9e 73 09 bf
       -0.061830875 -2.196356 -0.45073876 -0.5369204
000280 96 75 d0 3f b7 0b f2 3f 4e 0a 08 3d 14 b7 3d 3f
       1.6285884 1.8909825 0.033212952 0.7410748
000290 bf 80 4e be 2e d4 da 3e 6a ec 82 bf 98 c3 e4 be
       -0.201663 0.42740005 -1.0228398 -0.44680476
0002a0 db 5a 4a c0 96 7e a6 bf 5b e5 90 bd 41 e7 d9 3c
       -3.1617954 -1.3007381 -0.07074996 0.026599528
0002b0 82 09 83 bf a4 9f 8d bf d8 49 bb 3e 49 82 10 bf
       -1.0237277 -1.1064343 0.36579776 -0.564488
0002c0 28 b9 61 3f 44 d6 66 3e 19 81 d6 3e 65 2f ab 3f
       0.8817315 0.22542673 0.4189537 1.3373839
0002d0 0e b3 d8 bf 29 38 af bf 32 85 88 bf 1c 48 88 bf
       -1.6929643 -1.3689014 -1.0665648 -1.0647006
0002e0 b9 7c 54 3e 11 b5 e3 3c dc 3d b4 bd 02 a0 fb 3e
       0.20750703 0.0277963 -0.08800861 0.49145514
0002f0 70 88 1c bf 75 08 08 c0 fd 08 13 bf 97 9e ec be
       -0.6114569 -2.1255162 -0.5743559 -0.46214744
000300 76 de c0 3f 8b cf 30 3e b2 a9 6b be ae ff e8 bf
       1.506789 0.17266671 -0.23013952 -1.8203027
000310 f9 ad c6 3f c0 f6 41 3f d9 47 27 c0 ef b0 c5 3f
       1.5521842 0.75767136 -2.6137602 1.5444621
000320 97 28 e3 3d 8a a0 d3 3f 0f 4e bf bf f2 b8 cc 3f
       0.11091726 1.6533368 -1.4945697 1.5993941
000330 53 fa 33 bf 5c bd dc 3f 10 0d 0d 3f 6e 08 a1 bf
       -0.7030384 1.7245288 0.55098057 -1.2580698
000340 88 4b 4f 40 ca 61 b3 3e 8e ed 0a 3f d8 64 20 bf
       3.238985 0.35035545 0.5426873 -0.62653875
000350 3f 52 e4 3e fb 79 da 3e e2 bd 45 bf 72 c1 23 bf
       0.44594 0.4267119 -0.77242863 -0.6396705
000360 f3 1e 90 bf be c3 66 3e b6 29 35 be 1b c4 31 bf
       -1.1259445 0.22535607 -0.17691693 -0.6943986
000370 44 58 c9 be ec d1 38 3f 13 d5 78 3f 50 04 9f be
       -0.39325154 0.72195315 0.97200125 -0.31057978
000380 53 f3 67 3f e6 5d 33 bf 1e 3c 90 bf e7 7b 03 3e
       0.9060566 -0.7006515 -1.1268346 0.12840234
000390 19 48 08 c0 68 29 d8 bf ed 77 57 40 1a 97 7a bf
       -2.1294005 -1.6887636 3.3666947 -0.9788681
0003a0 13 88 b8 3f ae 84 e1 be 84 43 c3 bc c1 fd e5 3e
       1.4416527 -0.4404654 -0.023835905 0.4492016
0003b0 1b 44 94 3e 1d 97 0a 3f 93 1b 69 bf 09 7f 94 be
       0.2895821 0.5413683 -0.910577 -0.2900317
0003c0 5d 3f 7a 3e d6 82 20 bd b6 dd fb bf 9d d8 fa be
       0.24438234 -0.039187275 -1.9677036 -0.48993388
0003d0 5d 69 f8 bd 47 d4 e0 bc 70 07 66 3f 7b a3 c6 bf
       -0.121294715 -0.027444972 0.898551 -1.551864
0003e0 0e de 0c 40 fc f6 bd 3e d5 91 44 3f e8 b5 85 3f
       2.2010531 0.37102497 0.7678502 1.0446138
0003f0 02 de 7c bf d5 53 96 bf 31 c4 d1 3e 36 29 87 3f
       -0.9877626 -1.1744334 0.40969995 1.0559452

lstm.weight_ih_l0 f4 [256, 64]
000000 5e 12 30 be ba 61 b3 3e d1 e2 20 be 28 fc 03 bf
       -0.17194507 0.35035497 -0.15711524 -0.51556635
000010 63 9c 3b 3f 6f 9b ea bc f0 68 61 3d 49 17 12 bd
       0.732855 -0.02863857 0.055031717 -0.035666738
000020 c1 e9 a2 3e 9c d3 76 bd 79 57 47 bd 3c bb 45 bd
       0.31818965 -0.0602604 -0.048667405 -0.048274264
000030 64 27 05 bd 3e 01 54 3e 7d eb a9 3d 6c 77 fb 3c
       -0.03250827 0.20703599 0.08296869 0.030696593
000040 f4 67 e9 3d 04 4c f0 3d 23 73 84 3e ea 40 18 3e
       0.113967806 0.11733249 0.25869092 0.14868513
000050 10 b0 ad bd 4e 7d 6d bd e4 41 02 3e d7 5d 43 bd
       -0.08480847 -0.057980828 0.12720448 -0.047696915
000060 b7 5d 3f bd b2 88 ff 3e 43 02 ba 3d c0 3f 85 3e
       -0.046720233 0.49908978 0.09082463 0.260252
000070 cb 79 25 be 4c 22 84 3e db 66 d9 3e 74 c6 1b 3e
       -0.16159742 0.25807416 0.42461285 0.15212423
000080 35 34 f7 3d 51 e1 30 3d 62 1e 9d be 71 6b 55 3e
       0.120705046 0.04318363 -0.30687243 0.20841767
000090 c4 8b 1b 3e 31 ef f8 3d e8 4b 76 3d ad 5d ab bd
       0.15190035 0.12154997 0.060130984 -0.083674766
0000a0 9e 79 0c 3e 22 90 db bd f8 19 fa bd 7c cd fc 3e
       0.13718268 -0.107208505 -0.122119844 0.49375522
0000b0 60 ed 2a be b1 86 a1 3d aa 3d 28 bd df a0 b2 be
       -0.16692114 0.078870185 -0.041074432 -0.3488836
0000c0 dc bf 75 3e 5c 08 bc 3d f7 62 3b be 61 4f 41 3e
       0.2399897 0.09181282 -0.18299471 0.18877937
0000d0 35 be 5c bf 7d 58 2a be 45 bf a1 bd e9 a0 e7 be
       -0.8622773 -0.16635318 -0.0789781 -0.45239952
0000e0 3b 79 bf 3b 4b 20 fa 3d 6f 9f be be a4 49 d7 bd
       0.005843309 0.12213191 -0.37231013 -0.10512093
0000f0 73 77 84 3d d1 50 17 3e cf e0 6e 3d fb 3c 1e 3e
       0.06468096 0.14776923 0.058319863 0.1545295
000100 8f aa c1 be 1c 43 5a 3d a8 29 20 3f ac db 82 bd
       -0.37825438 0.053286657 0.6256356 -0.06389555
000110 c0 cd 9f 3e a4 0e b1 3d 28 36 a8 be 5d 0f e1 3e
       0.31211662 0.086453706 -0.32853818 0.43957034
000120 6a 8d e6 bd a1 82 06 be 8b c0 d4 3c 5b f5 58 3e
       -0.11257441 -0.13135768 0.025970718 0.21187346
000130 51 77 98 bd 91 1f 85 be 2f cf dd 3d 94 9f 77 be
       -0.07444633 -0.26000646 0.10830533 -0.24181968
000140 9e 6f a1 bc b6 8f 0c 3f 6e b6 0f 3e 2f 30 e1 3e
       -0.019706544 0.54906785 0.14034435 0.43982074
000150 0c cb 51 3e b2 2b ac 3e 55 b4 7d bd a0 86 cd bd
       0.20487612 0.33627087 -0.061939556 -0.10035443
000160 66 d1 a9 be 48 a7 12 bf c0 18 82 3d c1 39 84 be
       -0.3316757 -0.572865 0.06352377 -0.25825313
000170 3f 4a 03 3f 47 23 22 be 40 2a 26 3e 77 d0 85 bd
       0.51285166 -0.1583377 0.16227055 -0.06533902
000180 c5 77 b3 be 01 5b 32 3e 35 a3 61 3e 1f ff 70 3e
       -0.35052314 0.17417528 0.22034915 0.23534821
000190 af 6c 59 be 9c 52 6f be 91 92 19 3f 4e 85 d3 be
       -0.21232866 -0.23371357 0.5998927 -0.4131264
0001a0 a3 19 f6 be d7 da d5 bd b3 c6 42 3e fa ca 50 be
       -0.48066434 -0.10442131 0.1902111 -0.2038993
0001b0 02 49 f0 3e da e0 99 3e 00 60 4f be 1d 8d fa bd
       0.469307 0.3005436 -0.20251465 -0.122339465
0001c0 1a 00 ab be b2 fb 86 3e b1 32 15 be 9d 2f a4 bd
       -0.33398515 0.26363903 -0.14570118 -0.08016894
0001d0 3a eb 41 3f 82 e4 8a be b5 80 09 bf 9e 38 0a 3e
       0.7574955 -0.27127463 -0.53712016 0.1349816
0001e0 7f 39 d1 3d 7a 28 e7 be e7 a0 c0 bc 0e 5c 7f 3e
       0.10216045 -0.4514807 -0.023514224 0.2493746
0001f0 e6 e6 7b bd 82 da 52 be 30 c3 19 be 9c d8 9d bd
       -0.0614995 -0.20591167 -0.15015864 -0.077073306
000200 45 7b e1 bd 74 3a 19 3d e9 0d c5 bd 76 4f 49 be
       -0.1100984 0.03740926 -0.09621794 -0.19659218
000210 43 e3 8a be 56 b8 98 be 5e 5d 07 3c e7 d5 58 bd
       -0.27126512 -0.29828137 0.008262007 -0.05293837
000220 a0 5b 09 3d 36 12 ab 3c 7d 8a 83 be d0 60 bf be
       0.033534646 0.020882707 -0.25691596 -0.3737855
000230 28 6a 00 be cc a0 c4 bd 07 2f 6e 3d a2 30 30 3e
       -0.12540495 -0.09600982 0.058150318 0.17206052
000240 fe c8 15 3e 4d c5 99 3e 33 36 e3 3d 2a 00 db 3e
       0.14627454 0.3003334 0.11094322 0.42773563
000250 0a 7a da bd 4c c4 3e be 25 1b 8c 3d 55 cb 29 be
       -0.10667808 -0.18629569 0.06841115 -0.16581471
000260 33 0d d8 bd a6 59 87 be 1a eb 00 bd fd f6 26 3e
       -0.105493926 -0.26435584 -0.03147421 0.16305156
000270 2c f2 5a bd 11 cc 1f be 69 c5 d9 bd 4d 8b 2d be
       -0.05345361 -0.15605189 -0.10633356 -0.1694767
000280 d0 22 88 3c 68 ca cc bd 9a 38 3b be 3b 18 7b be
       0.016618162 -0.099995434 -0.1828331 -0.24520962
000290 00 1c 19 3d 92 78 55 be cd 90 99 3d 43 76 78 3e
       0.03738022 -0.20846775 0.07498322 0.24263863
0002a0 35 a8 b6 be 47 0c 72 be 22 98 88 3e 53 26 46 be
       -0.35675207 -0.23637496 0.26678568 -0.19350557
0002b0 09 7b 4c be f7 21 8d 3c 78 eb a9 3e 20 75 9d bc
       -0.19968809 0.01722811 0.3318746 -0.019220889
0002c0 fc 29 07 3e 08 09 be bc b0 90 24 3e 4f 91 c2 be
       0.1319961 -0.023197666 0.16070819 -0.38001487
0002d0 f8 da bd 3d e4 5c 8a 3e d0 2b 53 be 3b a9 b6 be
       0.092702806 0.27023995 -0.20622182 -0.35675988
0002e0 77 15 a2 be 29 53 45 bd a0 05 5b 3e 50 a6 26 3e
       -0.31657 -0.04817501 0.21388865 0.1627438
0002f0 6d d5 b4 3e 1d a6 8c 3d b6 e2 18 3e bd ce c7 3e
       0.3531908 0.06867621 0.14930233 0.39024916
000300 42 4f f8 3c 1d 60 36 be 0c 35 06 3e 0f 29 76 be
       0.03031123 -0.17810102 0.13106173 -0.240391
000310 f3 39 7b bd b0 44 77 be 10 77 dc 3d f2 7c 6a 3c
       -0.06133456 -0.24147296 0.10764897 0.014312016
000320 38 30 13 3e 76 e0 2c 3e 3a 01 90 3d 1e 99 6e be
       0.14373863 0.168825 0.07031484 -0.23300597
000330 99 44 da be e1 42 86 bd 63 86 ed bd 80 f8 0f be
       -0.4263046 -0.06555725 -0.11597898 -0.14059639
000340 5c 62 bf 3e d6 0f 86 3e be 3b d2 bd 2b b7 c1 3d
       0.3737973 0.26183957 -0.10265301 0.09458765
000350 41 b3 a3 be e0 91 ad 3e 21 e9 53 3d 26 9d 6d be
       -0.31972697 0.33900356 0.051736 -0.23204479
000360 e7 42 4a be a1 93 07 be ab 90 22 bd 2e 11 19 bd
       -0.19752084 -0.1323991 -0.039688747 -0.0373699
000370 fc 0f 93 bc 44 b7 6a ba 94 a8 88 3d 3a b6 14 3e
       -0.017951958 -0.00089537003 0.06672779 0.14522639
000380 bb fb 3b be 57 84 64 3d ea cc 19 3f ce 82 1d 3e
       -0.18357746 0.05579027 0.600783 0.1538193
000390 de a2 93 be 07 e5 df 3c 1a f5 74 3e d7 36 84 3e
       -0.28835195 0.027330888 0.23921624 0.2582309
0003a0 9c 31 ac 3c f6 c5 ab bd 96 1a 54 ba b1 f0 be 3d
       0.02101975 -0.083873674 -0.000809112 0.09323252
0003b0 7a 27 e1 3c 5b 92 76 3e be 5b 9f 3e 59 0f 1b 3d
       0.027484644 0.24079268 0.3112468 0.037856434
0003c0 62 a2 cc bd 12 8e 04 3e f7 6d 84 be 84 aa 02 bd
       -0.099919096 0.1294482 -0.25865147 -0.031900898
0003d0 0e f7 dd 3d d8 b7 f5 3d 0a a6 88 3c 75 95 a0 be
       0.108381376 0.11997956 0.016680736 -0.31364027
0003e0 42 71 9f 3d 7e 0d 4e ba 69 81 b8 bd c0 25 46 3d
       0.07785274 -0.0007860287 -0.09009058 0.048375845
0003f0 46 8d 23 be 14 cd 12 be e9 d1 29 be 61 f8 c3 3e
       -0.1597186 -0.14336044 -0.1658398 0.38275436

lstm.weight_hh_l0 f4 [256, 64]
000000 7c 25 7a bf d3 60 74 3d 8a 6e ac 3e aa 89 13 3e
       -0.97713447 0.05966265 0.33678085 0.14407983
000010 1c 4c 83 bc cd 3b 6e 3e 06 77 6b be 4a 63 23 be
       -0.016027503 0.23265 -0.22994623 -0.15955845
000020 0c 23 bf be 0f 2a ff be 5f d6 96 3e dd 8d 2c be
       -0.37331426 -0.49836776 0.29460427 -0.16850992
000030 b2 e9 3e 3d b0 19 3c 3f 49 72 05 3f ed 81 6f be
       0.046609588 0.73476696 0.5212751 -0.23389407
000040 bc 47 ab be 32 c9 52 3d 04 5d ec 3d 21 9e 04 3d
       -0.33453166 0.051461406 0.11541179 0.032377366
000050 05 44 70 be 71 63 a9 3e cf cf 6a 3e 73 c6 19 3f
       -0.23463447 0.3308368 0.22930835 0.60068434
000060 22 fa 61 3d 0c b4 96 bd 5a 26 3b bf a4 fb 60 3a
       0.055170186 -0.0735856 -0.73105395 0.0008582419
000070 8a e0 ef 3e ba 68 b4 bd e7 d0 81 3e d9 b1 4c 3e
       0.46850997 -0.088090375 0.25354692 0.19989718
000080 c9 da ca 3d 39 41 c2 be 21 30 87 3d 32 d5 89 3e
       0.09905011 -0.37940386 0.06600977 0.26920468
000090 34 3c 2f 3f f1 a7 ae be c6 35 fb 3e 9b 67 cf bc
       0.6845124 -0.34112504 0.49064463 -0.025317958
0000a0 e3 84 d8 3e 1a 8b fc bf 26 2c 06 bf 49 bb 0c be
       0.42288885 -1.972995 -0.52411115 -0.13743319
0000b0 97 d7 de bd 04 46 b1 3d c7 75 30 bf 92 ff 2f 3e
       -0.10880964 0.086559325 -0.68929714 0.17187336
0000c0 9c e0 2e 3d 23 00 c2 3d c3 6b 75 be f1 74 59 be
       0.042694673 0.09472682 -0.23966889 -0.21236016
0000d0 d3 53 33 3e c6 9b bb be 38 9a d5 3e 33 b2 b1 3e
       0.17512445 -0.36642283 0.41719222 0.34706268
0000e0 18 5a a9 bd de 2b d9 3e 8d 13 8d 3e 71 f2 56 3e
       -0.08269137 0.4241628 0.2755398 0.20990922
0000f0 01 40 12 3f ea b6 71 3e 88 0f 00 3f 03 a8 7a be
       0.5712891 0.23604932 0.500237 -0.24478154
000100 2c bb 5f 3f d5 5d 54 3f 30 79 8e 3f be f4 09 bf
       0.87394977 0.82955676 1.1130733 -0.5388907
000110 07 9e a4 3e d5 b5 0d 3f ed 66 04 3f d2 31 73 be
       0.32151815 0.5535558 0.5171955 -0.23749474
000120 4c 3b b2 be 0b ca ab be 40 f1 28 bd 4b f5 e0 be
       -0.34810865 -0.33552584 -0.0412457 -0.43937144
000130 b0 16 d1 be fd cf c1 3e ac f7 a3 3c d9 1a 50 3f
       -0.40837622 0.37853995 0.02001556 0.81290966
000140 7f 76 34 3f 25 26 e7 be 78 61 16 bf be 63 91 be
       0.7049331 -0.4514629 -0.58742476 -0.2839641
000150 db cb 3c 3f 0a 10 26 bf 2a 7d c9 3e c4 c2 37 3f
       0.7374856 -0.64868224 0.39353305 0.71781564
000160 2a 02 da be 12 52 b8 bc cf 44 1f be af 2d d5 be
       -0.42579776 -0.022500072 -0.15553592 -0.41636416
000170 ca 7a 6b be d7 c6 d3 3e 68 cd 18 3e b3 cb ae be
       -0.22996059 0.4136264 0.14922106 -0.34139785
000180 4e 6a f8 3c e2 5f a2 be 0f e6 2a bf a6 fc 06 be
       0.030324128 -0.31713778 -0.6675729 -0.13182315
000190 75 c2 f1 be 9c eb 6e bf 62 1b db bd f6 b4 5a 3e
       -0.4721867 -0.9332826 -0.10698582 0.21358094
0001a0 f4 2c 2d 3f e0 34 6d bf f5 f8 e9 be ed c3 ef 3d
       0.6764672 -0.92658806 -0.45697752 0.11707292
0001b0 a6 7f da 3e 9a 2a cd bd e8 f1 0b bf 66 ba 08 bf
       0.42675513 -0.10017891 -0.54665995 -0.5340942
0001c0 f4 81 89 bf ab e7 cb 3e ea 36 b2 3e be 9b d2 3e
       -1.0742784 0.39825186 0.3480752 0.41134447
0001d0 9a 8e a6 3e c9 41 8b be e4 b3 73 be 12 b7 de be
       0.3253067 -0.27198628 -0.23799092 -0.43499047
0001e0 cc 28 81 3e 99 0f b8 3e 0b dc 07 3c 4f 5b c9 bf
       0.25226438 0.359494 0.008292208 -1.573099
0001f0 bc 1a 0a 3e d4 e2 65 be c0 2f 27 bf cb 60 4f be
       0.13486761 -0.2244981 -0.65307236 -0.20251767
000200 d6 93 2f bf 66 4d 35 3e 33 e4 e0 3e ff b7 12 be
       -0.68584955 0.17705306 0.43924102 -0.14328001
000210 f5 da f0 be 26 7d 4a be 60 8e 79 3f 08 6b 93 3e
       -0.4704205 -0.19774303 0.9748287 0.28792596
000220 fd e9 7d be 0b f0 06 3f c4 e6 5d 3e c2 e8 cf be
       -0.2479629 0.52710027 0.21670061 -0.40607268
000230 17 03 6d 3b 70 1d 02 3e 7a 65 5e 3d 9c 62 fd 3d
       0.0036165172 0.12706542 0.054295994 0.12372324
000240 b8 72 06 be a7 a7 91 3e 66 86 a4 3e d2 44 1b bf
       -0.13129699 0.2844822 0.32133788 -0.60651886
000250 3c b5 86 3d ea 64 55 3f 7a 8a 97 3d 40 5d b7 be
       0.065775365 0.8335711 0.07399459 -0.35813332
000260 d0 1d 4f 3e 1b 16 bb be 6d e2 60 be 7d 5b 9f 3e
       0.20226216 -0.36540303 -0.21961375 0.31124488
000270 fb 2f 8d 3a 20 c2 36 bd 27 ef bc be bd be 1a 3f
       0.0010771746 -0.044618726 -0.3690121 0.60447294
000280 68 f7 a8 3d 0d 4e 0d bd 1d 76 15 3e 0a 75 6a be
       0.08250314 -0.034498263 0.14595838 -0.2289621
000290 6b 6d 6f 3f d8 cf 4a bf 50 50 56 be a6 a6 a7 3c
       0.93526334 -0.79223394 -0.20929074 0.020465206
0002a0 af 23 f3 bc 04 ee 4c bf d0 17 16 be ef 24 f0 bc
       -0.029680101 -0.80050683 -0.14657521 -0.029314486
0002b0 8e 70 26 bf a0 65 a7 39 47 02 db 3d 87 e5 ed be
       -0.65015495 0.0003192844 0.10693794 -0.46464178
0002c0 68 9f e2 bb 25 a7 50 bd 6d 74 1f bf d6 72 6b be
       -0.0069159754 -0.05094065 -0.62287027 -0.22993025
0002d0 0f 7c 4a 3f 9e a6 78 bf 95 28 19 bf 12 fa 3f bf
       0.7909555 -0.9712924 -0.5982755 -0.7499095
0002e0 9c 77 0c be 82 f6 14 be 99 c5 8b bd 6b 58 24 be
       -0.13717502 -0.1454716 -0.06824798 -0.16049354
0002f0 f7 5a ba be ee ab 5d 3f 8f 9a 77 3e 19 88 99 3d
       -0.36397526 0.8659047 0.24180053 0.07496662
000300 78 a0 0a bf 29 96 11 be d2 0f d1 be 95 7a 63 3e
       -0.54151106 -0.14217438 -0.40832382 0.2221473
000310 d7 ab 0f 3e 06 72 be be 53 45 32 3e 38 47 84 3d
       0.14030395 -0.37196368 0.17409258 0.064588964
000320 04 64 bd 3e 68 8a 19 3f 4b 50 87 bd a4 17 70 3f
       0.36990368 0.59976816 -0.066071115 0.9378607
000330 85 04 26 3d f5 64 81 bd ae 96 d4 3d 63 4c b4 bd
       0.040531654 -0.06318084 0.10380302 -0.08803632
000340 f2 99 2a be 8d 90 3f 3c d9 82 86 3d 6f 12 2d 3e
       -0.16660288 0.011692178 0.06567926 0.16901563
000350 4f 5b c4 3d 66 c2 30 3f f7 55 3f 3e 06 07 c0 3d
       0.09587728 0.6904663 0.18685137 0.093763396
000360 85 48 06 be 90 7e 70 be 92 73 10 bf ad ca 09 3e
       -0.13113602 -0.2348578 -0.56426346 0.13456221
000370 28 50 16 bf 63 0b 9b 3e 3b a1 67 be 92 d0 f4 3c
       -0.5871606 0.30282125 -0.22620098 0.02988461
000380 a5 f2 6f be c1 4b a9 bd bc 58 e5 be 4c 17 ba be
       -0.23432405 -0.08266402 -0.4479426 -0.363459
000390 7e f7 1e 3f 54 c4 8d 3e a3 43 69 be f1 ae 0d bc
       0.62096393 0.2768885 -0.22779708 -0.008647666
0003a0 ef 68 c0 bd 32 64 20 3e a4 db 48 3e d2 5f c1 bd
       -0.093950145 0.15663221 0.19615036 -0.094421044
0003b0 09 49 99 3e e5 8e 97 3e 9b 2f ee be e6 fe 2b be
       0.29938534 0.29601207 -0.46520695 -0.16796455
0003c0 7f 8f 35 3f 4e 77 4c 3e 06 ab ee be ee f8 a0 3e
       0.7092208 0.19967386 -0.46614856 0.31439918
0003d0 dd 9d 66 3f 65 a0 0e bf db 30 a1 3e 25 28 d9 be
       0.9008463 -0.5571349 0.31482586 -0.4241344
0003e0 c9 e4 82 3f 1d cb e6 be c9 0f 60 3e c2 d2 02 40
       1.022607 -0.45076838 0.21881022 2.0441136
0003f0 96 e4 24 bf 79 b0 29 3f fc 8a 11 bf f0 45 6e bb
       -0.64411294 0.662849 -0.568527 -0.0036357604

lstm.bias_ih_l0 f4 [256]
000000 72 60 43 3e 8f 81 81 3d 91 07 37 be 4c 49 52 3d
       0.1907976 0.063235395 -0.1787398 0.051339433
000010 7c aa 99 3e 93 2c 4b 3e 2e f5 cd 3e 16 85 76 3e
       0.30012882 0.19841222 0.4022612 0.24074206
000020 84 6a f9 3a 08 ff a9 3e 92 6e 99 3e 61 7d 58 3d
       0.0019028937 0.33202386 0.2996717 0.052853946
000030 c9 88 98 3e 89 32 e8 3b 38 a7 91 3d 21 fe 01 3e
       0.2979186 0.0070861024 0.071119726 0.12694599
000040 f4 b7 35 3d 2a 9a 71 3c 2e e1 bd bb f4 75 71 3e
       0.044364884 0.014746228 -0.005794666 0.23580152
000050 c8 88 e9 3d e7 b0 0a bd 1e 0e 03 3e b6 02 76 3c
       0.11403042 -0.033860113 0.12798354 0.015015295
000060 fe b3 bb 3e c0 24 98 3e 3e 08 af 3e 03 93 8a 3e
       0.3666076 0.29715538 0.34185976 0.27065286
000070 f5 f3 94 3e 4e 42 14 3e 7e 41 8e 3d fd f3 23 3c
       0.29092374 0.14478418 0.069460854 0.010006902
000080 43 a5 5c 3d 41 0d ef 3e 23 18 f3 3d 54 57 fc 3d
       0.053868543 0.466898 0.11869838 0.12321344
000090 66 dc 9c 3e 29 cf 6a 3d 6d 98 02 3a cc e6 77 3e
       0.306369 0.05732647 0.00049818197 0.24209136
0000a0 55 d0 4d 3e c9 cf d3 3d 1f 89 16 3e 6e d5 37 3e
       0.20099004 0.10342366 0.14700745 0.1795251
0000b0 fc 8a 94 3e 60 64 64 3e 5b 8c 00 3e c6 b5 c9 3d
       0.29012287 0.22303915 0.12553541 0.09849124
0000c0 92 5e 87 3e 69 bf 69 3e ca 27 08 3d 35 cd 1f bd
       0.2643934 0.22826923 0.03324107 -0.03901406
0000d0 19 cf d0 3d a8 9a e5 3d 2b 1c 28 3e e3 0b 13 3e
       0.10195751 0.11211139 0.16416995 0.14360003
0000e0 31 1b 72 3e 4c 44 c7 3e c9 cb 80 3e 6d 7c 96 3c
       0.23643185 0.38919294 0.25155476 0.018369878
0000f0 fa 45 c0 bc 0f cb 51 bd 72 3b 94 3d ae d1 c6 3e
       -0.023470867 -0.051219042 0.07237901 0.38831848
000100 bc 05 50 3c a3 1a 80 3d 1d fa bc bd fc 4c a7 3d
       0.01269668 0.062550806 -0.09227393 0.081689805
000110 4c 5d 8e 3e 4e 02 11 3d d8 4b b0 3d 37 c7 47 3e
       0.27805555 0.03540259 0.08608216 0.19509588
000120 83 76 37 bc 1b 07 23 3e 98 50 03 be 3a 4a fd 3d
       -0.011197689 0.1592068 -0.12823713 0.12367673
000130 0c 85 5a bd 54 6f b5 bd 41 69 06 3e c9 28 2e 3e
       -0.05334954 -0.08859125 0.13126089 0.17007746
000140 ff 39 84 3d a8 f7 c8 3d 72 e4 4f 3d c5 85 7b be
       0.064563744 0.09812862 0.05075497 -0.24562748
000150 4d 0d 54 bc c3 92 b4 bc a6 cf 19 3d f7 db 19 be
       -0.012942624 -0.022042638 0.037551545 -0.15025316
000160 2d 8b 48 bd 1e 75 27 3e 48 2d b5 3c 94 22 9d 3d
       -0.048960853 0.1635327 0.022116318 0.07672611
000170 b8 48 22 3e d6 93 04 3e 3d de 3b bd e2 7f f0 3d
       0.15848053 0.1294702 -0.04586624 0.11743142
000180 c2 9d 2e 3e 4e b6 a0 3d 25 ba 84 3d 22 7e c1 3d
       0.17052367 0.07847272 0.06480817 0.09447886
000190 12 c4 95 3d f5 5b 1f bc 6d cf ea 3d c5 e6 bb 3e
       0.07312788 -0.009726514 0.114653446 0.366995
0001a0 e6 f2 01 3e 1f d5 93 be a8 09 9f 3d 54 d3 ba bd
       0.12690315 -0.28873536 0.07765514 -0.09122339
0001b0 6f a9 cf 3d 49 36 5e 3d fd 75 1b bc b6 1d 80 3e
       0.10139739 0.05425099 -0.00948858 0.25022668
0001c0 c1 05 43 bd 99 80 46 3e ac 0e 0f 3e 45 3c ca 3d
       -0.04761291 0.19384994 0.1397044 0.09874777
0001d0 65 28 32 be 94 4d 91 3c cb 45 a5 bd 89 80 a9 be
       -0.17398222 0.017737187 -0.080699526 -0.33105877
0001e0 45 b2 61 3e c2 0f f8 3d af 40 fe 3d 1e a1 00 bd
       0.2204066 0.121123806 0.12414681 -0.031403653
0001f0 25 8b 19 be b3 5d 81 bc 06 f0 98 bc 62 74 b2 3e
       -0.14994486 -0.01579175 -0.01866914 0.34854418
000200 03 b1 71 be fe 1f 60 3e c6 1d d7 3d fd f2 63 bc
       -0.23602681 0.21887204 0.10503726 -0.013912913
000210 ad 08 d1 be df 3d 80 be 0d 9f 99 3e 15 4e 4d be
       -0.40826932 -0.25047204 0.3000416 -0.20049317
000220 c6 f2 52 3e 1b 08 62 3e 23 c1 00 bd c5 90 6b bd
       0.20600423 0.22073404 -0.03143419 -0.05751111
000230 2e b9 08 3e ae 28 9e be ae c9 b7 3d a5 08 10 3e
       0.1335189 -0.3089041 0.08974014 0.14065798
000240 88 c5 7c 3e 75 fd 04 be a1 ed 01 3e 18 56 92 bd
       0.24684727 -0.12987311 0.12688304 -0.07145327
000250 29 b2 62 be 73 bd a9 bd fb 29 cf 3d 79 aa d5 bd
       -0.22138275 -0.08288088 0.10115429 -0.10432906
000260 41 98 50 be 54 fe 78 bd 3a 15 6b bd 17 13 84 3e
       -0.2037058 -0.06078942 -0.05739329 0.25795814
000270 83 2a 46 be af 95 17 be 00 f5 83 3d 36 1e f0 bd
       -0.19352154 -0.14803194 0.064432144 -0.11724512
000280 6f 25 34 be 17 bd eb 3d be 4b 2d be 47 61 63 3e
       -0.17592405 0.115106754 -0.16923425 0.22205077
000290 f5 33 2d 3e c8 05 97 bd d4 3c 96 3d 9c 5c 09 3e
       0.16914351 -0.073741496 0.07335821 0.13414234
0002a0 00 70 31 be 39 be 17 3d 0a 92 34 be fd 95 57 be
       -0.17327881 0.037046645 -0.17633834 -0.2105331
0002b0 35 49 2c be 0c 39 0c be 20 fc 07 3e 26 a9 30 3e
       -0.16824801 -0.13693637 0.13279772 0.17252025
0002c0 9f 5b 78 be 61 53 85 3e af 7a c5 3d f2 25 43 bd
       -0.242537 0.26040176 0.09642541 -0.04764361
0002d0 59 71 83 be 10 28 b0 3c 8e f0 d2 bd c5 c2 f3 3c
       -0.25672415 0.021503478 -0.102997884 0.02975596
0002e0 a4 e2 ba 3c e6 80 1c be ff b1 41 3e b4 fe 0d 3e
       0.022813149 -0.15283546 0.18915556 0.13866693
0002f0 95 91 10 3d 9e 46 1c 3e 79 e6 76 3c 68 f2 73 3e
       0.035295088 0.15261313 0.015069597 0.2382294
000300 30 bd 36 3d 66 0a 3f 3d 18 e5 ed 3d 69 3b 74 bd
       0.044614017 0.046640776 0.11615962 -0.05962697
000310 15 0b e7 bd 90 55 0f 3d f4 80 81 3e 8b d5 a9 3d
       -0.112814106 0.034993708 0.25293696 0.08292683
000320 36 32 9a bd 70 3f 93 3d aa 67 91 3d 53 c0 52 3e
       -0.07529108 0.07189834 0.070998505 0.20581178
000330 26 cf 99 bd df a3 7e 3d 91 f9 17 3d 6b 13 ec 3c
       -0.075102136 0.062168 0.03710324 0.028817853
000340 7f ba 00 be 00 85 e2 3d 08 43 fc 3d 7d ea cf bc
       -0.12571143 0.11060524 0.12317473 -0.025380367
000350 30 6e 82 bd 10 97 2b 3d c8 dd bd 3c cc df 6c 3e
       -0.06368673 0.04189211 0.023177043 0.23132247
000360 79 ed dd 3c 1b 8e 6b 3d 49 42 39 bd 23 ba e0 3c
       0.027090775 0.05750857 -0.04522923 0.027432507
000370 98 23 46 bd 85 7e a2 3d ea cb 20 3d 3c aa 07 3e
       -0.04837379 0.07934288 0.039256968 0.13248533
000380 9b 97 24 3d 68 ef f5 3d d6 01 c1 3d 82 fd ab 3d
       0.040183645 0.12008554 0.09424178 0.08397962
000390 69 c1 e2 3c 35 53 fa 3d 03 36 21 3e 96 a4 a3 3b
       0.027680116 0.12222902 0.1574326 0.0049939854
0003a0 e5 1c 24 3e 3b b0 a5 3e 43 61 3e 3e 7e df fc 3d
       0.16026647 0.32361016 0.1859179 0.12347315
0003b0 04 8d 5d bd 62 47 61 3e 7f bc eb 3d 30 d9 16 3e
       -0.05408956 0.21999887 0.11510562 0.14731288
0003c0 24 65 2f 3e cf fd a6 3c c7 fa 13 be 79 8f 02 3e
       0.17128426 0.020384697 -0.14451133 0.12750043
0003d0 64 b4 a3 3d b9 0f d6 3d 76 80 35 bd 6e 4d 7d 3d
       0.07993391 0.104522176 -0.044311963 0.06184142
0003e0 04 45 85 3d d9 0c 4b 3e 20 fe b0 3d d2 68 04 3e
       0.06507304 0.1982912 0.086422205 0.12930611
0003f0 30 5f 69 3e 93 19 5f 3e 82 32 6e 3d 48 f1 b3 bd
       0.22790217 0.217871 0.058153637 -0.08786255

lstm.bias_hh_l0 f4 [256]
000000 81 4f e1 3c e6 e7 3d 3e dd 11 79 be a6 8f 66 3d
       0.02750373 0.18545493 -0.2432322 0.056289338
000010 44 8c 68 3e 7d 22 9d 3e 65 5d ad 3e 99 9e 0c 3e
       0.22709757 0.30690375 0.33860317 0.13732375
000020 6c f5 00 3e 76 79 96 3e b9 17 5a 3d 67 0f bc bd
       0.12593621 0.29389542 0.05324528 -0.09182625
000030 71 b7 4b 3e 28 ea e5 3d fa 8c db 3d b4 d4 d0 3c
       0.19894196 0.112263024 0.107202485 0.02549205
000040 7c 4b 44 3e d0 04 c0 3d a2 c5 36 3d 03 9d 67 3e
       0.1916942 0.09375918 0.04462207 0.22618489
000050 5a ed 29 3e 48 e4 03 be c0 2e 91 bc fa 0d 06 be
       0.16594449 -0.12880051 -0.017722487 -0.13091269
000060 c8 ea 9c 3e 64 78 90 3e 34 8f b7 3e b9 f6 6d 3e
       0.30647874 0.2821685 0.35851443 0.23238648
000070 9b e7 ca 3e fc 95 6f 3e e8 c2 89 3e 7c 44 63 3d
       0.39629826 0.23397058 0.26906514 0.055485234
000080 9f ae a7 3d 3b ef 87 3e a4 b5 30 3e b3 1e 96 3e
       0.08187603 0.26549706 0.1725679 0.29320297
000090 16 5d 5f 3e 0d 6f 4d bd 96 26 b5 3d 81 80 94 3e
       0.21812853 -0.050154734 0.0884525 0.2900429
0000a0 20 3f b5 3e 80 02 ad 3e 35 21 04 3e 51 3f 70 3b
       0.35399723 0.3379097 0.12903292 0.0036658833
0000b0 04 eb 22 3e fb d5 a9 3e 9e 04 83 3e 03 b4 60 3e
       0.15909964 0.33171067 0.2558946 0.21943669
0000c0 15 92 9a 3d c5 fc 19 3d f8 c9 39 3d f2 6b 49 3e
       0.07547394 0.037594575 0.045358628 0.19670084
0000d0 4d 84 66 3e 6a 91 0a 3b 1d fe 55 3d b6 1b 5f bb
       0.22511406 0.0021143802 0.052244294 -0.0034043617
0000e0 10 75 b9 3d f6 96 cd 3e 01 6b 64 3e bf ac 20 3e
       0.09055531 0.40154237 0.22306444 0.15690897
0000f0 0b b4 a5 3c aa 62 ee bd 73 8a 1d 3d 6b c5 ba 3e
       0.020227453 -0.116399124 0.038462114 0.36478743
000100 6e 9d 28 3e 21 0d 3d 3e 52 ad 77 be 87 59 a5 ba
       0.16466305 0.1846204 -0.2418721 -0.0012615182
000110 04 12 84 3e fb f4 66 3d 1a 9e 10 3d d4 d6 9b 3d
       0.25794995 0.056385975 0.035307027 0.076093346
000120 0a 3f a9 3c ec 5c c0 3d d6 6b 60 be 95 68 dc 3d
       0.020659942 0.093927234 -0.21916136 0.10762135
000130 b5 a2 4b 3d ed 0f ef bd f1 85 55 3e 0f 20 09 bd
       0.049715716 -0.116729595 0.20851876 -0.03347784
000140 5b 3f 01 3e 00 90 dd 3d 61 83 de 3d 7f 53 7f be
       0.12621824 0.108184814 0.10864902 -0.24934195
000150 e8 35 84 bd 2b 40 af bc 10 52 07 3c 04 d4 0b 3b
       -0.06455594 -0.021392902 0.008259311 0.0021336088
000160 5b 8d 25 3e f7 47 20 bd a1 3e 67 3e c8 e7 f8 3d
       0.16167204 -0.03913113 0.22582485 0.12153584
000170 e4 18 37 3d c6 9e a4 bc ab 58 49 bd fb 79 25 3e
       0.044701472 -0.02009524 -0.049156826 0.16159813
000180 d0 a2 5f 3d a6 df ad 3d 62 6e 5f bd 87 1d a7 3e
       0.05459863 0.08489923 -0.05454863 0.32639715
000190 6e 7c 07 3e 1e 55 17 3e fb 4d 94 3d 26 be a1 3e
       0.1323106 0.14778563 0.07241436 0.31590384
0001a0 4a c1 32 bc 4b f1 48 be 2c df ba bd 64 dd e2 3c
       -0.0109103415 -0.19623296 -0.09124598 0.027693458
0001b0 75 29 11 3e 10 3e 15 3e ef c8 db bd 84 d4 83 3e
       0.14175971 0.14574456 -0.107316844 0.25748074
0001c0 cd 21 13 3c 6f 1e 1e 3e ba a0 08 3e fc c2 81 3d
       0.008980227 0.15441297 0.13342562 0.063360184
0001d0 b9 bf 7e 3d 73 e6 8b bc 51 ff 12 3e 59 25 97 be
       0.06219456 -0.01707766 0.14355208 -0.29520682
0001e0 31 0e 96 3e 47 cc 3a 3e 21 51 51 3e 6e 50 ea 3d
       0.29307702 0.18241988 0.20441104 0.11441122
0001f0 e8 ee 8f bd 0b d2 28 bd 59 db 55 3d 06 3b a8 3e
       -0.070279896 -0.041215938 0.05221114 0.3285753
000200 7f b4 8f be 36 e1 2e 3e e4 05 c7 bc b7 04 33 3e
       -0.28067395 0.17078099 -0.024294801 0.17482267
000210 87 e0 d5 be e1 93 81 be f5 41 57 3e 30 68 85 be
       -0.41772863 -0.25308135 0.21021254 -0.2605605
000220 91 fe e6 3d 39 36 53 3e 13 ea 2f 3c b9 12 bb 3d
       0.112790234 0.20626153 0.01073696 0.091344304
000230 2b ab 91 3d 20 fa 9d be 1a 0a 7d 3d 79 29 d4 3d
       0.07112726 -0.30854893 0.06177721 0.10359473
000240 e9 08 65 3e 98 23 f2 bd fb 0a 70 3e 5a 1a eb 3c
       0.2236668 -0.11823195 0.23441689 0.028699089
000250 17 4c 7e be 86 ec 1a 3e a3 12 31 3e f8 71 4f 3d
       -0.24833713 0.15129289 0.17292266 0.0506458
000260 47 7c 78 be 4c 23 74 be 5b 31 0f be db cb 2a 3e
       -0.24266158 -0.2384159 -0.13983671 0.16679327
000270 c7 ed 04 bd 99 42 61 be b9 d3 70 3d c4 d1 ee bd
       -0.032453325 -0.21998061 0.058795664 -0.11661103
000280 46 1b 7e be e0 27 2a 3e 48 75 72 be 19 12 22 3e
       -0.24815091 0.16616774 -0.23677552 0.15827216
000290 a4 6a c5 3d b9 62 2a 3d c3 e4 67 3d e7 e7 d7 3d
       0.09639481 0.041598056 0.05661465 0.10542279
0002a0 30 dd ff bd 1d 0e 39 be 76 22 3c be c3 f9 4b be
       -0.1249336 -0.1807179 -0.18372521 -0.19919495
0002b0 b4 b1 d0 bd 03 a9 43 be 9a 14 6a 3e e5 81 63 3e
       -0.10190144 -0.19107442 0.22859421 0.2221752
0002c0 71 67 88 be 0a fd 2a 3e 8c 11 c2 bc 90 5a 44 be
       -0.2664142 0.16698089 -0.023690008 -0.19175172
0002d0 a3 0f 4b bd ef 5b 34 3d bd 78 46 bd a8 da 57 be
       -0.04957546 0.044032987 -0.04845499 -0.21079504
0002e0 32 9a cf 3d 5d 40 2a bd 6d 14 61 3e e9 fc 8b 3e
       0.10136832 -0.041565288 0.21980448 0.27341393
0002f0 3a 47 93 3c e0 b7 90 3c 11 e4 1d 3e 84 bf 60 3e
       0.0179783 0.017665803 0.15419032 0.21948057
000300 e2 e4 ac 3d d2 a7 11 3d bf 2e 27 3d c0 5a 36 bd
       0.084420934 0.035560437 0.040816065 -0.04452014
000310 0c a2 4b 3d 28 c4 9e 3d ec 05 83 3d a3 80 90 3d
       0.049715087 0.077522576 0.06397614 0.070557855
000320 f9 5d f3 bd e2 8d 11 3e b1 b0 d0 3c 58 44 90 3e
       -0.11883158 0.1421428 0.025474878 0.28177142
000330 5f e5 1c 3d 40 f9 59 3e 75 49 6f 3c 32 17 01 3e
       0.038304683 0.21286488 0.014604916 0.12606505
000340 7c 75 b2 ba b1 8a 0a 3e 30 14 70 3e 69 95 c7 3d
       -0.0013615335 0.13529469 0.23445201 0.097452946
000350 9c 2b 40 bd 8c 28 24 3e 2a b8 aa 3d aa c9 06 3e
       -0.04691659 0.16031092 0.08335908 0.13162866
000360 fc b5 9a bd 7d 06 bd 3d 18 db 17 be 3e c8 d0 bd
       -0.07554242 0.09229753 -0.14829671 -0.10194443
000370 45 41 3c be c2 16 18 3e 3c 44 ca 3d ae 17 3a 3d
       -0.18384273 0.14852431 0.09876296 0.04543274
000380 23 bb 0c bd 0d af 0c 3e 3b e0 12 3e 51 a7 a3 bd
       -0.034358155 0.13738652 0.1434335 -0.079908974
000390 66 11 22 3e ee d9 03 3e a5 8e 63 3e d2 61 3f 3d
       0.1582695 0.12876102 0.22222383 0.046724148
0003a0 21 f6 bc 3d 1f ed de 3d 6e b0 12 3d 20 5c 89 3d
       0.09226633 0.10885071 0.035812788 0.067070246
0003b0 8e 87 a7 3d 2b d1 2f 3d d9 7d 12 3d 50 20 46 3d
       0.08180152 0.042924087 0.03576455 0.04837066
0003c0 25 f5 27 3d f2 fb 35 3c af f1 3c be 82 da 4b 3d
       0.041005272 0.011107432 -0.1845157 0.049768932
0003d0 39 ca 19 3e e6 59 8d 3d 75 dc ec bb 79 0a c1 3d
       0.15018548 0.069019124 -0.007228429 0.094258256
0003e0 f7 7b 90 3d 04 fd 08 3e dd f8 24 3e 21 d1 43 3e
       0.070548944 0.13377768 0.16110559 0.19122745
0003f0 a4 7f 3e 3e c3 d0 63 3e b3 6c 39 3d 70 1e d8 3c
       0.18603379 0.22247605 0.04526968 0.026381701

lstm.weight_ih_l1 f4 [256, 64]
000000 d1 71 32 bd 1d 7b 97 3d 06 48 88 bd 4b 2f db bc
       -0.043565575 0.07396529 -0.066543624 -0.02675595
000010 70 0b 97 be 8d 20 4a be 1c 99 18 3e 6c 1c f5 bd
       -0.29500914 -0.1973898 0.14902157 -0.11968312
000020 13 10 0b 3e 32 47 5b 3e 2b 99 dd 3d 38 99 98 bd
       0.1358035 0.21413878 0.1082023 -0.07451099
000030 fb 2c d2 3c 7a a7 e0 bd 2d 34 81 3d 4b fb d2 3d
       0.025656214 -0.109694436 0.0630878 0.103018366
000040 3a e4 61 bd e6 ac 18 be b3 36 0d 3e 7b 1b d0 bd
       -0.055149294 -0.14909706 0.13790397 -0.101614915
000050 17 27 26 be ed 26 17 3d c7 9a 07 3e 84 b4 c9 bc
       -0.16225849 0.036902357 0.13242637 -0.02462221
000060 85 7c f8 3c b0 75 4b be 7e 2a 1d 3d 4f 17 0a 3e
       0.030332813 -0.19869113 0.0383706 0.13485454
000070 f1 07 d1 bd 86 55 85 be 3c e2 68 3c 02 6e 22 bd
       -0.10206593 -0.26041812 0.014214095 -0.039655693
000080 45 03 4f be 7b ed 1f 3e 7d c7 24 be ac 01 10 3e
       -0.20216091 0.15617935 -0.16091724 0.14063138
000090 8c 7c 4f 3d 56 19 d8 3c dd 0c 2b 3e 4d ee 17 3e
       0.050655887 0.026379269 0.16704126 0.14836998
0000a0 04 27 26 bd 4e da 33 be 53 ad 39 be ca 40 57 be
       -0.040564552 -0.17563745 -0.18132524 -0.21020809
0000b0 b1 56 2b bd 73 73 1f be 7f a3 63 3e e3 82 92 3e
       -0.041830722 -0.15571384 0.22230338 0.28615484
0000c0 4b c9 15 be 4a a7 11 3e b1 30 08 bd 70 ab 83 be
       -0.14627568 0.14223972 -0.03324956 -0.25716734
0000d0 f3 f3 30 be 3c b1 91 3b 62 a2 0c 3d c9 47 26 3d
       -0.17280559 0.004446177 0.034334548 0.040595803
0000e0 90 75 cf 3d 56 64 55 bc 02 14 02 3d c6 de 0f 3e
       0.10129845 -0.01302441 0.031757362 0.14049825
0000f0 d1 09 25 3e 07 6c ef 3c 4b 42 94 bd ff cc 61 3d
       0.16117026 0.029226316 -0.07239207 0.05512714
000100 cf 32 81 bd fb e9 c2 3d ee 13 20 be 94 4a 32 3e
       -0.06308519 0.095172845 -0.15632603 0.17411262
000110 d1 f6 d9 bd ed ac a2 3c 43 aa 32 3d c8 c5 82 bd
       -0.106427796 0.019857848 0.043619405 -0.0638538
000120 b3 d6 30 3e 78 c4 e6 3d 45 75 a0 bc 77 f9 4c bd
       0.17269401 0.11267942 -0.019587168 -0.050042596
000130 ff 7f 81 3c ab 9a 50 be 04 ab 0e 3e df 64 04 3e
       0.015808104 -0.20371501 0.13932425 0.12929104
000140 07 d7 fc 3d 81 81 90 bd a7 3a b2 3d 54 14 27 be
       0.12345701 -0.07055951 0.08702593 -0.16316348
000150 b7 35 3d be 76 b5 b0 3d ba ec cf 3d 0a 5c 33 be
       -0.18477522 0.08628361 0.10152574 -0.17515579
000160 f8 83 87 bc d4 15 05 be 08 8f 46 bd 47 c7 3e 3e
       -0.01654242 -0.12996608 -0.04847625 0.18630706
000170 23 8d 41 bd c3 b9 38 bd 65 40 3e 3e d5 c2 0a bd
       -0.04725374 -0.04509903 0.18579252 -0.033877213
000180 08 70 10 be 20 67 63 3e b4 58 9e be 96 e7 05 3d
       -0.14105237 0.22207308 -0.3092705 0.03269156
000190 74 23 7e 3e dd b7 30 3d 42 9e 8c 3d 0d 0f 47 bc
       0.24818212 0.043144096 0.06866123 -0.0121495845
0001a0 10 b4 d2 bd 44 6f 7d be 56 2a 87 be a0 fb 73 3d
       -0.102882504 -0.24749476 -0.26399487 0.05956614
0001b0 27 11 f1 bc 07 b3 29 be 19 fb 20 3d dd 09 0e 3e
       -0.029427124 -0.165722 0.039301965 0.1387095
0001c0 42 34 9c 3d fb 92 0e 3e a7 34 8b bc 28 8d 83 be
       0.07627155 0.13923256 -0.01699288 -0.2569363
0001d0 bf b1 d2 3d 2f e1 b1 bc 56 91 15 3d d5 67 3b 3c
       0.102878086 -0.021713821 0.036515556 0.01143833
0001e0 e1 96 27 3d ff 60 77 be eb cf 10 3e 8d e6 8d bd
       0.040915374 -0.24158095 0.14141814 -0.0692874
0001f0 0b 7f f7 bc ff 5b 2e bd 7e 92 ef 3d d2 a4 5c 3e
       -0.030211946 -0.042568203 0.11697863 0.21547249
000200 0c 18 51 be 05 f5 fa 3d 2a c1 9a 3d b2 8e 87 bc
       -0.2041933 0.12253765 0.07556374 -0.016547535
000210 31 fd 77 be 95 37 09 be 37 14 4b 3e 3d ce f6 bd
       -0.24217679 -0.13400109 0.1983193 -0.120510556
000220 bf 2c 1f 3e a7 bc 2d 3e 17 23 93 3c 7e 53 9f bd
       0.15544413 0.16966496 0.017961068 -0.07779597
000230 8b 3b 3f 3e 2f 4c a3 bd e3 83 ac 3e 7c 29 5d 3e
       0.18675058 -0.07973515 0.33694372 0.21597856
000240 49 1d 7c 3e 71 f2 01 3d 9d e7 31 3e cc 7b f4 bd
       0.24620546 0.03172535 0.1737351 -0.11937675
000250 37 bc 82 be 8a 8e 78 bd 28 a8 3e 3e 90 55 ab be
       -0.25534222 -0.06068281 0.18618834 -0.33463717
000260 ce 3f 25 be 7c 2c 53 be c6 2d 78 bd 63 bd 42 3e
       -0.16137621 -0.20622438 -0.060590528 0.19017558
000270 22 84 84 bc 6f 34 23 be e2 bd fb 3d 15 8f 95 be
       -0.016176287 -0.1593797 0.12292077 -0.29210725
000280 f7 a4 e2 3c f5 83 8c 3e ac e9 8b bd 43 fe ec 3d
       0.027666552 0.27444425 -0.06831679 0.11571934
000290 e6 e0 7d 3e 6c c8 25 38 19 7f 9d 3e 62 5b fb 3d
       0.24792823 3.9525723e-05 0.3076103 0.12273289
0002a0 1b be 1e bd 8f 41 1a be eb 92 26 be 72 3f 12 be
       -0.038755517 -0.15064071 -0.16266982 -0.14282015
0002b0 57 dd 94 3c e7 1b 05 be 56 52 8b 3d 1f 6d 61 3e
       0.01817195 -0.12998925 0.06802814 0.22014283
0002c0 e4 50 38 be 2f 48 5e 3e c2 1b 94 3d 13 1b c8 3a
       -0.17999607 0.21707223 0.07231857 0.0015266858
0002d0 20 39 70 be f8 88 6d 3e 30 56 c6 3e 94 29 cb 3d
       -0.23459291 0.2319678 0.3873763 0.0992004
0002e0 ac 17 b8 3d ef af 8a bd 76 34 2d 3d 57 21 d1 3d
       0.0898889 -0.06771838 0.04228636 0.10211437
0002f0 00 06 e0 3d 35 ca 54 bb ad f3 24 bd 79 0d 13 3e
       0.109386444 -0.0032469158 -0.04027145 0.14360608
000300 5d 46 0b be e4 8f a5 bb 15 85 97 3b 6b 9a 8b 3e
       -0.1360106 -0.0050525535 0.004624019 0.2726625
000310 1c f6 9b 3d b9 3f b4 3d 1d 76 20 be 48 b0 0d 3d
       0.07615301 0.08801217 -0.15670057 0.034591943
000320 2b f1 1d be 97 19 99 3e 23 ad a6 3e 60 00 8a 3e
       -0.1542403 0.29902336 0.32553968 0.2695341
000330 a1 27 6c bc 5f aa a5 bb 11 d0 45 be f2 72 73 bc
       -0.014413745 -0.00505571 -0.19317652 -0.014858948
000340 ac bf 16 be 63 90 ce be 0c 1d c6 3d ad 00 84 3d
       -0.14721555 -0.40344533 0.09673509 0.064454414
000350 84 4e 0b 3e cb 60 51 3e 0d 69 ab bc be b3 3a 3e
       0.1360417 0.2044708 -0.020924116 0.18232629
000360 9b a9 fc 3d 59 17 41 be 8b e2 e9 3c 6f 65 63 be
       0.12337037 -0.18856563 0.028550407 -0.22206663
000370 95 65 3a bd 17 ba f6 bc 8c 2e 20 3e c7 d9 db 3d
       -0.045507032 -0.030118031 0.15642756 0.10734897
000380 35 9f ac bd 4c 16 a7 bd 86 19 57 3d 93 f7 1c bb
       -0.08428804 -0.0815855 0.052514575 -0.0023951277
000390 ba d8 dc 3c d9 26 01 be 1f 73 10 bc 37 11 48 be
       0.026958812 -0.12612475 -0.0088165095 -0.19537817
0003a0 d3 fe 63 be 76 a5 42 3e b2 4c 2e be 9b 77 b3 3e
       -0.22265176 0.19008431 -0.17021444 0.3505219
0003b0 08 37 31 3d 22 af fe bc 7e 06 b4 bd b9 25 16 3a
       0.043265373 -0.03108937 -0.08790301 0.0005727667
0003c0 02 83 c0 bd f3 57 56 be 4a 12 2a 3b 16 0c ba 3b
       -0.09399988 -0.20931987 0.0025950843 0.0056777103
0003d0 1b 7c 89 bd 90 ef 8d be 4d 87 1d 3d 6c 34 d5 be
       -0.06713124 -0.27721834 0.03845911 -0.41641557
0003e0 8c 8a dc 3c e1 b7 ce 3d 03 8c 3f 3d c2 3f a7 bb
       0.026921533 0.10093666 0.046764385 -0.005104036
0003f0 a3 3b d5 bd 5d 0b 46 3e eb c4 ce 3e 81 11 8d be
       -0.104117654 0.19340272 0.4038461 -0.27552417

lstm.weight_hh_l1 f4 [256, 64]
000000 18 2f 8e bd 65 69 db 3d 90 60 ed 3d c2 ff 14 3e
       -0.06942576 0.10713462 0.115906835 0.14550689
000010 9a 17 88 3d 34 36 f7 3d af e6 fe 3c ce 67 79 bc
       0.06645127 0.12070885 0.031115858 -0.015222503
000020 da b7 8e bc b4 05 b7 bd d1 af d5 bc e8 24 bf bd
       -0.017421652 -0.08936635 -0.026084812 -0.09333211
000030 02 c9 c7 3d 5d 16 0b bd 59 48 73 3d aa 33 23 be
       0.09755136 -0.033956874 0.059395168 -0.15937677
000040 59 ab 54 be f6 1e f6 bd 55 b3 5c 3e 97 bb c1 3d
       -0.20768489 -0.12017624 0.21552785 0.09459608
000050 69 21 6d 3d 61 31 5d bd ef 1e 45 3d 27 28 7b bd
       0.05789319 -0.05400217 0.048125204 -0.06131759
000060 64 4e 49 bd 78 9f 39 be 61 55 47 3c 6c ae 14 bd
       -0.049147025 -0.18127239 0.012166352 -0.036299154
000070 ce d0 86 bd 3c 68 1a 3e 61 fb 6d bd 84 b9 1a bd
       -0.06582795 0.15078825 -0.05810106 -0.037774578
000080 04 82 17 be ad 97 1b bd c2 9c 73 3c ef e6 dd 3d
       -0.14795691 -0.037986446 0.014868917 0.10835063
000090 52 68 87 3c 32 49 92 bc 49 45 0a bc 54 c8 52 bb
       0.016529236 -0.017857168 -0.00843937 -0.0032162862
0000a0 8a dd 46 be d2 52 a4 bd f5 2c 35 3e 2d a7 c3 3d
       -0.19420448 -0.08023609 0.17692931 0.095533706
0000b0 79 8c a2 3d 01 ef b4 3d 37 b0 85 3d d4 30 0a bd
       0.07936949 0.08834649 0.06527751 -0.033737972
0000c0 e1 51 92 bb a0 8a 1d 3d e9 aa 66 3c 58 0a cb bd
       -0.004465327 0.03846228 0.014078834 -0.09914082
0000d0 4d e3 c9 bd 95 eb 0d be f5 21 ea 3d 14 d5 36 be
       -0.09857807 -0.13859399 0.11432258 -0.1785472
0000e0 89 4e bb bd 12 94 c0 bc 9a b2 8e bc fd ad 03 bd
       -0.09145839 -0.023508105 -0.017419148 -0.03214835
0000f0 4d 39 0a be 56 3b b4 3c 7b d1 2d 3e b5 f6 e8 bd
       -0.13498421 0.02200095 0.16974442 -0.11375181
000100 6e e3 26 be 88 ee b0 3d 3c 24 18 3d a4 06 06 3e
       -0.16297695 0.08639246 0.03714393 0.1308847
000110 d5 2f 30 be c0 54 5c 3e 2a ad bf bd a1 d4 ca bd
       -0.17205746 0.21516705 -0.093592 -0.09903837
000120 03 f0 d1 bd 68 eb 14 bd 33 3f f8 3c 45 82 59 3e
       -0.10250857 -0.036357313 0.030303573 0.212411
000130 55 ae 4a 3e bf 6a f6 bc 86 7b 9f 3d d2 5a a3 bd
       0.19793065 -0.030080197 0.07787232 -0.07976307
000140 e0 b9 42 3d 08 9f 48 3c a5 82 7b 3e 33 0d 1e bd
       0.047540545 0.012244947 0.24561556 -0.038586807
000150 2a 16 24 3e b0 2f 85 3d a6 01 ed 3d c4 ea 2e 3b
       0.1602408 0.06503236 0.1157258 0.0026690224
000160 1a 13 89 bb d1 7b 68 bd 2d 61 f5 bd 16 bf e6 bc
       -0.0041831853 -0.056758706 -0.119814254 -0.028167289
000170 46 4a 47 be b1 35 e2 ba 33 1b d1 bd a7 3b d3 bd
       -0.19461927 -0.0017258433 -0.10210266 -0.10314112
000180 f5 6f 1e be 46 81 23 bc 3c d2 22 be 78 9a 46 3e
       -0.15472396 -0.009979552 -0.1590051 0.19394863
000190 2a cf 42 3e 21 0b ca bd 38 fd 04 3e bd 08 cf ba
       0.1902434 -0.09865404 0.1298722 -0.0015795451
0001a0 5a 06 27 be 15 eb 53 be d7 37 2e 3e 94 1f 47 3e
       -0.16311017 -0.20695145 0.17013489 0.1944564
0001b0 a9 22 ab bd 56 9f 6b 3e fd fe 1b be 8f f7 3f bd
       -0.0835622 0.2301 -0.15233989 -0.04686695
0001c0 e7 a7 0b 3e eb 09 0e 3d 96 6e 05 be 58 6e 1d bd
       0.13638268 0.034677427 -0.13030466 -0.03843531
0001d0 60 00 c5 3d a2 81 6a be e5 1e 7a 3d 19 a7 50 be
       0.09619212 -0.22901013 0.06106462 -0.20376243
0001e0 56 da 03 be 82 cd 59 3a 8d c8 9f bd 77 24 1d 3e
       -0.12876257 0.0008308516 -0.07801924 0.15345941
0001f0 34 a3 0a be e7 d3 51 3e 1a 13 e7 3d 99 73 10 be
       -0.1353882 0.2049099 0.1128294 -0.14106597
000200 9e a2 27 be e6 de 59 3e ec b0 ae 3d 81 df 5a 3e
       -0.16370627 0.21276435 0.08529839 0.21374322
000210 af 1d be bb 23 43 0b 3e 6d 10 5e bd b0 7e 0a 3d
       -0.0058018784 0.1359983 -0.054214884 0.033812225
000220 de cc 60 be 4a a3 2e be 3f 15 f7 bc 73 53 5f be
       -0.2195315 -0.17054477 -0.030161498 -0.21809177
000230 c3 72 04 3d 48 f3 b3 bd fa ef 34 3d 39 b8 eb ba
       0.032336008 -0.087866366 0.044174172 -0.001798398
000240 0e 3b 01 bd 63 bc 34 be 1d 50 09 3d e8 5d 60 3c
       -0.03155046 -0.17649989 0.033523668 0.013694264
000250 ec 4b 87 3d c3 7f a3 bd 0e fb a2 3d f7 cd 31 be
       0.06606278 -0.07983353 0.07958041 -0.17363726
000260 c2 38 7c 3d 8a cb 23 be 26 f6 d5 bd 89 ef ce bd
       0.061577566 -0.15995613 -0.1044734 -0.101042815
000270 53 be 0e be 7d 2c 7c 3e 0c be 56 be 54 45 28 be
       -0.1393979 0.24626346 -0.20970935 -0.16432697
000280 06 48 43 be 7a 80 90 bd 01 82 cc 3c 5f cc 23 be
       -0.19070444 -0.07055755 0.024964334 -0.1599593
000290 8f 61 63 3e 47 5b ef bd b2 18 74 3d a0 9a ed bb
       0.22205184 -0.11687332 0.059593864 -0.0072510988
0002a0 40 5b 50 be 5e 43 2f bd 78 b3 63 3e b5 52 2d 3e
       -0.20347309 -0.042788856 0.2223643 0.16926081
0002b0 d7 62 be bd 66 73 7d 3d 2b e3 53 be b1 58 a1 bd
       -0.09296196 0.06187763 -0.20692126 -0.07878245
0002c0 4b ba c3 ba 38 71 45 3d 90 6d 19 be c9 28 50 be
       -0.0014932839 0.048203677 -0.14983201 -0.20328058
0002d0 ee 59 17 be 2e 85 e3 bd 28 60 39 3e 2a bd 0c be
       -0.14780399 -0.111093864 0.18103087 -0.13744035
0002e0 e3 bf 21 be 14 95 05 3d 03 0c 43 be d7 93 65 3d
       -0.15795855 0.032612875 -0.19047551 0.056049194
0002f0 8b bd d4 bd 21 8b 4d 3c 84 89 b6 3d ca ef 37 be
       -0.10387715 0.012545378 0.08912948 -0.17962566
000300 a7 13 ab 3d 9a e4 ae bd 39 c2 a5 bd ec a3 80 3e
       0.08353358 -0.08539696 -0.08093686 0.25125062
000310 9a 4f bd 3d 85 7f 2e 3c 5f 57 41 3d ad 50 29 be
       0.092436984 0.01065052 0.047202464 -0.16534682
000320 91 ca 1e 3d 10 03 0a 3e b2 ba 29 bc d6 4b b2 be
       0.0387674 0.13477731 -0.010359453 -0.34823483
000330 9b b1 c5 bd 75 0a b9 bd 2d c2 0e 3d 13 75 6d 3d
       -0.09653016 -0.09035198 0.03485315 0.05797298
000340 df 7c 64 3d bf ea 46 be de 67 2d bd b8 57 05 3e
       0.05578315 -0.19425486 -0.042335384 0.13021743
000350 e8 6f 15 3d 68 fc 80 bd 41 d8 ab bd 79 47 0f bd
       0.036483675 -0.06298143 -0.083908565 -0.03498027
000360 4d 98 92 be 62 9f 89 3d 53 0c 05 3e 05 48 a8 bd
       -0.2863182 0.06719853 0.12992983 -0.08216862
000370 ef 31 70 3d d9 a4 45 bd c7 b4 8b 3d 36 2b ec 3d
       0.05864137 -0.048252914 0.0682159 0.11531679
000380 e5 62 13 be 21 97 d1 3b 2e 4e 00 bd 12 d6 a8 bd
       -0.14393194 0.00639619 -0.031324558 -0.08243956
000390 59 2a 3a be ec ad 4d 3d 31 9f 50 bc 1b 18 e8 bd
       -0.18180217 0.050214693 -0.012733267 -0.11332723
0003a0 16 cf e6 bd 4a e4 15 be 40 52 15 3e 0c 56 7a be
       -0.11269967 -0.14637867 0.14582157 -0.24446887
0003b0 f6 9a ad bd 89 10 e6 bd ab 97 dc bd 65 10 a0 3d
       -0.08476822 -0.112336226 -0.10771116 0.07815627
0003c0 52 b8 eb 3c 02 46 7e 3e 90 ad ec bd 36 12 4a 3d
       0.028774414 0.24831393 -0.11556542 0.049333774
0003d0 75 28 b7 3d fb 7d dc 3b 3d 33 5f be 53 11 0f be
       0.089432634 0.006728885 -0.2179689 -0.13971452
0003e0 87 27 fe bd ee de 2d 3e 16 5a 80 be 21 61 a1 3d
       -0.12409883 0.16979572 -0.2506873 0.07879854
0003f0 7c 88 8f 3d c1 7c 50 3d 5a f0 07 3d 04 ec 3b 3e
       0.07008454 0.050900225 0.0331882 0.18351752
