locales/br/lstm_model-br.pth (torch, 582662 bytes, 7 tensors)

weight f4 [40, 8]
0.3993703 1.1610575 -4.8794827 -2.1768138 2.3985102 0.87232715 -4.024046 3.3971832
-0.034610327 1.4064367 0.25323778 -0.9392314 -0.5851152 1.1994326 0.3547497 2.526812
1.009103 -2.1285534 -1.6742624 -2.5312285 -0.4472414 -1.1528513 -0.15150537 0.61309344
-0.40805927 0.6244717 -2.1805737 -3.3595278 0.52531105 0.58034706 -1.9911433 1.4220927
2.178537 -0.3527244 1.2967696 -2.6911733 -0.30125612 -0.42472023 -1.0198864 0.28621972
-3.2108462 -0.4220717 -1.38278 2.2178848 0.7739717 1.6786236 -0.41855574 0.24405818
2.2185833 0.9863125 1.8948716 0.59081084 -2.3309674 2.7332282 -1.9066449 2.3296304
-3.414953 -2.383502 -1.9541613 -1.3133461 -0.8744904 -1.5621334 0.9661811 0.56448394
-0.14014305 -2.1506922 0.44971055 -2.4359584 3.7555647 -0.43778288 0.25692552 -0.39369357
-2.3014908 -1.1357917 0.14895798 1.2614825 1.161828 -0.96987784 -0.02614916 3.8977628
-4.4253755 2.9988039 1.492734 -0.81351393 -0.8141906 -1.039424 -1.0242805 -0.84349144
-0.104267195 -0.41577566 -0.3470589 -0.84659857 0.55888957 -1.9977435 0.9287022 -2.5249593
-1.0047883 -1.7345953 0.7949691 -0.74100673 -3.1375034 0.33179173 -1.9257439 2.0266728
0.22631606 1.985686 -2.1571445 0.7647495 -2.9571135 -0.7806094 0.06412757 -1.5604318
0.4897335 -0.18812278 -2.0098734 2.053989 0.50555813 -2.527802 -1.1892476 -1.0108583
1.4872223 -0.087066196 -0.17484084 2.8518522 -0.57140934 0.26623344 1.153072 0.6041705
2.3248668 1.7457318 -0.9153256 0.39297858 -1.7991539 -0.115690455 -1.2843331 -0.32298294
-0.4501282 -0.86742914 -2.374778 0.009919591 0.16269833 0.72929627 1.2387173 -2.365136
0.19685248 0.63798326 0.84006655 -0.8938047 2.5005682 3.3306773 0.61743987 1.3269448
-0.16282053 0.8583712 1.8435646 0.23398812 -1.4054159 -1.9949305 -2.638452 -1.0609112
-0.14436251 -0.8031901 -0.7296698 0.5267752 -3.7356892 -0.708369 0.7047309 0.037332762
1.3967278 2.8801506 -0.58091056 -0.20867619 2.311339 -0.9601 0.47359407 -1.4055363
0.22510582 2.4467762 0.0902624 2.1977694 -1.4727545 -3.0120401 -0.58851016 -1.3870167
-1.154492 -2.2332647 0.43747404 0.24629411 -1.446717 4.148423 -1.1160885 -2.1487231
-1.2367945 3.3868573 2.292544 0.83892083 -2.2616208 -0.5306158 -0.6513941 -0.7532211
-0.81076074 4.7729483 -1.6665173 1.3679731 -1.8887783 1.3488925 -2.5651395 -1.2121924
-0.69785774 2.9629157 1.6194305 1.5677531 0.21667193 1.6104289 1.2493248 -1.9350531
-2.5139494 1.8541002 -0.2500209 -0.31759134 -0.20324425 -1.0522194 1.7040018 1.4520038
1.094458 -0.41333124 0.81146723 0.7036359 -1.2058762 0.53929555 -0.10086723 -1.3899041
-1.7938755 -1.9918563 2.316029 0.7612563 2.8669653 2.5219672 -0.31141692 1.1050997
-5.120261 0.0138651645 2.224688 -1.0419028 -0.0033471037 -2.0614288 -1.9691784 -0.66225743
-1.1965835 -3.9757552 1.1279271 0.21638894 1.2622188 0.73819983 -1.3654083 4.277283
00000000: 447a cc3e 889d 943f b924 9cc0 eb50 0bc0
00000010: 3181 1940 d550 5f3f fcc4 80c0 736b 5940
00000020: 8fc3 0dbd 1e06 b43f 62a8 813e 7871 70bf
00000030: 1cca 15bf 0287 993f c1a1 b53e 4ab7 2140
00000040: 492a 813f 383a 08c0 3b4e d6bf a6ff 21c0
00000050: d3fc e4be a290 93bf 3924 1bbe b1f3 1c3f
00000060: 25ed d0be 61dd 1f3f 858e 0bc0 8102 57c0
00000070: c97a 063f a091 143f c9dd febf 2207 b63f
00000080: 266d 0b40 4b98 b4be 8cfc a53f 2f3c 2cc0
00000090: 3e3e 9abe ee74 d9be a38b 82bf 648b 923e
000000a0: 817e 4dc0 c819 d8be effe b0bf d3f1 0d40
000000b0: 0223 463f 23dd d63f f04c d6be 63ea 793e
000000c0: 45fd 0d40 fa7e 7c3f 278b f23f 613f 173f
000000d0: 922e 15c0 36ed 2e40 f10c f4bf aa18 1540
000000e0: 978e 5ac0 4c8b 18c0 f521 fabf ba1b a8bf
000000f0: 9ade 5fbf fdf3 c7bf a557 773f 0582 103f
00000100: a981 0fbe f1a4 09c0 7640 e63e bee6 1bc0
00000110: 2c5b 7040 1425 e0be be8b 833e 3492 c9be
00000120: a04b 13c0 9f61 91bf 7188 183e 4278 a13f
00000130: c8b6 943f ea49 78bf c336 d6bc f274 7940
00000140: ad9c 8dc0 67ec 3f40 e811 bf3f 7342 50bf
00000150: cc6e 50bf d80b 85bf a01b 83bf 0eef 57bf
00000160: 0a8a d5bd 8ce0 d4be b4b1 b1be afba 58bf
00000170: 6313 0f3f 0fb6 ffbf 6dbf 6d3f ef98 21c0
00000180: e79c 80bf 3807 debf 1883 4b3f 9eb2 3dbf
00000190: dbcc 48c0 9be0 a93e c77e f6bf 02b5 0140
000001a0: 66bf 673e f52a fe3f a80e 0ac0 a0c6 433f
000001b0: 5941 3dc0 05d6 47bf 5155 833d 3bbc c7bf
000001c0: 59be fa3e 42a3 40be c4a1 00c0 8e74 0340
000001d0: 426c 013f 82c7 21c0 4439 98bf ce63 81bf
000001e0: 4d5d be3f c34f b2bd 7a09 33be bf84 3640
000001f0: e247 12bf c04f 883e dd97 933f ebaa 1a3f
00000200: 9eca 1440 2474 df3f c752 6abf 7d34 c93e
00000210: ad4a e6bf 1eef ecbd 0765 a4bf 055e a5be
00000220: 3477 e6be d60f 5ebf 5dfc 17c0 c885 223c
00000230: 649a 263e 29b3 3a3f 4a8e 9e3f 635e 17c0
00000240: b293 493e df52 233f 9a0e 573f 63d0 64bf
00000250: 4f09 2040 d129 5540 8a10 1e3f 54d9 a93f
00000260: 6dba 26be 37be 5b3f edf9 eb3f 959a 6f3e
00000270: abe4 b3bf e259 ffbf 66dc 28c0 f0cb 87bf
00000280: c4d3 13be de9d 4dbf a4cb 3abf bdda 063f
00000290: 8815 6fc0 ac57 35bf 3f69 343f 3dea 183d
000002a0: fac7 b23f 6354 3840 8eb6 14bf 36af 55be
000002b0: faec 1340 1dc9 75bf ec7a f23e 9de8 b3bf
000002c0: 2482 663e fb97 1c40 7edb b83d 41a8 0c40
000002d0: 3883 bcbf 44c5 40c0 9aa8 16bf c389 b1bf
000002e0: 65c6 93bf cfed 0ec0 99fc df3e 8634 7c3e
000002f0: 062e b9bf e2bf 8440 fddb 8ebf ae84 09c0
00000300: 484f 9ebf 45c2 5840 0ab9 1240 84c3 563f
00000310: 65be 10c0 70d6 07bf c4c1 26bf 19d3 40bf
00000320: 048e 4fbf febb 9840 7050 d5bf be19 af3f
00000330: 7dc3 f1bf 82a8 ac3f 3f2b 24c0 1f29 9bbf
00000340: cea6 32bf 69a0 3d40 8049 cf3f 22ac c83f
00000350: 3fdf 5d3e 8922 ce3f e0e9 9f3f d2af f7bf
00000360: 8ce4 20c0 2853 ed3f bd02 80be 559b a2be
00000370: 431f 50be 20af 86bf bb1c da3f 43db b93f
00000380: 3317 8c3f 27a0 d3be 51bc 4f3f 7b21 343f
00000390: 275a 9abf 460f 0a3f 7a93 cebd 61e8 b1bf
000003a0: b69d e5bf 26f5 febf d239 1440 b1e1 423f
000003b0: 5c7c 3740 e967 2140 0a72 9fbe e873 8d3f
000003c0: 2ed9 a3c0 b72a 633c 4a61 0e40 125d 85bf
000003d0: 155b 5bbb 73ee 03c0 0a0e fcbf b489 29bf
000003e0: a629 99bf c672 7ec0 ea5f 903f 1095 5d3e
000003f0: 6390 a13f aafa 3c3f b3c5 aebf 81df 8840

weight_ih_l0 f4 [720, 8]
0.7238197 -0.049706712 -0.40850553 0.3597401 0.054427423 -1.4973317 -0.37565866 0.94852877
-0.40877974 0.2659252 1.8005563 0.686928 0.7324149 0.09826796 0.6197056 1.2721965
-0.9986679 0.9756251 -0.9088607 0.46962783 0.6867206 1.3680619 0.96080565 0.9290417
-0.92464477 0.05902122 1.3138596 0.53789 1.5667078 -0.52592105 2.1229186 1.653616
-0.06766124 0.024092026 -0.43113828 -0.1975753 0.34472573 0.0021592968 -0.4153777 0.10281959
-0.45013058 0.2485402 -0.5240742 -0.234725 -0.41317248 -0.27554715 0.24747138 -0.12419399
0.7361557 0.7232155 1.4379566 -0.09931441 -0.032055937 -0.37673935 0.3010949 0.5096661
0.15125513 -0.27219456 -0.27940732 0.018551195 -0.54277444 2.0742676 0.15829821 -0.025456939
-1.4854606 0.5848423 0.9429966 0.6235156 0.33440718 -0.34916067 0.70512253 -1.1702313
-0.73426914 -1.0020026 0.22256657 0.1180058 1.61634 -0.25931525 2.702063 -0.9275672
0.61119604 -1.3574519 -0.41758972 -1.237201 0.8098599 1.1057612 0.31895697 0.34443632
0.3871205 -0.6078808 -0.037285127 0.08488555 -0.32623243 -0.35742694 -1.9361708 -0.2821184
0.6887174 -0.23771542 0.08542465 -0.23936243 0.22287467 0.14010476 -0.2123831 -0.053115845
-0.28922057 -0.33067447 0.12656045 0.121276736 -0.47300062 -0.07485623 -0.008465258 0.089058205
-0.25834197 -0.40035215 -0.113460295 -0.24677426 0.0629749 0.25448504 0.62787116 -0.19933143
-0.4953779 -0.019611917 -0.02120477 -0.35285446 0.19838507 0.2806806 -0.10591 0.32386893
-0.27105096 0.07946814 -0.20832382 0.10657427 -0.2926199 -0.21421921 -0.16038534 -0.041474257
0.14411475 0.08829818 -0.29503343 -0.27156186 0.13410982 -0.109113336 -0.14018126 0.21206978
-0.39985603 -0.13584174 -0.87452316 -0.7053157 -0.071008965 0.6435522 0.17277883 -1.0061966
-0.62651664 -0.38468164 0.7399445 -0.30914366 0.69553053 -0.52505857 0.9891555 -0.89621574
0.070327334 1.5044283 -1.4070129 -0.49520692 1.6693461 2.0152955 -0.41491792 1.2187505
-0.13628466 -0.13642037 -0.24206612 -0.21977726 0.1886135 -0.01093168 -0.124035776 0.13295773
0.08112132 -0.6991312 -0.5862873 -0.041807257 -0.002800581 -0.12572294 -0.2534708 0.17535786
-0.2909391 0.5383875 1.3211745 -0.15568513 -0.09469196 2.0322826 0.906882 0.06753797
1.5382113 -0.18960351 1.314389 0.73778147 -0.7179865 -0.04905273 1.1984175 -0.711192
-0.2886393 -0.7141969 0.24377353 -0.03954215 -0.04575662 -0.4130406 0.08076252 -0.19706969
-0.39904055 -0.19514795 0.32481515 -0.2423005 -0.38737932 -0.51136595 -0.032628413 -0.16117692
1.6995707 -0.7061163 1.8049723 0.031671867 -0.09978469 0.33688322 0.49012607 -0.5231665
-1.3584356 0.011944755 0.10843475 1.3758337 -1.0414783 -1.3976251 1.0962936 0.1062303
-1.9230404 -0.9796475 1.19875 -0.80745167 0.7201863 0.05771072 0.80070364 -0.5651005
-0.18849458 -0.099686354 -0.105583146 -0.18191516 -0.21643402 -0.077630304 -0.19358079 0.115778655
0.48683494 1.2765691 1.999697 0.054024886 -0.018816171 -0.65328884 -0.8050766 1.1283184
00000000: 3f4c 393f 4499 4bbd a327 d1be db2f b83e
00000010: 4aef 5e3d 91a8 bfbf 5556 c0be c8d2 723f
00000020: 944b d1be 5927 883e a178 e63f 83da 2f3f
00000030: 8b7f 3b3f b640 c93d 07a5 1e3f 56d7 a23f
00000040: b3a8 7fbf 91c2 793f 18ab 68bf 0f73 f03e
00000050: eccc 2f3f a71c af3f 5cf7 753f add5 6d3f
00000060: 85b5 6cbf 3cc0 713d 8d2c a83f 29b3 093f
00000070: e289 c83f c3a2 06bf e6dd 0740 b0a9 d33f
00000080: fa91 8abd a45c c53c 28be dcbe 2e51 4abe
00000090: e47f b03e fd82 0d3b 63ac d4be 1493 d23d
000000a0: 8477 e6be 5281 7e3e ba29 06bf c05b 70be
000000b0: 588b d3be 8414 8dbe 2369 7d3e 6b59 febd
000000c0: b374 3c3f a724 393f f60e b83f 5a65 cbbd
000000d0: 164d 03bd fbe3 c0be 1c29 9a3e 7a79 023f
000000e0: a0e2 1a3e 165d 8bbe 7a0e 8fbe adf8 973c
000000f0: 44f3 0abf cdc0 0440 ed18 223e 128b d0bc
00000100: 9323 bebf 3ab8 153f 3a68 713f b89e 1f3f
00000110: 6b37 ab3e 30c5 b2be e982 343f 24ca 95bf
00000120: 10f9 3bbf 9f41 80bf 7ee8 633e 06ad f13d
00000130: 3be4 ce3f f8c4 84be 9aee 2c40 0b75 6dbf
00000140: 5877 1c3f fcc0 adbf 52ce d5be 9a5c 9ebf
00000150: fa52 4f3f 9589 8d3f 544e a33e f559 b03e
00000160: a834 c63e 139e 1bbf 4ab8 18bd 7ad8 ad3d
00000170: f007 a7be aa00 b7be 72d4 f7bf d371 90be
00000180: c94f 303f ac6b 73be 1ef3 ae3d 6d1b 75be
00000190: 4239 643e 9f77 0f3e f57a 59be 0090 59bd
000001a0: b814 94be 2a4e a9be 1099 013e f05f f83d
000001b0: 232d f2be 394e 99bd deb1 0abc 2664 b63d
000001c0: 6645 84be f5fa ccbe df5d e8bd 64b2 7cbe
000001d0: fcf8 803d dd4b 823e 2abc 203f 8a1d 4cbe
000001e0: 2ca2 fdbe 2ca9 a0bc a0b5 adbc 57a9 b4be
000001f0: 7525 4b3e 5eb5 8f3e 58e7 d8bd 26d2 a53e
00000200: 31c7 8abe 31c0 a23d d752 55be 9c43 da3d
00000210: 47d2 95be 485c 5bbe 0e3c 24be e9e0 29bd
00000220: d192 133e add5 b43d 9f0e 97be 280a 8bbe
00000230: 1654 093e d076 dfbd ad8b 0fbe d228 593e
00000240: eeb9 ccbe 191a 0bbe c0e0 5fbf 928f 34bf
00000250: 266d 91bd d6bf 243f efec 303e 0dcb 80bf
00000260: 6563 20bf fef4 c4be 016d 3d3f 1448 9ebe
00000270: 4a0e 323f 3d6a 06bf 4b39 7d3f 656e 65bf
00000280: c707 903d 1b91 c03f 0019 b4bf c38b fdbe
00000290: 22ad d53f 9afa 0040 1f70 d4be 0400 9c3f
000002a0: 358e 0bbe c8b1 0bbe 2ee0 77be 4a0d 61be
000002b0: e623 413e ca1a 33bc 7806 febd 1226 083e
000002c0: ef22 a63d 43fa 32bf ed16 16bf 163e 2bbd
000002d0: f489 37bb 84bd 00be edc6 81be 0391 333e
000002e0: f8f5 94be c3d3 093f 3f1c a93f ec6b 1fbe
000002f0: dced c1bd eb10 0240 6b29 683f 5951 8a3d
00000300: 1ce4 c43f 6c27 42be e63d a83f 3fdf 3c3f
00000310: f7cd 37bf 84eb 48bd bf65 993f ae10 36bf
00000320: 88c8 93be 9cd5 36bf c59f 793e f3f6 21bd
00000330: 4b6b 3bbd 0f7a d3be d266 a53d a3cc 49be
00000340: 0b4f ccbe ddd4 47be 2c4e a63e 9f1d 78be
00000350: 9556 c6be e1e8 02bf 5fa5 05bd 900b 25be
00000360: 888b d93f 0ac4 34bf 5509 e73f 5cba 013d
00000370: ea5b ccbd f57b ac3e cef1 fa3e 3dee 05bf
00000380: 38e1 adbf efb3 433c 0a13 de3d 521b b03f
00000390: 294f 85bf 61e5 b2bf 5953 8c3f 468f d93d
000003a0: 3026 f6bf 2eca 7abf a470 993f 27b5 4ebf
000003b0: 215e 383f 1362 6c3d eafa 4c3f 6daa 10bf
000003c0: b904 41be 5c28 ccbd fa3b d8bd f847 3abe
000003d0: e1a0 5dbe a3fc 9ebd 0b3a 46be 5c1d ed3d
000003e0: 6e42 f93e 9e66 a33f 12f6 ff3f 3349 5d3d
000003f0: 5f24 9abc f03d 27bf 8019 4ebf bd6c 903f

weight_hh_l0 f4 [720, 180]
0.059031736 -1.121179 0.035442207 0.5004796 0.057001416 0.19375513 0.1266556 0.003896965
-0.3920916 -0.07088545 0.14513297 0.7936475 0.032532748 -0.123869285 -0.3670777 0.07824832
0.18849096 0.07000465 -0.3111768 -0.06626639 -0.6503131 -0.19081385 0.6856808 1.06627
0.60323083 0.39729488 1.0247556 -0.6646095 0.7325163 0.07152938 -0.053054865 -0.73347163
0.50069994 0.27812654 -0.6506417 0.27785012 1.7717521 -1.1689069 0.7041436 -0.03853157
0.20757443 0.61761516 -0.06118362 -0.25894934 0.7990009 -0.38516143 -0.10973083 0.12212145
-0.27113542 -0.16574566 0.8081916 0.15196615 -0.59020084 -0.19109721 -0.45161334 0.27247703
0.27890792 -0.36740437 0.43120253 0.15346476 0.64123994 -0.19285405 -0.08633716 -0.55223244
0.29860216 -0.7369838 0.23801161 0.64308673 0.16168477 -0.33196563 -0.3183736 -0.2640448
-0.61714673 -0.23718588 -0.2720254 -0.08867946 -0.35855654 0.75730866 0.7054664 -0.5991182
0.6595084 -0.70901024 0.28009838 0.07947195 -0.19461319 0.18345676 -0.13040513 -0.0125202
-0.11672033 -0.545671 0.14920849 0.25274643 0.32478648 -1.0029006 -0.041073415 -0.17016406
-0.10930753 -0.449571 -0.41154274 -1.384067 -0.9548568 0.100816436 0.3238558 0.04370912
0.093540356 0.8517174 -0.15105371 0.032209776 -0.39209563 0.683757 0.048922773 -0.99945354
0.24764985 -0.16340856 0.49748468 -0.6185445 0.05831974 0.38513348 -0.34461772 0.3083056
0.01991863 -0.24117449 0.2361899 0.021453515 -0.042755812 0.6741367 0.2388849 0.53822196
-0.14145318 0.6901989 -0.7038258 0.21585675 -0.44731644 0.056928735 0.15585862 0.10955467
-0.65681064 -1.2325772 -1.1129206 -0.4709438 -1.9630216 -0.2557171 0.58577216 -0.0932385
-0.47536784 0.70522106 0.31781346 0.43466723 0.20263578 -0.53981924 -0.41113845 0.22690131
-0.45180127 -0.07976581 1.549789 -0.03566244 0.48435935 0.34068632 0.35777044 0.21406724
0.19381438 -1.2100291 0.13200961 -0.3710811 0.16990633 0.6453914 0.74652606 0.4047422
-0.27248424 -0.035939746 -0.451848 -0.90953094 0.35067984 -1.4145566 -0.17863008 -0.38331178
0.1956466 0.40083915 -0.65354127 0.4250921 -0.046944197 0.67473423 0.062538356 -0.7923324
-0.5844928 -2.489911 -1.6463902 0.30011907 0.96676844 1.2650774 0.97786444 -0.879717
-0.08611176 -1.7679429 0.21758702 -0.43997306 0.4712894 -1.0412645 -0.6098953 -1.6491187
-0.6773784 -0.40752754 -0.3584564 -0.91671634 0.14970407 0.24158089 1.2150434 -1.1539484
-0.12393276 -1.3832121 0.4300617 0.9626574 2.022406 -0.49919346 -0.9320391 0.47186178
0.10648484 -1.0464587 0.4180221 -0.42642456 -0.071718544 0.1933204 -0.30926895 -1.1128199
1.0051795 0.10845289 0.50312924 -2.177028 -1.0535351 -0.32910767 -0.057985622 0.65729207
-0.8917101 0.13048996 -0.8307757 -0.6445598 0.543211 -0.14798303 -1.1356813 0.19067462
-2.0188253 0.20647505 0.21458277 0.62275076 0.34082967 1.6868987 -0.33586162 -0.5531457
-1.3958461 -0.008379532 -0.527069 -0.08693545 0.6734721 0.22532737 0.5494512 -1.1917144
00000000: 43cb 713d cb82 8fbf d92b 113d 6e1f 003f
00000010: 517a 693d bf67 463e 01b2 013e 3964 7f3b
00000020: 3bc0 c8be 642c 91bd bd9d 143e 7c2c 4b3f
00000030: 0f41 053d 2eaf fdbd 9cf1 bbbe a840 a03d
00000040: c603 413e 995e 8f3d 9152 9fbe acb6 87bd
00000050: eb7a 26bf b564 43be c788 2f3f 897b 883f
00000060: 566d 1a3f 3c6a cb3e 312b 833f d923 2abf
00000070: 3086 3b3f ff7d 923d 0f50 59bd ccc4 3bbf
00000080: df2d 003f 9a66 8e3e 7490 26bf 5f42 8e3e
00000090: c6c8 e23f be9e 95bf c142 343f 48d3 1dbd
000000a0: 648e 543e 071c 1e3f ad9b 7abd 0295 84be
000000b0: 538b 4c3f e133 c5be 8fba e0bd d01a fa3d
000000c0: 43d2 8abe 3bb9 29be a5e5 4e3f 049d 1b3e
000000d0: 6717 17bf fdae 43be dd39 e7be 1c82 8b3e
000000e0: 05cd 8e3e 6d1c bcbe 94c6 dc3e de25 1d3e
000000f0: 4d28 243f 887b 45be 89d1 b0bd 1b5f 0dbf
00000100: 62e2 983e f8aa 3cbf 51b9 733e 55a1 243f
00000110: b190 253e 66f7 a9be dd01 a3be e130 87be
00000120: 54fd 1dbf dbe0 72be ea46 8bbe 949d b5bd
00000130: b994 b7be fbde 413f 7299 343f cf5f 19bf
00000140: 8bd5 283f b281 35bf 0e69 8f3e 31c2 a23d
00000150: ae48 47be 17dc 3b3e ec88 05be 8621 4dbc
00000160: 120b efbd 18b1 0bbf 1cca 183e fb67 813e
00000170: 6a4a a63e 0c5f 80bf 993c 28bd 7d3f 2ebe
00000180: a0dc dfbd 2c2e e6be bbb5 d2be 1c29 b1bf
00000190: 7f71 74bf d978 ce3d 6dd0 a53e 5608 333d
000001a0: 1692 bf3d 270a 5a3f d3ad 1abe 66ee 033d
000001b0: c2c0 c8be b30a 2f3f 3f63 483d 30dc 7fbf
000001c0: ec97 7d3e 9354 27be 50b6 fe3e ef58 1ebf
000001d0: aee0 6e3d 3730 c53e bc71 b0be 3bda 9d3e
000001e0: 652c a33c 72f6 76be c4db 713e 48bf af3c
000001f0: b820 2fbd 3994 2c3f 3e9e 743e eac8 093f
00000200: 1ad9 10be e0b0 303f ed2d 34bf 8d09 5d3e
00000210: a906 e5be 1b2e 693d 6799 1f3e 335e e03d
00000220: be24 28bf 17c5 9dbf 2f74 8ebf 8c1f f1be
00000230: 4b44 fbbf 5aed 82be 2af5 153f d4f3 bebd
00000240: 6a63 f3be 5e89 343f 72b8 a23e b48c de3e
00000250: c17f 4f3e 9831 0abf bd80 d2be d158 683e
00000260: 7f52 e7be 425c a3bd 7c5f c63f c712 12bd
00000270: f3fd f73e 706e ae3e b02d b73e 7134 5b3e
00000280: 4777 463e 3ce2 9abf 872d 073e 58fe bdbe
00000290: edfb 2d3e 5f38 253f 551c 3f3f 5f3a cf3e
000002a0: 0e83 8bbe 8e35 13bd 9f58 e7be 05d7 68bf
000002b0: 4f8c b33e 3110 b5bf ceea 36be 7141 c4be
000002c0: 9557 483e ca3a cd3e 7b4e 27bf aca5 d93e
000002d0: 8f48 40bd 62bb 2c3f 1c14 803d 4cd6 4abf
000002e0: 52a1 15bf b45a 1fc0 eabc d2bf 35a9 993e
000002f0: 237e 773f 0eee a13f 5355 7a3f 2235 61bf
00000300: 5d5b b0bd f44b e2bf 22cf 5e3e 2644 e1be
00000310: d84c f13e 2848 85bf 1922 1cbf 5216 d3bf
00000320: ac68 2dbf 73a7 d0be 9987 b7be ecad 6abf
00000330: 064c 193e fb60 773e 8b86 9b3f 95b4 93bf
00000340: 75d0 fdbd 180d b1bf 0c31 dc3e b770 763f
00000350: 1a6f 0140 4996 ffbe 1d9a 6ebf de97 f13e
00000360: b914 da3d 5cf2 85bf fe06 d63e 5254 dabe
00000370: 2ce1 92bd c8f5 453e 8058 9ebe e270 8ebf
00000380: b9a9 803f 8c1c de3d 14cd 003f 6d54 0bc0
00000390: 3dda 86bf cd80 a8be 5582 6dbd 4b44 283f
000003a0: 1d47 64bf 299f 053e b7ad 54bf df01 25bf
000003b0: e00f 0b3f dd88 17be 015e 91bf 3540 433e
000003c0: 6f34 01c0 326e 533e 96bb 5b3e 986c 1f3f
000003d0: 3a81 ae3e 4cec d73f 0ef6 abbe f59a 0dbf
000003e0: 16ab b2bf 4e4a 09bc feed 06bf 370b b2bd
000003f0: ab68 2c3f 38bc 663e d5a8 0c3f 198a 98bf

bias_ih_l0 f4 [720]
0.100149944 0.05667075 0.04160988 -0.34248668 0.30357653 0.23313457 -0.40116477 -0.02852574
-0.08222379 -0.06990267 0.2556791 0.103094906 0.10149408 -0.11889578 0.11962655 0.1254062
0.31515312 0.43095633 0.19219063 0.3142857 0.032743424 0.2153743 0.23222142 0.08639023
-0.25548884 0.00841661 0.011650907 -0.1400221 -0.023105787 -0.036664385 0.09958105 -0.11535821
-0.04901086 -0.031396214 0.55369663 0.11281813 0.14907719 0.029443702 0.021970423 0.108512715
0.17880966 -0.22523847 -0.11147346 -0.069862396 -0.4096339 0.014421157 0.19535033 -0.042658307
-0.33034408 0.2343208 0.25976196 -0.38791957 0.33113202 0.035658598 0.29612103 -0.1616738
-0.21340638 0.11159561 -0.11016107 0.16304235 -0.24069531 -0.35117853 -0.012665241 0.2232532
0.16697161 -0.30944234 -0.22065541 -0.23126955 0.09211636 0.049185604 0.31100065 0.19255708
0.09162671 0.23199335 -0.122230686 0.36915183 0.0275113 0.201135 -0.028999843 0.025707839
-0.23272653 0.4436333 0.16813746 0.35474217 -0.21120724 0.2007451 0.2711144 -0.17778969
0.12757096 0.21851099 0.0062961 0.3631685 0.1176526 -0.3682659 0.054020926 0.09342912
0.08421245 0.290316 -0.24194115 -0.34454322 -0.31153387 0.2882568 0.3115119 0.08571664
0.39170486 -0.28886592 -0.006808794 -0.07981324 -0.18897924 0.050562274 0.069572166 -0.07153003
0.022066548 0.17377394 0.20774698 0.29094934 0.031472467 0.292707 -0.20907877 0.07945429
0.19256544 0.017141743 0.05993481 0.04565252 0.08025757 -0.115501165 0.056452416 0.2356842
0.2280244 0.2548473 -0.20488484 0.32655883 -0.053607572 0.09942356 0.36994317 0.19867508
0.3371813 -0.10764567 -0.1958816 -0.0036777982 -0.49445927 0.01369982 0.18054256 -0.123963855
-0.40131044 0.13770367 0.016383365 0.22578225 -0.081570424 0.12551594 0.27244362 0.103916004
-0.05716657 0.13994612 -0.3466788 0.2306864 0.16096483 0.11267505 0.2719835 0.3295363
0.37919253 -0.10420085 0.31411362 0.21455625 0.07484848 0.21444102 -0.18502173 0.2932013
-0.08297449 0.12025529 0.42258358 -0.12873374 0.30147296 0.0134288 0.15903881 -0.038375083
-0.095879905 0.24902338 0.05018664 0.09618335 0.18762308 -0.1582869 -0.33371103 -0.17577946
0.23921166 0.338132 -0.3000972 -0.12608571 -0.18191513 -0.030948304 0.24728237 0.16944337
0.12612833 0.123819165 0.09942359 0.07921704 0.24335907 0.1290936 0.20036353 -0.18919869
-0.41320264 0.1731022 0.18666385 -0.14880079 -0.14808157 0.2655177 0.028340055 -0.28444383
-0.5536072 -0.1609592 0.22828569 -0.21926677 -0.2558273 0.1933524 -0.41486436 -0.23554301
-0.23028134 -0.34046856 0.13995533 0.0025385115 0.2454035 -0.060881928 -0.3114939 -0.30104846
-0.3095601 0.23798487 0.20595644 -0.32344136 -0.14962138 0.20861712 0.2183544 -0.19551234
0.29679343 0.23850684 -0.58889866 0.1798424 -0.42845315 -0.0414588 0.17030941 0.14835279
-0.32841006 -0.2150165 -0.15552077 0.21807212 0.18352264 0.040588878 -0.013413289 0.08300007
0.1991963 0.012825066 0.21348895 -0.45750093 -0.19309692 0.16160594 0.18127906 0.2558312
00000000: 6a1b cd3d 971f 683d 1f6f 2a3d 6a5a afbe
00000010: 626e 9b3e d4ba 6e3e 7865 cdbe d0ae e9bc
00000020: f264 a8bd 2229 8fbd 5fe8 823e 6c23 d33d
00000030: 21dc cf3d a17f f3bd c4fe f43d 7c6a 003e
00000040: c05b a13e 4fa6 dc3e 9fcd 443e 0eea a03e
00000050: f81d 063d 158b 5c3e 74cb 6d3e 5ced b03d
00000060: 6fcf 82be d2e5 093c 72e3 3e3c f461 0fbe
00000070: 5948 bdbc 652d 16bd 26f1 cb3d ed40 ecbd
00000080: 9dbf 48bd 5199 00bd 10bf 0d3f 310d e73d
00000090: b1a7 183e eb33 f13c 51fb b33c ea3b de3d
000000a0: e119 373e eaa4 66be 334c e4bd 0414 8fbd
000000b0: 89bb d1be b746 6c3c eb09 483e 7aba 2ebd
000000c0: dc22 a9be cbf1 6f3e 85ff 843e 659d c6be
000000d0: 238a a93e c00e 123d 2d9d 973e d18d 25be
000000e0: 3487 5abe 3d8c e43d 219c e1bd 93f4 263e
000000f0: d578 76be accd b3be df81 4fbc 7d9c 643e
00000100: 9bfa 2a3e 3a6f 9ebe 7ef3 61be edd1 6cbe
00000110: 81a7 bc3d d876 493d 7a3b 9f3e af2d 453e
00000120: c9a6 bb3d aa8f 6d3e 1554 fabd 7801 bd3e
00000130: 615f e13c 55f6 4d3e 1491 edbc 3f99 d23c
00000140: dd4f 6ebe e723 e33e 3a2c 2c3e c4a0 b53e
00000150: b646 58be 2090 4d3e 82cf 8a3e 800e 36be
00000160: f6a1 023e 58c1 5f3e 844f ce3b 39f1 b93e
00000170: d9f3 f03d 598d bcbe 0c45 5d3d c457 bf3d
00000180: 9477 ac3d 4ca4 943e 6cbf 77be f867 b0be
00000190: 5e81 9fbe 6596 933e 7d7e 9f3e 358c af3d
000001a0: 8a8d c83e 3ce6 93be 4e1c dfbb 2075 a3bd
000001b0: c683 41be 631a 4f3d da7b 8e3d 567e 92bd
000001c0: e8c4 b43c ccf1 313e a0bb 543e 50f7 943e
000001d0: 46e9 003d b1dd 953e bf18 56be eeb8 a23d
000001e0: e02f 453e d76c 8c3c 347e 753d 23fe 3a3d
000001f0: 155e a43d e08b ecbd a63a 673d 3357 713e
00000200: 3a7f 693e 587b 823e 55cd 51be b832 a73e
00000210: 9d93 5bbd 949e cb3d 3169 bd3e 7b71 4b3e
00000220: 07a3 ac3e 5575 dcbd 3095 48be 3707 71bb
00000230: c429 fdbe 3675 603c 26e0 383e c3e0 fdbd
00000240: 9078 cdbe 3102 0d3e 6836 863c 7633 673e
00000250: 650e a7bd 4087 003e bb7d 8b3e ead1 d43d
00000260: 7e27 6abd 094e 0f3e e27f b1be 0e39 6c3e
00000270: f7d3 243e 2dc2 e63d 6c41 8b3e fbb8 a83e
00000280: 8625 c23e 4167 d5bd 80d3 a03e a2b4 5b3e
00000290: 294a 993d 6d96 5b3e 5676 3dbe 7b1e 963e
000002a0: 88ee a9bd 6848 f63d e05c d83e c7d2 03be
000002b0: aa5a 9a3e 7804 5c3c 12db 223e 312f 1dbd
000002c0: af5c c4bd fcff 7e3e 8290 4d3d c7fb c43d
000002d0: 4420 403e f615 22be 2cdc aabe 88ff 33be
000002e0: e7f3 743e a31f ad3e 57a6 99be 9d1c 01be
000002f0: f647 3abe 4c87 fdbc 9737 7d3e 9082 2d3e
00000300: c927 013e e794 fd3d 989e cb3d 8b3c a23d
00000310: 1f33 793e 1d31 043e 192c 4d3e 4dbd 41be
00000320: 4c8f d3be b441 313e cf24 3f3e 3c5f 18be
00000330: b2a2 17be f0f1 873e 6729 e83c 9fa2 91be
00000340: 34b9 0dbf 7dd2 24be b9c3 693e 7887 60be
00000350: ccfb 82be 2cfe 453e 1a69 d4be 3032 71be
00000360: dfce 6bbe e551 aebe 7350 0f3e 285d 263b
00000370: 0e4b 7b3e 545f 79bd 217c 9fbe 0623 9abe
00000380: a97e 9ebe 4eb2 733e 3fe6 523e 1b9a a5be
00000390: 5936 19be ba9f 553e 4c98 5f3e 6334 48be
000003a0: 4ff5 973e 233b 743e 10c2 16bf 9b28 383e
000003b0: 365e dbbe b4d0 29bd 9765 2e3e cbe9 173e
000003c0: 5d25 a8be 492d 5cbe d640 1fbe 4c4e 5f3e
000003d0: 5ced 3b3e 8640 263d 69c3 5bbc f1fb a93d
000003e0: 1dfa 4b3e 3a20 523c d99c 5a3e 903d eabe
000003f0: 33bb 45be 077c 253e 38a1 393e 4ffc 823e

bias_hh_l0 f4 [720]
0.057225537 -0.06142026 0.12041957 -0.2672723 0.40977347 0.2380728 -0.4045757 -0.049396623
-0.108285315 -0.08476485 0.25725034 0.13197722 0.22643474 -0.013286956 0.13466129 0.13257894
0.31727278 0.4225584 0.28603506 0.2925238 0.105874896 0.115995675 0.21525425 0.039408065
-0.22804633 0.046969935 0.10473985 -0.09580821 0.09233587 -0.0039036088 0.16450308 -0.032434426
-0.052255955 -0.018466437 0.59452295 0.008005962 0.088087015 0.028379746 0.11242421 0.15386595
0.22986458 -0.25953776 -0.0750739 -0.12960367 -0.37607363 -0.018255142 0.12864053 -0.14097396
-0.21753956 0.22386362 0.30790845 -0.3162937 0.3529705 0.11878931 0.33321646 -0.2574776
-0.23740102 0.07854151 -0.09223435 0.07244281 -0.22827838 -0.4362269 -0.13233441 0.27196017
0.17715622 -0.20519859 -0.21427935 -0.21514061 0.086729474 0.085039794 0.28950477 0.18216972
0.11758698 0.14763892 -0.2008982 0.41239387 0.09279641 0.067675345 0.004362271 -0.010335187
-0.18414666 0.541002 0.1580716 0.280663 -0.21781224 0.13690478 0.36773777 -0.16785645
0.09914652 0.2941553 0.07239626 0.36517188 0.2481857 -0.33758673 0.033338975 0.05563369
0.13416962 0.4173751 -0.18264695 -0.34065133 -0.3407638 0.38903335 0.31074557 -0.0087557705
0.31437725 -0.23209195 -0.036959797 -0.07891883 -0.12604108 0.1428234 0.10017474 0.015288915
0.08133135 0.15219116 0.11329866 0.24835482 0.019564463 0.31989902 -0.302822 0.10867554
0.21624081 -0.03336538 0.097937234 0.03562813 0.15702678 -0.0985032 0.027687179 0.17664993
0.15724008 0.261631 -0.21153046 0.3053196 -0.09604307 0.054028474 0.42656237 0.27173185
0.33339027 -0.17182851 -0.1949799 0.1166212 -0.35908476 -0.0057034213 0.12920336 0.0030336026
-0.29139918 0.14367771 0.016055003 0.24097812 -0.0897404 0.008475304 0.24953967 0.05608196
-0.010658555 0.0955907 -0.35703582 0.2165043 0.11688639 0.05963423 0.16846418 0.35249415
0.44553554 -0.08232636 0.36352828 0.26330918 -0.047008947 0.23592873 -0.08042522 0.3215648
-0.10391986 0.13186985 0.3219939 -0.13837536 0.27203608 0.051167425 0.15010399 -0.06825806
-0.10136715 0.35890925 0.090648144 0.20179208 0.08159558 -0.25066468 -0.31256145 -0.14238958
0.1522374 0.2808687 -0.4092447 -0.14298393 -0.1748066 -0.07256013 0.20658655 0.06765997
0.14728892 0.04932583 0.17786007 0.13749897 0.1811885 0.1671746 0.2681269 -0.2959852
-0.45783502 0.22315103 0.14016464 -0.25931597 -0.21727383 0.24374847 0.096564054 -0.3180327
-0.56205237 -0.16569129 0.18865909 -0.2732965 -0.2585485 0.22321665 -0.43427497 -0.27259505
-0.29847637 -0.33151093 0.10607543 -0.006860356 0.15543644 0.0141341565 -0.26427624 -0.23350427
-0.30120996 0.29897234 0.22244014 -0.34482208 -0.16292728 0.20979458 0.22667828 -0.11024799
0.24387038 0.25808948 -0.58152264 0.146414 -0.35959715 -0.056408342 0.06325212 0.12872523
-0.2692975 -0.32496557 -0.0774692 0.18929315 0.17955446 0.049010597 -0.0063764346 0.10117721
0.21357937 0.0693406 0.20106839 -0.43114662 -0.1850603 0.2576109 0.09938237 0.32653654
00000000: 5365 6a3d d093 7bbd 899e f63d ead7 88be
00000010: d4cd d13e 5bc9 733e 8c24 cfbe 1d54 4abd
00000020: b1c4 ddbd 3299 adbd 51b6 833e 0925 073e
00000030: 82de 673e 88b1 59bc a6e4 093e c6c2 073e
00000040: 9471 a23e 9359 d83e 3073 923e aec5 953e
00000050: f0d4 d83d 248f ed3d 9c6b 5c3e 5a6a 213d
00000060: fa84 69be 8c63 403d d981 d63d 1837 c4bd
00000070: 971a bd3d b0d3 7fbb 7f73 283e f6d9 04bd
00000080: 570a 56bd ed46 97bc a832 183f 702b 033c
00000090: f766 b43d a47c e83c aa3e e63d 098f 1d3e
000000a0: 9f61 6b3e 22e2 84be 58c0 99bd d3b6 04be
000000b0: b98c c0be cf8b 95bc 58ba 033e 7a5b 10be
000000c0: b1c2 5ebe 813c 653e 2da6 9d3e 3ff1 a1be
000000d0: 8db8 b43e cf47 f33d 599b aa3e 1bd4 83be
000000e0: 4119 73be 5fda a03d 5de5 bcbd e55c 943d
000000f0: cfc1 69be 2259 dfbe ac82 07be 5d3e 8b3e
00000100: 7168 353e 941f 52be 0c6c 5bbe d24d 5cbe
00000110: 399f b13d 5829 ae3d f839 943e b38a 3a3e
00000120: 71d1 f03d a82e 173e 42b8 4dbe 4a25 d33e
00000130: 0b0c be3d 5f99 8a3d 62f1 8e3b eb54 29bc
00000140: f190 3cbe 1b7f 0a3f 86dd 213e 10b3 8f3e
00000150: 2c0a 5fbe c430 0c3e 2048 bc3e 90e2 2bbe
00000160: 550d cb3d 869b 963e 7e44 943d cff7 ba3e
00000170: 6424 7e3e 2bd8 acbe 738e 083d 27e0 633d
00000180: c363 093e 30b2 d53e cd07 3bbe da69 aebe
00000190: 9878 aebe 612f c73e 0b1a 9f3e 5d74 0fbc
000001a0: 0ef6 a03e 83a9 6dbe 2863 17bd 32a0 a1bd
000001b0: ea10 01be 4c40 123e 6a28 cd3d 5b7e 7a3c
000001c0: 0d91 a63d 00d8 1b3e 2109 e83d ba50 7e3e
000001d0: a745 a03c cec9 a33e 7c0b 9bbe 4891 de3d
000001e0: 3b6e 5d3e 23aa 08bd 5193 c83d cdee 113d
000001f0: a1cb 203e 0cbc c9bd 39d0 e23c b8e3 343e
00000200: 8b03 213e 80f4 853e 719b 58be da52 9c3e
00000210: 3bb2 c4bd f64c 5d3d 6266 da3e 7020 8b3e
00000220: 21b2 aa3e d0f3 2fbe d0a8 47be 19d7 ee3d
00000230: f5d9 b7be c4e3 babb e34d 043e 68cf 463b
00000240: 4632 95be 4020 133e c885 833c f8c2 763e
00000250: d1c9 b7bd 00dc 0a3c 5487 7f3e 33b6 653d
00000260: 38a1 2ebc 0fc5 c33d 66cd b6be 4eb3 5d3e
00000270: 2262 ef3d 0643 743d e081 2c3e 1d7a b43e
00000280: 3c1d e43e b99a a8bd 6120 ba3e 76d0 863e
00000290: 748c 40bd 4d97 713e fab5 a4bd 24a4 a43e
000002a0: f0d3 d4bd e408 073e 62dc a43e 45b2 0dbe
000002b0: 5048 8b3e ef94 513d dcb4 193e e2ca 8bbd
000002c0: 9599 cfbd f4c2 b73e bca5 b93d 95a2 4e3e
000002d0: 951b a73d 1f57 80be 0e08 a0be 93ce 11be
000002e0: 1fe4 1b3e 06ce 8f3e 8588 d1be 616a 12be
000002f0: 8000 33be 689a 94bd 6d8b 533e 4f91 8a3d
00000300: e8d2 163e e209 4a3d f320 363e 88cc 0c3e
00000310: 7a89 393e d12f 2b3e ee47 893e 5f8b 97be
00000320: 5a69 eabe b481 643e 5287 0f3e 10c5 84be
00000330: 087d 5ebe 3399 793e 60c3 c53d 2fd5 a2be
00000340: aae2 0fbf faaa 29be d92f 413e 85ed 8bbe
00000350: 7860 84be e892 643e 4a59 debe 9491 8bbe
00000360: e5d1 98be cdbb a9be 133e d93d d6cc e0bb
00000370: bb2a 1f3e f392 673c 374f 87be be1b 6fbe
00000380: 3138 9abe e712 993e 59c7 633e 858c b0be
00000390: 69d6 26be 64d4 563e 5a1e 683e b3c9 e1bd
000003a0: 28b9 793e 4e24 843e abde 14bf 8ded 153e
000003b0: 1e1d b8be 6f0c 67bd 548a 813d 8cd0 033e
000003c0: 5de1 89be e361 a6be 2ca8 9ebd 10d6 413e
000003d0: 20dd 373e 56bf 483d 69f1 d0bb ff35 cf3d
000003e0: 8db4 5a3e 7202 8e3d dfe4 4d3e 40bf dcbe
000003f0: 7380 3dbe 93e5 833e fc88 cb3d cc2f a73e

weight f4 [40, 180]
0.6097924 -0.5286166 -0.21664305 0.63454074 -0.17434028 0.14106101 1.1008316 0.3101839
-0.2899371 0.5790396 0.13009965 0.43767557 0.39849374 0.108091414 0.0614852 -0.094918504
-0.45494527 0.05497341 0.17508198 -0.20100592 0.69860935 0.288297 0.35311964 -0.0053357384
-0.18358268 -0.24034591 0.23874581 0.6436533 -0.18490614 -0.1742536 -0.16874923 0.18353592
0.023674149 -0.03147814 0.7617742 0.09690445 0.555054 0.07892408 -0.32775435 -0.30931774
-0.36376536 -0.037737984 -0.12725094 0.7717715 -0.20404269 0.06451008 0.21640456 -0.008037947
0.05707416 -0.32568824 0.034345586 -0.029520065 -0.20652284 0.16624665 -0.24957876 -0.41272485
0.014255887 0.7267609 -0.25920412 0.23729236 1.0070148 0.97930926 0.7227402 0.10672753
0.04942594 0.7913549 -0.73668134 0.23059109 0.309108 0.2155067 0.080920786 0.069984734
0.795576 -0.10690513 0.2660995 -0.2605944 0.19088572 0.20033619 -0.6646651 0.18544143
-0.42327055 0.04112143 -0.060370583 -0.7912491 -0.4193694 -0.55301535 0.04753896 -0.1891134
0.1330914 0.18100856 -0.44731066 -0.023896359 0.28917268 -1.6536165 -0.0027440684 -0.30166447
-0.73584056 0.18949035 0.033206236 -0.72861195 -0.24268381 -0.12410942 -0.21990097 -0.24534112
-0.052505884 0.0061742873 -0.09027662 -0.76584977 -0.055253364 0.23809528 0.1072873 0.39337388
-0.26696184 -0.2170011 0.47940865 -0.01544467 -0.11178178 0.22544083 0.44996664 -0.19521704
0.23897305 -0.059149183 0.1630897 0.2419274 -0.34744167 -0.540911 -0.29433846 0.057732772
-0.040771876 0.383609 -0.021353226 0.13594864 0.1074412 0.56556034 -0.28165936 0.3449649
-0.5364798 0.079673454 0.009324787 -0.19323905 -0.7183989 0.055014946 0.12622742 0.41674498
0.3824832 0.03717057 0.18434748 0.07182166 -0.09727503 0.2910324 -0.15895031 -0.12573971
0.038284153 -0.49171063 0.07286548 0.09160712 0.2278409 0.3627349 0.24952245 -0.28421363
-0.33439574 0.10269196 -0.2201688 0.0403947 0.4878535 0.33391967 0.25839022 -0.10725022
0.039146587 -0.05763913 0.016241942 0.13277589 0.28291473 0.13861242 0.08889102 0.5128191
-0.07087099 -0.09597526 -0.7024359 -0.3513117 -0.44637582 2.7799404 0.6725378 -1.1138357
0.3107263 0.25411525 -0.27067953 -0.035825577 0.26295286 -0.6058488 -0.5897911 -2.4246132
-0.40571722 0.41200536 -0.9938132 0.48219413 0.540069 -0.27266923 0.5301308 -0.8068369
-0.32680452 0.25807184 -1.2065198 -1.5798135 1.3256546 0.31586748 -1.329639 0.96373916
0.1913539 0.6066458 0.8822698 0.32446125 -0.06663028 0.07027239 -0.36296824 -0.13630277
-1.4582487 -0.077682994 0.5098607 0.9166801 0.10306765 0.7688767 0.55249065 0.6197859
1.0063766 -0.5891068 -0.4879463 -0.37893203 0.87426466 -0.08806315 0.60473543 -0.16701774
0.44791156 -0.22086217 0.5864841 -0.66241026 -0.09434161 -0.5300659 0.23854287 -0.8159116
0.6200235 0.6733143 -0.45722872 -0.57157433 0.15475786 0.29841685 -0.9689211 -0.49625495
-0.45324633 0.50485307 0.74875957 0.95975274 -0.4056545 0.9641721 0.11368079 0.47951692
00000000: 5b1b 1c3f 6b53 07bf add7 5dbe 4371 223f
00000010: 4286 32be 4c72 103e 0de8 8c3f 6dd0 9e3e
00000020: a372 94be f03b 143f d838 053e 0317 e03e
00000030: 5f07 cc3e 085f dd3d e8d7 7b3d a264 c2bd
00000040: 96ee e8be cc2b 613d b148 333e 7fd4 4dbe
00000050: 10d8 323f aa9b 933e 19cc b43e 6bd7 aebb
00000060: 19fd 3bbe 3d1d 76be c879 743e 76c6 243f
00000070: 0958 3dbe 896f 32be 99cc 2cbe d7f0 3b3e
00000080: 4af0 c13c 39ef 00bd a203 433f d775 c63d
00000090: 0518 0e3f f3a2 a13d 6bcf a7be e55e 9ebe
000000a0: 743f babe 2593 1abd 124e 02be d192 453f
000000b0: 91f0 50be dc1d 843d 2899 5d3e 98b1 03bc
000000c0: 98c6 693d 9cc0 a6be f5ad 0c3d 10d4 f1bc
000000d0: b97a 53be 903c 2a3e 9391 7fbe ac50 d3be
000000e0: 8691 693c 010d 3a3f 67b6 84be c5fc 723e
000000f0: dce5 803f 03b4 7a3f 8005 393f f793 da3d
00000100: db72 4a3d 3c96 4a3f 2697 3cbf 1220 6c3e
00000110: 6743 9e3e caad 5c3e ccb9 a53d 2854 8f3d
00000120: deaa 4b3f 14f1 dabd 323e 883e a16c 85be
00000130: 8c77 433e ee24 4d3e 7e27 2abf 5ce4 3d3e
00000140: ebb6 d8be f26e 283d 2547 77bd 4d8f 4abf
00000150: 96b7 d6be 6a92 0dbf 36b8 423d f1a6 41be
00000160: 1d49 083e 4f5a 393e e705 e5be 4cc2 c3bc
00000170: 710e 943e b5a9 d3bf d4d5 33bb c473 9abe
00000180: 0c60 3cbf c209 423e 4303 083d 5086 3abf
00000190: 1b82 78be 142d febd b82d 61be b43a 7bbe
000001a0: 6910 57bd ad51 ca3b f3e2 b8bd bb0e 44bf
000001b0: 5a51 62bd 40cf 733e 72b9 db3d 4d68 c93e
000001c0: 39af 88be 8935 5ebe 0d75 f53e a40b 7dbc
000001d0: d9ed e4bd f6d9 663e 0762 e63e fae6 47be
000001e0: 5ab5 743e 6a46 72bd fc00 273e d1bb 773e
000001f0: e0e3 b1be 2579 0abf 88b3 96be 3379 6c3d
00000200: 6900 27bd 6668 c43e f6ec aebc 1f36 0b3e
00000210: 220a dc3d 90c8 103f a835 90be 3d9f b03e
00000220: bd56 09bf d62b a33d fec6 183c 75e0 45be
00000230: fee8 37bf 5a57 613d c341 013e 995f d53e
00000240: d7d4 c33e 2b40 183d 96c5 3c3e 3c17 933d
00000250: 2238 c7bd 3302 953e dfc3 22be e9c1 00be
00000260: d8cf 1c3d 7fc1 fbbe 7f3a 953d 849c bb3d
00000270: 204f 693e 64b8 b93e d082 7f3e 7384 91be
00000280: eb35 abbe 2a50 d23d ee73 61be ea74 253d
00000290: efc7 f93e 85f7 aa3e b94b 843e 01a6 dbbd
000002a0: 2c58 203d 0217 6cbd d20d 853c 67f6 073e
000002b0: 33da 903e 6af0 0d3e 7f0c b63d 1d48 033f
000002c0: cf24 91bd ad8e c4bd d7d2 33bf 21df b3be
000002d0: 5f8b e4be 8bea 3140 702b 2c3f 2b92 8ebf
000002e0: 8517 9f3e 651b 823e 8296 8abe d7bd 12bd
000002f0: c2a1 863e e818 1bbf 8dfc 16bf dd2c 1bc0
00000300: 2bba cfbe 5ef2 d23e 8b6a 7ebf 26e2 f63e
00000310: f641 0a3f 4d9b 8bbe a7b6 073f dd8c 4ebf
00000320: ec52 a7be fe21 843e 3e6f 9abf 5437 cabf
00000330: 0daf a93f 62b9 a13e 9c31 aabf 9cb7 763f
00000340: 47f2 433e 244d 1b3f 6fdc 613f c91f a63e
00000350: 7575 88bd f9ea 8f3d f9d6 b9be f492 0bbe
00000360: e5a7 babf 4318 9fbd 3b86 023f 8cab 6a3f
00000370: 2215 d33d 1ad5 443f 0770 0d3f 4aaa 1e3f
00000380: f3d0 803f b4cf 16bf 19d4 f9be 6103 c2be
00000390: cfcf 5f3f 745a b4bd f1cf 1a3f b306 2bbe
000003a0: aa54 e53e b129 62be d223 163f b893 29bf
000003b0: 2d36 c1bd 66b2 07bf 9544 743e 95df 50bf
000003c0: dcb9 1e3f 535e 2c3f e219 eabe b252 12bf
000003d0: d878 1e3e 18ca 983e 370b 78bf 2115 febe
000003e0: e70f e8be 0d3e 013f b5ae 3f3f 5bb2 753f
000003f0: f2b1 cfbe fcd3 763f 79d1 e83d 3e83 f53e

bias f4 [40]
0.31676787 -0.635993 -0.035244003 -0.12058314 0.09369067 -0.2888814 -0.037474237 0.123610646
0.13005762 -0.10125127 0.03782546 -0.004600181 0.20942909 -0.2931212 0.23179796 0.0032519978
0.05638749 -0.076430306 0.20708075 -0.15298958 0.029080473 -0.012438436 0.033136882 -0.013883077
-0.32148266 -0.36760068 -0.20565583 -0.059858926 -0.09158666 -0.090810254 -0.049586933 -0.25321874
-0.3392344 0.16002834 -0.020653337 -0.2709027 -0.31991753 -0.31598473 -0.14811721 -0.2528588
00000000: 662f a23e 70d0 22bf 045c 10bd 4bf4 f6bd
00000010: e5e0 bf3d 43e8 93be 967e 19bd 9427 fd3d
00000020: d32d 053e d35c cfbd dfee 1a3d 1dbd 96bb
00000030: 9474 563e fb13 96be 725c 6d3e 781f 553b
00000040: 92f6 663d 7e87 9cbd fa0c 543e 4da9 1cbe
00000050: 2c3a ee3c 95ca 4bbc 8aba 073d d875 63bc
00000060: 6099 a4be 2836 bcbe 7197 52be a22e 75bd
00000070: c991 bbbd bafa b9bd ab1b 4bbd e3a5 81be
00000080: 22b0 adbe 78de 233e 3031 a9bc c2b3 8abe
00000090: 3bcc a3be c0c8 a1be 0aac 17be b576 81be
