locales/br/lstm_model-br.pth (torch, 583302 bytes, 7 tensors)

weight f4 [37, 9]
0	0x412848d9	10.517785
1	0xc103b440	-8.231506
2	0xbfeb5325	-1.8384749
3	0x40e058e7	7.0108523
4	0x3f3a2853	0.7271778
5	0x407b8663	3.9300773
6	0xc0435cc6	-3.0525374
7	0xc0c1e686	-6.05939
8	0xbf86dcb5	-1.0536104
9	0x3ec320ca	0.38110954
10	0xbf2076a5	-0.6268104
11	0xbec58603	-0.38578805
12	0x4003fa5d	2.062156
13	0x3f446ca7	0.7672829
14	0xbfe56a8c	-1.792314
15	0x40151b08	2.3297749
16	0xbfb76b36	-1.4329593
17	0x401a3000	2.4091797
18	0x3f723725	0.94615394
19	0x3f755701	0.9583588
20	0x4088e667	4.2781253
21	0xbfa65aee	-1.29965
22	0xbfd2d136	-1.6470096
23	0xc027bff2	-2.6210904
24	0xbf2cddd9	-0.6752601
25	0xbf6c771a	-0.92369235
26	0xc03c691d	-2.9439156
27	0xc03f42b9	-2.9884474
28	0xc0138e3c	-2.3055563
29	0xbfbb6e4f	-1.4643039
30	0x3e484f3e	0.19561478
31	0xbe8039f0	-0.25044203
32	0x402deb31	2.71748
33	0x3fdcdf77	1.7255696
34	0xbf9e652e	-1.2374628
35	0x3ec89a46	0.391802
36	0xbf65f180	-0.89821625
37	0x3fd1aaea	1.6380284
38	0x3e765b5e	0.24058291
39	0xbe27ad26	-0.16374645
40	0x402f877e	2.7426448
41	0x3f997860	1.198986
42	0xc00e226e	-2.2208514
43	0x404ad691	3.169346
44	0xbf0030df	-0.5007457
45	0xbf298ead	-0.6623333
46	0x405ef640	3.48378
47	0x3fc91ee6	1.5712554
48	0x3f8df7d6	1.1091259
49	0xbfab4751	-1.3381139
50	0xbf92d8b3	-1.1472381
51	0xbfb7c344	-1.4356465
52	0xc03f7359	-2.9914153
53	0x3f91a550	1.1378574
54	0xbfdd46b0	-1.7287197
55	0x3f5080b2	0.81446373
56	0xc086c251	-4.2112203
57	0xbfa3e0cb	-1.2802976
58	0x3f529486	0.8225788
59	0xbf5317f8	-0.8245845
60	0x3ef2fc2a	0.4745801
61	0x3fb39152	1.4028723
62	0xc08bb1a2	-4.3654337
63	0xbef3e34c	-0.4763435
64	0xbf16ddcf	-0.58932203
65	0x3f4c001c	0.79687667
66	0xc03639b9	-2.847273
67	0xbe9cc05f	-0.30615517
68	0x3fde23a6	1.7354629
69	0xc013038c	-2.2970915
70	0xc0136a5c	-2.3033667
71	0xbeaef3d4	-0.341704
72	0xbfdc7dbf	-1.7225875
73	0x4021b942	2.5269322
74	0xbf6a7a8e	-0.91593254
75	0x4060d277	3.5128458
76	0x3f28a43a	0.6587559
77	0x3fc45ef1	1.5341474
78	0xbf419c33	-0.75628966
79	0x3fee3981	1.8611299
80	0xbf24565b	-0.6419427
81	0xc015ee5b	-2.342673
82	0x3e2a45aa	0.16628137
83	0x3f256e46	0.6462139
84	0x3faed4d6	1.3658702
85	0xc00f04ab	-2.23466
86	0xbf98b1e9	-1.1929294
87	0xbe8ad4f7	-0.27115604
88	0x4030095f	2.750572
89	0xbf301f3f	-0.6879768
90	0x40398fdf	2.8994062
91	0x3f75fcc1	0.96088797
92	0xbf5f146a	-0.87140524
93	0xbe98f9bc	-0.29878032
94	0x3d0c0174	0.034181073
95	0x3feafb27	1.8357896
96	0x3fa52133	1.2900757
97	0x3f8babda	1.091182
98	0x400ae098	2.169958
99	0xbf9b5c8c	-1.2137618
100	0xbf31402e	-0.69238555
101	0xbff7dced	-1.9364296
102	0xbefea2cd	-0.49733582
103	0xc04fb768	-3.2455692
104	0xc0360300	-2.843933
105	0xc01a2579	-2.4085371
106	0xbfb9e0d3	-1.4521736
107	0xbf8e3e6c	-1.11128
108	0x40446651	3.068745
109	0x4018d071	2.3877223
110	0xbf95bf4c	-1.1699004
111	0xbe258060	-0.16162252
112	0x404a6135	3.162183
113	0x3f0b55d9	0.5442787
114	0xbf590f7c	-0.8478925
115	0xbf0d6af0	-0.552413
116	0xbf505f40	-0.8139534
117	0x3f385722	0.72007954
118	0xbf087f12	-0.53318894
119	0x3f247516	0.6424116
120	0x3fa98ec1	1.324669
121	0x401b1278	2.4230022
122	0x3f4c2423	0.7974264
123	0x3ec22877	0.37921497
124	0x3eee2484	0.46512234
125	0xbf48ce2e	-0.78439605
126	0xbfc08382	-1.5040133
127	0x4029b248	2.6515064
128	0xbe2ee1c7	-0.17078315
129	0xbea8e2bc	-0.32985485
130	0xbe45c9a9	-0.19315208
131	0x3f6dbaa0	0.9286289
132	0x4054cf34	3.3251467
133	0xbfb594d4	-1.4186044
134	0xbeee4dd3	-0.4654375
135	0x3fc87a71	1.5662366
136	0xbf0f97d2	-0.56091034
137	0x3fa5b700	1.2946472
138	0xbfc67739	-1.5505134
139	0xbecc2989	-0.3987544
140	0xbfc57785	-1.54271
141	0xbc8543d3	-0.016267693
142	0x4061a1d7	3.525503
143	0x3f03d388	0.51494646
144	0x3fc0b9da	1.5056717
145	0xbfafeed1	-1.3744756
146	0xbfcc6902	-1.5969546
147	0xbe07c679	-0.13259305
148	0xc02d4b44	-2.7077188
149	0xbfc5b110	-1.544466
150	0x4004f0cc	2.077197
151	0xbe965181	-0.29359058
152	0xbcff8c7c	-0.031194918
153	0x3da0b595	0.07847134
154	0xbf29d8ba	-0.66346323
155	0x3fb2356b	1.3922552
156	0xbdf36a3b	-0.11885496
157	0xc00b81be	-2.1797938
158	0x40667342	3.6007848
159	0xbe32cc99	-0.1746086
160	0x3f99815a	1.19926
161	0xbfa9b07d	-1.3256985
162	0x3ffad09f	1.9594916
163	0xbedc0717	-0.4297416
164	0x3d4dccf3	0.050244283
165	0xbf9b36da	-1.2126114
166	0x402e48f6	2.7232032
167	0x3f3565cd	0.7085846
168	0xc0239147	-2.555742
169	0x3fa07ff7	1.2539052
170	0x3f09ed84	0.53878045
171	0x3e2b7147	0.1674243
172	0x4007c62c	2.1214705
173	0xc04214e8	-3.032526
174	0xc040d13e	-3.0127711
175	0xbe34303c	-0.17596525
176	0xbf38b2dd	-0.72147924
177	0xbe847eda	-0.2587803
178	0x3f6a428f	0.9150781
179	0x3ff8db71	1.9441968
180	0x3ff23c96	1.8924739
181	0x3f501b37	0.81291527
182	0xbd3494d1	-0.044087235
183	0xc023da7d	-2.5602105
184	0x401d6cae	2.4597583
185	0xbf33ccd0	-0.70234394
186	0x3fbb3b4d	1.4627472
187	0xc016dda4	-2.3572779
188	0xbfdafd2b	-1.7108511
189	0xbf827b34	-1.0193849
190	0xbf18f7c0	-0.59753036
191	0xbf3745b8	-0.7159076
192	0x400961c6	2.1465926
193	0x3f9d5cf6	1.2293994
194	0xbfa4ba8c	-1.286943
195	0x400482a0	2.0704727
196	0x3f598a6c	0.8497684
197	0xc089a04e	-4.3008184
198	0xbf15b706	-0.58482397
199	0xc01fbe27	-2.495981
200	0x40331f99	2.7988036
201	0xbf0f9998	-0.5609374
202	0x3de3376d	0.11094556
203	0xbf4816ff	-0.7816009
204	0xbf94e499	-1.1632262
205	0x3f5399eb	0.82656735
206	0x403fbaee	2.9957843
207	0xbfc8db8b	-1.5691999
208	0xbf779e8e	-0.9672631
209	0xbea2909e	-0.3175096
210	0x3d819574	0.06327334
211	0x3ef206de	0.47270864
212	0xba2f39d6	-0.00066843384
213	0x3fa1ca27	1.2639817
214	0x40423898	3.0347042
215	0xbf1923d6	-0.59820306
216	0x3e7b1334	0.24519044
217	0x3f2fde6f	0.6869878
218	0x401150e1	2.2705615
219	0x40225ebb	2.537032
220	0x3fdeb3be	1.7398603
221	0xbfa08f57	-1.2543744
222	0x403c2c04	2.9401865
223	0x4021d7b2	2.52879
224	0x402a8d1e	2.664863
225	0x3fbbeb08	1.4681101
226	0x403698fb	2.8530872
227	0xbf5036ec	-0.81333804
228	0x40563463	3.3469474
229	0x3f269970	0.6507788
230	0xbfef002b	-1.8671926
231	0x3feb0cc4	1.8363271
232	0xbfaef8a6	-1.3669631
233	0xc00eef7e	-2.2333674
234	0xbf461e30	-0.7738981
235	0x3fd6dac0	1.6785507
236	0x3f47a2f2	0.7798301
237	0x40169288	2.3526936
238	0xbf8fd946	-1.1238182
239	0x3e2a51b0	0.16632724
240	0x3f2c05db	0.67196435
241	0x3f11da03	0.56973284
242	0x3fd9d4cf	1.7018069
243	0xbff36326	-1.9014633
244	0xc0007ada	-2.0074983
245	0x4043de05	3.060426
246	0x3fb949c7	1.447564
247	0x3fc13816	1.5095241
248	0x3fb64110	1.4238605
249	0x3e66576d	0.22494288
250	0xbf747cc4	-0.9550288
251	0xbeac180f	-0.33612105
252	0xbfddd367	-1.733014
253	0x3d53c4e0	0.051701427
254	0xbfcf8098	-1.6211119
255	0x3f90ba72	1.1306899

weight_ih_l0 f4 [720, 9]
0	0x3e225075	0.15851004
1	0xbe917f08	-0.2841723
2	0xbe40ab5e	-0.18815371
3	0x3ceff03f	0.029289363
4	0xbdd53fd9	-0.104125686
5	0x3eb5dbf2	0.35519367
6	0xbe5c45bd	-0.21510978
7	0xbeae56e0	-0.34050655
8	0xbe224ae2	-0.15848878
9	0x3f195cb2	0.59907067
10	0x3d05323f	0.03251862
11	0x3dd7e161	0.105410345
12	0xbf327b76	-0.69719636
13	0xbe89b52a	-0.2689603
14	0x3f4b337a	0.7937542
15	0xbdc597f1	-0.09648121
16	0xbf1b8c40	-0.6076088
17	0x3d516a9c	0.05112706
18	0xbe18e048	-0.14929307
19	0xbf23b9ed	-0.63955575
20	0xbeb5d7f7	-0.3551633
21	0x3dbe8f7e	0.09304713
22	0xbe542981	-0.20718957
23	0xbed5e127	-0.4177334
24	0xbf499c48	-0.7875409
25	0xbf50e8b6	-0.8160509
26	0x3e4efe50	0.202142
27	0xbe81f5a3	-0.25382718
28	0x3f0b2f73	0.54369277
29	0xbf678904	-0.90443444
30	0x3f20feeb	0.62888974
31	0x3efb8b1d	0.49129573
32	0xbf162091	-0.5864344
33	0x3efa2407	0.48855612
34	0xbfd20d70	-1.6410351
35	0xbe229c8a	-0.15880027
36	0x3dd0b872	0.1019143
37	0xbf15b2b5	-0.5847581
38	0xbd9c0cd6	-0.07619636
39	0x3dde7ff3	0.10864248
40	0xbeb9db5a	-0.36300164
41	0x3ef35e22	0.47532755
42	0xbcc63dc8	-0.024199381
43	0xbf15ccfe	-0.5851592
44	0xbd6ff948	-0.058587343
45	0xbf3a80bf	-0.728527
46	0x3f5b5af6	0.8568567
47	0x3d8709d7	0.06593674
48	0xbf1b8ea0	-0.60764503
49	0xbe0b0d1c	-0.1357922
50	0xbf51f461	-0.8201352
51	0xbf548c1e	-0.830263
52	0x3f7070fc	0.939224
53	0x3e992c2c	0.29916513
54	0xbd7f05cd	-0.06226139
55	0x3e0a5a78	0.13511074
56	0xbf39a585	-0.7251819
57	0xbd113843	-0.035454046
58	0xbe8ab914	-0.27094328
59	0xbe418bd4	-0.18900996
60	0x3eb240ec	0.34815156
61	0x3e3d93ce	0.18513414
62	0x3e4e3ddd	0.20140786
63	0x3e35c449	0.17750658
64	0xbe24fbc0	-0.1611166
65	0xbe9f3a73	-0.3109928
66	0x3eccac14	0.39975035
67	0xbf858654	-1.0431619
68	0xbd709a86	-0.058741115
69	0xbeef52ca	-0.4674285
70	0x3f0f23ae	0.5591382
71	0xbea8724f	-0.3289971
72	0xbf59e565	-0.85115653
73	0x3f421081	0.7580643
74	0xbebc9612	-0.36833245
75	0xbcf25bba	-0.029584754
76	0xbed05617	-0.4069068
77	0xbec712b5	-0.3888146
78	0x3f7b109c	0.9807222
79	0x3ec71b1b	0.38887867
80	0x3fb18d13	1.3871177
81	0xbe4da996	-0.20084223
82	0x3e3fdc00	0.18736267
83	0x3dd83c2a	0.105583504
84	0xbdc1da1f	-0.094654314
85	0x3e45abff	0.19303893
86	0x3d7d446a	0.061832823
87	0x3e62d97c	0.22153276
88	0xbda054ab	-0.07828649
89	0x3e1443be	0.14478967
90	0xbf8b214d	-1.0869538
91	0x3e23b480	0.15986824
92	0xbf99bab4	-1.2010102
93	0xbec0928d	-0.3761181
94	0x3ecfa2e4	0.40553963
95	0x3f53382b	0.8250758
96	0x3e3b2e17	0.182793
97	0xbd94d6e7	-0.07267552
98	0x3ecf14b7	0.40445492
99	0x3d94ee9f	0.07272076
100	0xbeadfaa4	-0.33980286
101	0x3ecd604e	0.40112537
102	0x3d87318f	0.066012494
103	0xbf0dc5ef	-0.5538015
104	0xbc0667ad	-0.008203429
105	0xbec5231f	-0.38503358
106	0xbed1c029	-0.4096692
107	0xbea75a44	-0.32686055
108	0x3d9cec10	0.07662213
109	0x3e9d9142	0.30774885
110	0x3dc546ec	0.09632668
111	0xbe3d337b	-0.1847667
112	0x3f766082	0.9624101
113	0x3db55e23	0.08855846
114	0x3e531c49	0.20616259
115	0xbf103e3d	-0.5634497
116	0xbf4b47ef	-0.79406637
117	0x3e6ece7d	0.23320957
118	0xbe090b7c	-0.13383287
119	0xbe3d3d7f	-0.1848049
120	0x3d6a097c	0.05713795
121	0x3d3bf901	0.045891766
122	0xbc8ef324	-0.017449923
123	0xbe05afae	-0.13055298
124	0xbe1e33bb	-0.15449421
125	0x3de9ac19	0.11409778
126	0x3e61a9ac	0.22037381
127	0x3e12272e	0.14272758
128	0x3e278bb1	0.16361882
129	0xbd49f1b2	-0.049302764
130	0x3f177e7c	0.59177375
131	0x3eb6e1e8	0.35719228
132	0x3db8853b	0.09009787
133	0x3fab603b	1.3388742
134	0xbe03721c	-0.12836498
135	0x3f0477c6	0.5174526
136	0xbc489e9c	-0.012244847
137	0x3e412a26	0.18863735
138	0x3eb0bf5e	0.34521002
139	0xbec46713	-0.3835989
140	0x3e95a421	0.29226783
141	0xbf437716	-0.76353586
142	0x3e8194e4	0.25308907
143	0x3f0cae47	0.54953426
144	0xbf209676	-0.62729585
145	0xbf68bd3f	-0.90913767
146	0x3e58065d	0.21096177
147	0xbe3d1cb1	-0.18467976
148	0xbf76d654	-0.9642079
149	0xbfda70a9	-1.7065631
150	0x3e6eeb89	0.23332037
151	0x3f70d787	0.9407887
152	0x3f0bd383	0.54619616
153	0xbdc535da	-0.09629412
154	0xbe6ab861	-0.22921897
155	0xbf06f61d	-0.5271929
156	0x3da14249	0.07873971
157	0xbe0a7c1d	-0.13523908
158	0xbfadc1be	-1.357475
159	0xbee65b8d	-0.44991723
160	0xbecf88c6	-0.40534037
161	0xbeceb1fd	-0.4037017
162	0x3ee602f8	0.4492414
163	0xbe12cac9	-0.14335169
164	0xbf2675f5	-0.6502374
165	0x3ec05073	0.37561378
166	0x3dfe424d	0.124149896
167	0xbe17f078	-0.14837825
168	0xbe43cf83	-0.19122128
169	0x3f1d5c46	0.61468923
170	0xbdee9811	-0.11650098
171	0xbf834147	-1.0254296
172	0xbed79021	-0.4210215
173	0x3ebc25ff	0.3674774
174	0xbe354f4b	-0.17706029
175	0xbefaaecb	-0.4896148
176	0x3e6e012f	0.23242639
177	0xbe42d10a	-0.19025055
178	0x3f9723d4	1.1807809
179	0x3e4f7be1	0.202621
180	0x3e052698	0.13003004
181	0x3eb9fec7	0.36327192
182	0xbe7739d8	-0.2414316
183	0x3e2ae9b3	0.16690712
184	0x3e2bcd2a	0.16777483
185	0x3ef06a79	0.46956232
186	0xbedda249	-0.43287876
187	0xbd85eb09	-0.0653897
188	0xbdff17c6	-0.12455706
189	0x3d2bcdec	0.04194443
190	0x3ca46e15	0.020072022
191	0xbf0a313b	-0.5398137
192	0xbe88cdd9	-0.2671955
193	0x3ec89fab	0.39184317
194	0xbe754745	-0.23952968
195	0xbe57af03	-0.21062855
196	0xbf1bc54b	-0.6084792
197	0x3f9e47a4	1.2365613
198	0xbf94986a	-1.1609013
199	0xbf30bb39	-0.6903568
200	0x3da0d3b9	0.07852883
201	0x3f58f10c	0.8474281
202	0xbf43ac94	-0.7643521
203	0xbedc49ca	-0.43025047
204	0xbf857d9d	-1.0428959
205	0x3e8fd026	0.28088492
206	0xbd1b42c3	-0.037905466
207	0x3e2a82c4	0.16651446
208	0xbedce13c	-0.4314059
209	0xbf8660d3	-1.0498298
210	0x3f41a35c	0.7563989
211	0xbf14fa17	-0.58194107
212	0xbf643fde	-0.89159954
213	0x3ef3fcda	0.47653848
214	0xbe74f231	-0.23920514
215	0x3f4c0a41	0.79703146
216	0xbe18f483	-0.14937024
217	0xbe4716bc	-0.19442266
218	0xbe786d0c	-0.24260348
219	0x3f26aecb	0.6511046
220	0xbf339676	-0.7015146
221	0x3e041eca	0.1290237
222	0x3e76f462	0.24116662
223	0xbd5e71b6	-0.054307662
224	0xbdb217ef	-0.08695971
225	0x3f808e1b	1.0043367
226	0x3ebefcd7	0.37302276
227	0xbd4ba105	-0.049714107
228	0xbf558394	-0.834039
229	0x3a563e18	0.0008172705
230	0xbe4a75ee	-0.19771549
231	0xbf0d50ca	-0.552014
232	0xbf36532e	-0.7122067
233	0x3e0cc7c3	0.13748078
234	0x3f1418e8	0.57850504
235	0xbe957efc	-0.29198444
236	0x3df7cebf	0.120999806
237	0x3f55608e	0.83350456
238	0x3eda805e	0.4267606
239	0xbf098991	-0.53725535
240	0xbe8c7ec1	-0.27440456
241	0x3f1236e5	0.5711501
242	0x3f73fd37	0.9530825
243	0x3eefd24f	0.4684014
244	0xbeee20f1	-0.46509507
245	0x3e730b09	0.23734678
246	0x3f06c2dc	0.5264108
247	0xbfa2cc6f	-1.2718638
248	0xbe3e8fd1	-0.18609549
249	0xbd3c2b33	-0.045939635
250	0x3e8df3a1	0.27724937
251	0x3edd6578	0.43241477
252	0x3c488777	0.012239329
253	0x3da3b164	0.07992819
254	0xbf6ecea1	-0.9328404
255	0x3f0c404a	0.547856

weight_hh_l0 f4 [720, 180]
0	0xbd09ecba	-0.033673026
1	0x3d6edcc5	0.05831601
2	0x3d52c8ad	0.05146091
3	0x3c6b0f3b	0.014346893
4	0xbe36b59d	-0.17842717
5	0xbddb0278	-0.1069383
6	0xbd5b1c7f	-0.053493973
7	0x3da6600d	0.08123789
8	0xbc51ced9	-0.012805664
9	0xbdbe16e6	-0.09281711
10	0x3daaf576	0.08347599
11	0xbddf4ef0	-0.10903728
12	0xbdc50552	-0.096201554
13	0x3d01d385	0.03169586
14	0x3da96de2	0.082729116
15	0x3dcbf709	0.099592276
16	0xbd832027	-0.06402617
17	0xbd9fdd59	-0.078058906
18	0x3e0f76da	0.14010182
19	0xbcfd3cbf	-0.030912755
20	0xbdeeaec1	-0.116544254
21	0xbde6a950	-0.112627625
22	0x3df17f50	0.11791861
23	0x3e00171b	0.12508814
24	0x3e106005	0.14099129
25	0xbd0c317b	-0.034226876
26	0x3e14b132	0.1452072
27	0x3e271c44	0.16319376
28	0xbd515600	-0.051107407
29	0xbd1a753c	-0.03770946
30	0x3da7a2d8	0.08185357
31	0xbd7c2a87	-0.061563995
32	0xbd3f8abf	-0.046763178
33	0xbd158a00	-0.03650856
34	0x3dce70d0	0.10080111
35	0x3dbfe8bb	0.09370562
36	0xbba8e27d	-0.0051539526
37	0x3e0a5c61	0.13511802
38	0xbe846f9d	-0.25866404
39	0xbd88db1c	-0.06682417
40	0x3d3dfb70	0.046382368
41	0x3dc29018	0.0950014
42	0x3cd3483d	0.025791282
43	0xbc376d85	-0.011195545
44	0x3d4526f6	0.04813286
45	0x3c2fdf88	0.010734446
46	0xbcbe655a	-0.023241688
47	0xbe1c91e8	-0.15290034
48	0xbd31f14c	-0.04344301
49	0xbe2f4417	-0.17115818
50	0xbd14ed7b	-0.03635929
51	0x3e23cb51	0.15995528
52	0x3d0ef5e7	0.03490248
53	0x3e52967a	0.20565215
54	0x3d84731a	0.064672664
55	0xbdf0597a	-0.11735816
56	0xbd4949fd	-0.049142826
57	0x3c8d820f	0.01727393
58	0xbe018712	-0.12649181
59	0xbd3ef10e	-0.046616606
60	0xbe136536	-0.14394078
61	0xbda33037	-0.079681806
62	0xbd1d6ca3	-0.038433682
63	0x3dbd243b	0.09235426
64	0x3dcba3ef	0.09943377
65	0x3dbeea50	0.09322035
66	0xbc431bad	-0.011908454
67	0xbd967006	-0.073455855
68	0xbd412335	-0.047152717
69	0xbdd0e950	-0.10200751
70	0xbd9be434	-0.07611886
71	0xbd0cad67	-0.034345057
72	0xbe105399	-0.1409439
73	0xbe604915	-0.21902879
74	0x3ce4558b	0.027872821
75	0x3de9f047	0.114227824
76	0x3cd19df3	0.025588011
77	0x3de33aa0	0.11095166
78	0x3d52396f	0.051324304
79	0x3de7da11	0.1132089
80	0x3d8bbba8	0.06822902
81	0xbdaf6f95	-0.085662045
82	0x3d9ff0a7	0.07809573
83	0x3e5c5d00	0.21519852
84	0x3d423f73	0.04742379
85	0x3c2c9fc5	0.010536139
86	0x3cf448a5	0.029819796
87	0x3e057039	0.13031091
88	0xbceaf8b6	-0.028683048
89	0x3e0e2497	0.13881145
90	0xbe246129	-0.16052689
91	0x3cc68ca4	0.024236985
92	0x3d82f22f	0.06393849
93	0xbd96afad	-0.07357726
94	0x3dea620b	0.114444815
95	0x3e28677b	0.16445725
96	0x3d2533d0	0.040332615
97	0x3db904bb	0.090341054
98	0x3dc9057f	0.098155014
99	0xbdf42328	-0.11920768
100	0x3bdce28c	0.0067408737
101	0x3d51aa1b	0.051187616
102	0xbe06261d	-0.13100477
103	0x3d906bb4	0.07051793
104	0xbdd7e026	-0.105408
105	0x3dc61a99	0.09673042
106	0xbd5509e4	-0.052011386
107	0xbdac2e2b	-0.08407243
108	0xbe426fd0	-0.18987966
109	0xbda922e9	-0.08258612
110	0xbc8b3b22	-0.01699597
111	0xbe249dc8	-0.16075814
112	0x3e79ec86	0.24406633
113	0xbd8fad95	-0.0701553
114	0xbe4095b5	-0.18807109
115	0x3c1b84f7	0.0094921505
116	0xbc19c6eb	-0.009385805
117	0xbdf0ff88	-0.11767489
118	0xbe0b9767	-0.13631974
119	0x3d8d9d88	0.06914812
120	0xbe4bc827	-0.19900571
121	0x3dbc37c5	0.09190325
122	0x3e04d3e5	0.12971456
123	0xbddcfe82	-0.10790731
124	0x3d3b1dc6	0.04568269
125	0x3e072675	0.13198264
126	0x3d0cdf13	0.034392428
127	0xbe726dcc	-0.23674697
128	0x3e12ab05	0.14323051
129	0x3e19071f	0.14944123
130	0x3b748aaa	0.0037314096
131	0xbe04cff5	-0.12969954
132	0xbdd8f97d	-0.10594461
133	0x3e00f521	0.1259351
134	0xbdae2814	-0.08503738
135	0x3e18a162	0.14905313
136	0xbe430a7c	-0.19046968
137	0x3e03f853	0.12887697
138	0xbdb03285	-0.08603386
139	0x3e554fc8	0.20831215
140	0x3e2c8c91	0.16850497
141	0x3be76fde	0.007062896
142	0x3d8c8eec	0.06863198
143	0x3df1bbf8	0.1180343
144	0x3d1f142f	0.038837608
145	0xba6c67e8	-0.0009018169
146	0x3d8ac498	0.067757785
147	0x3d6a62c2	0.05722309
148	0xbd63259b	-0.055455785
149	0xbce178f5	-0.027523497
150	0xbe101df5	-0.14073928
151	0xbce8486a	-0.028354842
152	0x3dd10a1d	0.10207007
153	0xbd84c79d	-0.06483386
154	0xbc841f7a	-0.01612829
155	0x3da2251c	0.07917234
156	0xbc8591b9	-0.016304838
157	0xbd934cfe	-0.071924195
158	0xbdaeef80	-0.08541775
159	0xbbf565d6	-0.0074889464
160	0x3dabfd71	0.083979495
161	0xbdb6bb4d	-0.089224435
162	0x3d62833f	0.055300947
163	0x3ddcf0ed	0.107881404
164	0xbdacb908	-0.084337294
165	0x3e065ec1	0.13122083
166	0xbe3f495d	-0.1868033
167	0xbe1659c9	-0.14682688
168	0xbb9baec2	-0.0047510574
169	0xbd715dda	-0.058927394
170	0x3dd65fc3	0.10467484
171	0xbe3262e1	-0.17420532
172	0x3e03a7a7	0.12856923
173	0x3e251be1	0.16123916
174	0xbcac1ad1	-0.02100888
175	0x3e16e3a1	0.14735271
176	0xbdb26a23	-0.0871165
177	0x3de5ba42	0.112171665
178	0xbe06c72b	-0.13161914
179	0xbdea22c3	-0.114324115
180	0x3ea1b954	0.31586707
181	0xbe9d5699	-0.3073013
182	0xbccc4e59	-0.024939703
183	0xbd8baac2	-0.06819679
184	0xbe58c4f0	-0.21168876
185	0xbde6ecaf	-0.112756126
186	0xbe2b25a7	-0.16713582
187	0xbd9972a6	-0.074925706
188	0x3f12864f	0.5723619
189	0xbea431c2	-0.32069212
190	0x3f09f0bd	0.5388296
191	0xbf541dfa	-0.8285824
192	0xbc043ce9	-0.008071163
193	0xbe2ed940	-0.17075062
194	0xbf74040f	-0.9531869
195	0xbeccbb86	-0.3998682
196	0xbf31eca8	-0.69501734
197	0xbe9e16a9	-0.30876663
198	0xbec7d09f	-0.39026353
199	0x3f1641e4	0.5869429
200	0xbca1a84d	-0.019733572
201	0x3dbc394b	0.09190615
202	0xbed370c8	-0.41296983
203	0x3fa618f4	1.2976365
204	0x3f539fe3	0.8266584
205	0xbeb0897a	-0.34479886
206	0xbf74b2c8	-0.955853
207	0x3eb28ac6	0.348715
208	0xbe16cf11	-0.14727427
209	0x3f1cef97	0.61303085
210	0xbeda39fa	-0.42622358
211	0x3e009c7a	0.12559691
212	0x3e0a62c7	0.13514243
213	0x3f857fb8	1.0429602
214	0x3f13520e	0.5754708
215	0xbc57a6f0	-0.01316236
216	0x3dcc34be	0.09970997
217	0x3f5ce764	0.86290574
218	0x3de4fa39	0.11180539
219	0x3f115986	0.56777227
220	0xbcdf41c7	-0.027253045
221	0x3e849819	0.2589729
222	0x3d6d03eb	0.057865065
223	0xbf43ad87	-0.76436657
224	0xbd243663	-0.04009093
225	0x3e65c2bd	0.22437568
226	0x3e9471f0	0.28993177
227	0xbf5e45cc	-0.8682525
228	0x3d099710	0.03359133
229	0xbe2cddb4	-0.16881448
230	0xbe8e716d	-0.27820912
231	0x3f1e88f9	0.61927754
232	0x3e8710eb	0.26380095
233	0x3ebaf28e	0.3651318
234	0x3e1dfdc2	0.15428832
235	0x3e8f8f46	0.28038996
236	0xbfa2a149	-1.270547
237	0xbf03c13e	-0.5146674
238	0x3de295d4	0.11063734
239	0x3c702ae6	0.014658665
240	0x3e36ee98	0.17864454
241	0x3f03fffd	0.5156248
242	0xbf7cd08c	-0.9875572
243	0xbe95e64e	-0.2927727
244	0x3e9c7d5c	0.30564392
245	0x3c31c09c	0.010849144
246	0x3e8f0275	0.27931562
247	0xbedf7fb8	-0.4365213
248	0x3c6741a8	0.014114775
249	0xbec0e51d	-0.376748
250	0x3d65877c	0.05603741
251	0xbf76a54f	-0.9634599
252	0xbe34e043	-0.17663674
253	0xbf0ccb21	-0.5499745
254	0xbebf6358	-0.3738048
255	0x3f128ec5	0.572491

bias_ih_l0 f4 [720]
0	0x3e37d263	0.1795135
1	0x3da2502a	0.07925446
2	0xbc48b38b	-0.012249838
3	0x3e4f81c5	0.20264347
4	0x3ee3b1fb	0.44471726
5	0x3e1fa152	0.15588883
6	0x3dbcbbd3	0.09215512
7	0x3e463daf	0.19359468
8	0x3e6e8ad6	0.23295149
9	0xbdbd65a0	-0.09247899
10	0x3dd2ca40	0.102924824
11	0x3d35f3f3	0.0444221
12	0x3e62ee41	0.22161199
13	0x3e508034	0.20361406
14	0xbe3a1418	-0.18171728
15	0x3e1b441d	0.15162702
16	0x3d7ec2fe	0.062197678
17	0x3e978c13	0.29599056
18	0x3e939042	0.28820997
19	0x3d1c686d	0.038185526
20	0x3d288bde	0.041149013
21	0x3dd1c2ca	0.10242231
22	0x3ea8ef9f	0.32995316
23	0x3e4243c7	0.18971168
24	0x3e8b9924	0.27265275
25	0x3e00da33	0.12583236
26	0x3eb1e97d	0.3474845
27	0x3e5b4268	0.2141205
28	0x3e3a7088	0.1820699
29	0x3e837a4e	0.2567925
30	0x3e8b3586	0.27189273
31	0xbc0cadde	-0.008586375
32	0x3d4844ce	0.048893742
33	0x3e874c00	0.2642517
34	0x3eb91d3d	0.3615512
35	0x3e5aecbb	0.21379368
36	0x3e104795	0.14089806
37	0x3eaee5b0	0.34159613
38	0x3e633f2a	0.22192064
39	0x3cb33ebb	0.021880498
40	0x3e9ef6f5	0.31047788
41	0x3e312f9c	0.17303318
42	0x3e67a53f	0.2262163
43	0xbe1c74fb	-0.15279
44	0x3e1188fa	0.14212409
45	0x3e7a5e42	0.24450019
46	0x3d077f37	0.033080306
47	0x3e4fa18e	0.20276472
48	0x3d4432d8	0.04790005
49	0x3e1edd27	0.1551405
50	0x3e725974	0.23666936
51	0x3e84ee7d	0.25963202
52	0x3e9abd15	0.30222383
53	0x3e93d0c7	0.28870222
54	0x3dc07957	0.09398144
55	0x3eb61c06	0.35568255
56	0x3e23492d	0.15945883
57	0x3e35aa50	0.1774075
58	0x3eb513c4	0.35366642
59	0x3e17946e	0.14802715
60	0x3e9dc916	0.3081748
61	0x3e4569f3	0.19278698
62	0x3d7e8634	0.062139705
63	0x3ec3e05e	0.38257116
64	0x3e397643	0.1811152
65	0x3e88e8bf	0.2674007
66	0x3d915a1b	0.070972644
67	0x3ebda83d	0.37042418
68	0x3e9017af	0.2814307
69	0x3e1d9455	0.15388615
70	0x3eef2e18	0.46714854
71	0x3e9668f7	0.29376957
72	0x3ec9608b	0.3933147
73	0xbc8e66ed	-0.017383063
74	0x3e98ade2	0.29820162
75	0x3cc9e5b9	0.024645673
76	0x3e69f62c	0.22847813
77	0x3e0eab99	0.13932647
78	0x3d1f1894	0.0388418
79	0x3ebd0db9	0.36924532
80	0xbd1502de	-0.036379687
81	0x3e2560f0	0.1615026
82	0x3e4d3013	0.2003787
83	0x3eb2038c	0.3476833
84	0x3e941b2a	0.28926975
85	0x3cf5cb61	0.030004205
86	0x3e7fea4b	0.2499172
87	0x3d200739	0.039069388
88	0x3e8d9bcf	0.27657935
89	0x3e90a98a	0.28254348
90	0x3eb37641	0.35051158
91	0x3dcd0209	0.10010154
92	0x3e948cb6	0.29013604
93	0x3e7de002	0.24792483
94	0x3ea8f057	0.32995865
95	0x3e54ae35	0.2076958
96	0x3e30eee7	0.17278634
97	0x3e8303f1	0.25588945
98	0x3e21f2fc	0.15815347
99	0x3e487e6b	0.19579475
100	0x3dba9ef0	0.09112346
101	0x3ed5e6e4	0.41777718
102	0x3eb8d6da	0.3610142
103	0x3e5e58ff	0.21713637
104	0x3e63549c	0.22200245
105	0xbe3d5838	-0.18490684
106	0x3e75ceb1	0.24004628
107	0x3e1e6878	0.15469539
108	0x3e085bc2	0.13316253
109	0x3e33eead	0.17571516
110	0x3e0abb11	0.13547923
111	0x3ea711e2	0.3263083
112	0x3e7eb829	0.24874939
113	0x3db4919d	0.08816836
114	0x3ee9590a	0.45575744
115	0x3e0fba97	0.14036022
116	0xbc550322	-0.013001235
117	0x3e3c070c	0.18362063
118	0x3e093d8f	0.13402389
119	0x3c4868a3	0.012231979
120	0x3e10c288	0.14136708
121	0x3de62c83	0.11238959
122	0x3e4a1e6b	0.19738166
123	0x3e639116	0.22223315
124	0x3e7cb483	0.24678235
125	0x3e7fd0cc	0.24981993
126	0x3dbc743d	0.09201858
127	0x3e0599f4	0.1304701
128	0x3ebd5275	0.36976972
129	0x3cdd1b85	0.026990661
130	0x3df0320c	0.11728296
131	0x3e66eae9	0.22550549
132	0x3dcf30da	0.101167396
133	0xbd2adee4	-0.04171647
134	0x3eabfcc2	0.33591276
135	0xbc1f0874	-0.009706605
136	0x3e879419	0.26480177
137	0x3e894132	0.26807553
138	0x3eca6457	0.39529678
139	0x3e7831ed	0.24237795
140	0x3ebe4bf0	0.3716731
141	0x3e465b8a	0.19370857
142	0x3e83eadd	0.25765124
143	0x3e30c477	0.17262445
144	0x3cb8b771	0.02254841
145	0x3e26a3c2	0.16273406
146	0x3e5150de	0.20441005
147	0x3d9a9f56	0.07549922
148	0x3d8115d0	0.063029885
149	0x3e289e93	0.16466741
150	0x3e420f86	0.18951234
151	0x3daaf690	0.08347809
152	0x3ec10bb9	0.37704256
153	0x3e188cff	0.14897536
154	0x3d99132d	0.074743606
155	0x3dc865aa	0.09785016
156	0x3de508a2	0.11183287
157	0xbcec1780	-0.0288198
158	0x3e397b2b	0.18113391
159	0xbddfb526	-0.10923223
160	0x3d41cf42	0.047316797
161	0x3e3c45d5	0.18386014
162	0xbdce9776	-0.10087483
163	0x3eafdcb2	0.34348065
164	0x3e84124d	0.25795212
165	0x3e82dd9d	0.25559703
166	0x3ea7e0df	0.3278875
167	0x3e8bccd4	0.2730471
168	0x3ea1dbf1	0.31613114
169	0x3e49684f	0.19668697
170	0x3d6e69cc	0.058206365
171	0x3ea10f4d	0.31456986
172	0x3da94917	0.08265894
173	0x3ecdcd91	0.40195897
174	0x3e8046ab	0.25053915
175	0x3d880f5d	0.06643555
176	0x3e13df13	0.14440565
177	0x3dcbe8a4	0.09956482
178	0x3ed8b7a1	0.42327598
179	0x3e54b32e	0.20771477
180	0x3e791ecb	0.24328153
181	0x3de48e80	0.11159992
182	0xbe3d95e9	-0.18514217
183	0xbdef5dfa	-0.116878465
184	0x3e9cc594	0.3061949
185	0x3b79b1bb	0.003810032
186	0x3e394d76	0.18095955
187	0x3d21fe01	0.039548878
188	0x3dea2881	0.11433507
189	0x3e3d3643	0.1847773
190	0x3d503142	0.050828226
191	0x3d99b99f	0.075061075
192	0xbc3b2fb6	-0.011424949
193	0x3da09cd0	0.078424096
194	0xbc179dbd	-0.009253916
195	0x3c7a61b8	0.015282087
196	0xba695a66	-0.0008901715
197	0x3ca9e4c9	0.020738976
198	0xbd9e0e40	-0.07717562
199	0xbe55eccb	-0.2089111
200	0x3b5eab3a	0.003397657
201	0xbe0afe1b	-0.13573496
202	0x3bcc8296	0.006241153
203	0x3c9b2c0a	0.018941898
204	0xbda1c44f	-0.07898771
205	0xbdd11cc5	-0.102105655
206	0x3d9da0e2	0.076967016
207	0xbe15829d	-0.14600606
208	0x3d1a4c8b	0.037670653
209	0x3d2f8310	0.0428496
210	0x3e2ed9f2	0.17075327
211	0xbc79ace2	-0.015238972
212	0x3e93457f	0.2876396
213	0xbdde432c	-0.10852656
214	0x3e06c800	0.13162231
215	0xbd8940f9	-0.06701846
216	0xbdd23355	-0.10263697
217	0x3e6f519d	0.23370977
218	0xbcf90e3b	-0.030402293
219	0x3c9b72ab	0.018975576
220	0x3e2bbbd2	0.16770867
221	0xbe2c6def	-0.16838811
222	0xbdf8048d	-0.12110243
223	0xbcc97034	-0.024589635
224	0xbd38f619	-0.045156572
225	0x3d85a035	0.06524698
226	0x3d30eb9a	0.043193437
227	0x3e5f5561	0.21809913
228	0x3d9a3b3f	0.075308315
229	0x3da805b7	0.08204215
230	0x3e222789	0.15835394
231	0xbe392e96	-0.18084177
232	0xbdcec4d8	-0.10096139
233	0x3e5eda71	0.21763016
234	0x3c8daf1d	0.017295415
235	0x3e62d885	0.22152908
236	0xbe7d6380	-0.24744987
237	0x3e07980b	0.13241594
238	0x3e5d7c85	0.21629532
239	0x3e05f502	0.13081744
240	0xbd1b969a	-0.03798542
241	0xbd15ff5a	-0.036620475
242	0x3e9133a8	0.28359723
243	0xbe0d5c62	-0.13804772
244	0x3d887d47	0.0666452
245	0xbd07ed14	-0.03318508
246	0xbd1b92e3	-0.03798188
247	0x3d4348aa	0.04767672
248	0xbe1e13c7	-0.15437232
249	0x3e59c18f	0.21265243
250	0xbe038ab2	-0.12845877
251	0x3e44276b	0.19155662
252	0x3c6b8374	0.014374603
253	0x3d86b247	0.065769725
254	0xbe2f10c0	-0.17096233
255	0xbe3d5b91	-0.18491961

bias_hh_l0 f4 [720]
0	0x3e4e3f63	0.20141368
1	0x3dec323e	0.115330204
2	0x3d8ba573	0.06818666
3	0x3e381c39	0.17979516
4	0x3ececda9	0.4039128
5	0x3e2b262a	0.16713777
6	0x3ce6f107	0.028191103
7	0x3e30d0c1	0.17267133
8	0x3e3e35b8	0.1857518
9	0xbcf09e22	-0.029372279
10	0x3dd0c4fe	0.10193823
11	0xbd5e3d1f	-0.05425751
12	0x3e4c61ad	0.19959135
13	0x3e18ad26	0.14909801
14	0xbd8c7c7d	-0.06859682
15	0x3d2a8ef6	0.041640244
16	0x3d3c319c	0.04594575
17	0x3ec44add	0.38338366
18	0x3e8e14ca	0.27750236
19	0x3d1be219	0.03805742
20	0x3d1c0d45	0.038098592
21	0x3e79215d	0.24329133
22	0x3ea46467	0.3210785
23	0x3e713333	0.23554687
24	0x3e6994c2	0.22810653
25	0x3e1e3337	0.15449224
26	0x3ec80ec3	0.39073762
27	0x3e8c2e5b	0.27379116
28	0x3e9b669a	0.30351716
29	0x3e7dfd61	0.24803688
30	0x3e632213	0.22180967
31	0x3d569b5c	0.052394256
32	0xbb878d6c	-0.004136732
33	0x3eb51a2a	0.35371524
34	0x3e99d9e9	0.30049065
35	0x3e536099	0.20642318
36	0x3ddc1a75	0.10747234
37	0x3ed408b3	0.41412887
38	0x3e67fe98	0.22655714
39	0x3c1235ec	0.008923989
40	0x3e618863	0.22024684
41	0x3e5e8d22	0.21733525
42	0x3e87f54e	0.2655434
43	0xbe1ed7ad	-0.15511961
44	0x3e2ff4ac	0.17183179
45	0x3e3dd4f0	0.1853826
46	0x3b0116a3	0.001969733
47	0x3e4dc5c8	0.20094979
48	0xbd177d44	-0.036984697
49	0x3e54b7be	0.20773217
50	0x3e8d7f20	0.2763605
51	0x3e92ae2d	0.2864851
52	0x3eb9e3ef	0.36306712
53	0x3ec46c03	0.38363656
54	0x3e3ee3cd	0.18641587
55	0x3e8ed402	0.27896124
56	0x3ddf205d	0.10894845
57	0x3e1d312a	0.15350786
58	0x3e86af2c	0.2630552
59	0x3e3f7494	0.18696815
60	0x3e7547f9	0.23953237
61	0x3e1847c7	0.14871131
62	0x3cb27f1e	0.02178913
63	0x3eabd2da	0.33559304
64	0x3e9028f2	0.2815624
65	0x3eb3c03b	0.35107598
66	0x3da8d032	0.08242835
67	0x3ee68ec1	0.45030788
68	0x3e22a1cf	0.15882038
69	0x3e6c3293	0.23066168
70	0x3ed613ea	0.41812068
71	0x3e8a02f5	0.2695538
72	0x3ebdd9f7	0.37080356
73	0x3d16f53e	0.036854975
74	0x3eb5fe02	0.35545355
75	0x3dd347ab	0.10316404
76	0x3e62addc	0.22136635
77	0x3d2f499f	0.04279482
78	0x3cf7416c	0.030182563
79	0x3ee74444	0.4516927
80	0xbc43645f	-0.011925786
81	0x3e93e4b8	0.28885436
82	0x3e4d3b57	0.20042168
83	0x3e99fd6f	0.30076167
84	0x3e6ad23d	0.22931762
85	0xbd282828	-0.04105392
86	0x3e5649a7	0.20926534
87	0x3da497b0	0.080367446
88	0x3e86ab27	0.26302454
89	0x3e80ec2a	0.2518018
90	0x3eca3627	0.3949444
91	0x3d8c52b3	0.06851711
92	0x3ed029fa	0.40657026
93	0x3e8bec4b	0.27328715
94	0x3e885bcf	0.26632544
95	0x3e308c1b	0.17240946
96	0x3e442c5b	0.19157545
97	0x3e83b768	0.25725865
98	0x3e048d8b	0.1294462
99	0x3d9c1b03	0.076223396
100	0x3d998c66	0.07497482
101	0x3ea800ea	0.32813197
102	0x3edecade	0.4351415
103	0x3e2af112	0.16693524
104	0x3dc00045	0.093750514
105	0xbe254ec5	-0.1614333
106	0x3e89aef0	0.2689128
107	0x3e751f0c	0.23937625
108	0x3d8ec5ab	0.06971296
109	0x3e6c66c3	0.23086075
110	0x3dd22ede	0.102628455
111	0x3e8ff43a	0.28116018
112	0x3e8189a6	0.2530033
113	0x3e00851e	0.1255078
114	0x3eeeae2a	0.46617252
115	0x3dc8a2a8	0.09796649
116	0xbd53c421	-0.051700715
117	0x3e885afc	0.26631916
118	0x3de2f886	0.11082558
119	0x3dbf31a5	0.09335641
120	0x3db0f869	0.086411305
121	0x3e391279	0.18073453
122	0x3e9f2b4a	0.31087714
123	0x3e871c11	0.263886
124	0x3e83f3be	0.25771898
125	0x3e1e3a1c	0.15451854
126	0x3dee842f	0.11646306
127	0x3e0f026e	0.1396577
128	0x3eb78e8d	0.35850945
129	0x3d84c894	0.0648357
130	0x3c82d57b	0.015970936
131	0x3e104538	0.14088905
132	0x3dc72688	0.09724146
133	0x3d876fc7	0.06613117
134	0x3e7e355b	0.24825041
135	0x3b2e165e	0.0026563625
136	0x3e9c08d1	0.30475476
137	0x3e701152	0.23444107
138	0x3ea3de57	0.3200557
139	0x3e965b1c	0.29366386
140	0x3e81b2d7	0.25331756
141	0x3ddab802	0.10679628
142	0x3e914450	0.2837243
143	0x3e244477	0.16041742
144	0x3db09d07	0.086237006
145	0x3e31c48a	0.1736013
146	0x3e17718a	0.14789405
147	0x3e322604	0.17397314
148	0x3cf269f3	0.029591536
149	0x3de7624c	0.112980455
150	0x3e0dc8de	0.13846156
151	0x3cc7e991	0.024403365
152	0x3ec346df	0.38140008
153	0x3e307929	0.17233719
154	0x3ccdd6c5	0.025126824
155	0x3df72c72	0.12069024
156	0x3e117c42	0.14207557
157	0x3d93b97b	0.07213112
158	0x3e115d4c	0.14195746
159	0xbdf92842	-0.12165882
160	0x3d55285d	0.052040447
161	0x3e704ef9	0.23467626
162	0xbc19cfa4	-0.009387884
163	0x3e678a4b	0.22611348
164	0x3e7d041c	0.24708599
165	0x3e55f73c	0.20895094
166	0x3ea7cf11	0.32775167
167	0x3e91376c	0.28362596
168	0x3e815a21	0.25264075
169	0x3e004a86	0.12528428
170	0xbd0bfcf2	-0.034176774
171	0x3e900207	0.28126547
172	0x3db97099	0.090546794
173	0x3eb18675	0.34672895
174	0x3e89654c	0.26835096
175	0x3dafe771	0.08589066
176	0x3e2b67d7	0.1673883
177	0x3de048d6	0.10951392
178	0x3ea2d2ea	0.3180154
179	0x3e2189eb	0.15775268
180	0x3e8b4210	0.2719884
181	0x3db64acd	0.08900986
182	0xbe222093	-0.15832739
183	0xbe2d9752	-0.16952255
184	0x3ea1a510	0.31571245
185	0x3da4484f	0.08021604
186	0x3e5cc980	0.21561241
187	0x3e0a3feb	0.13500945
188	0x3d47c39c	0.048770532
189	0x3e2634e1	0.16231109
190	0xbd71d782	-0.059043415
191	0xbce1f2ed	-0.027581656
192	0xbd8276b1	-0.06370295
193	0x3dde0d5a	0.1084239
194	0xbd8badc6	-0.06820254
195	0xbd49f155	-0.049302418
196	0x3b7b7d56	0.0038374267
197	0x3e12c0a5	0.143313
198	0xbdde2eba	-0.10848756
199	0xbe0c2c3f	-0.13688754
200	0x3d4222a4	0.047396317
201	0xbe53bb1e	-0.20676848
202	0xbc9ab69a	-0.0188859
203	0x3cbfab60	0.023397148
204	0xbdf91e0c	-0.12163934
205	0x3c0373eb	0.0080232425
206	0xbce5e35f	-0.02806252
207	0xbe2283eb	-0.15870635
208	0x3ba19a07	0.0049316916
209	0x3d99730a	0.07492645
210	0x3e8a0b0f	0.26961562
211	0x3dbb9423	0.09159114
212	0x3e93b660	0.2885008
213	0xbdac57d8	-0.08415192
214	0x3d5d774f	0.05406886
215	0x3d2bb0b8	0.04191658
216	0x3d145eb6	0.036223136
217	0x3e5dc9f9	0.21659078
218	0xbd093a21	-0.0335027
219	0x3e249986	0.1607419
220	0x3e199bda	0.15000859
221	0xbde71cff	-0.112848274
222	0xbd7f5c77	-0.06234404
223	0x3ba1bf40	0.004936129
224	0xbb28879f	-0.0025715602
225	0x3dcf3fe6	0.101196095
226	0xbc507202	-0.012722494
227	0x3e1de1f9	0.15418233
228	0x3e2ad7cd	0.16683884
229	0x3db03dd9	0.086055465
230	0x3e88bf3b	0.26708397
231	0xbe863a2d	-0.2621626
232	0xbd8cde3c	-0.06878325
233	0x3e8ee30a	0.27907592
234	0xbdb731d3	-0.0894505
235	0x3e1ffd8b	0.15624063
236	0xbe5dca52	-0.2165921
237	0x3e5b4c3a	0.21415797
238	0x3e603272	0.21894243
239	0x3dbc2545	0.09186796
240	0x3dba67df	0.09101843
241	0x3da5e1c8	0.08099705
242	0x3e9ac6f5	0.30229917
243	0xbe046bbd	-0.12931724
244	0x3dbc0f19	0.09182567
245	0x3d9a0c46	0.07521872
246	0xbd9e6855	-0.077347435
247	0x3e2741ec	0.16333741
248	0xbdc63639	-0.09678311
249	0x3e9d7d5d	0.30759707
250	0xbe1e4c00	-0.15458679
251	0x3e5a52bb	0.21320622
252	0xbc586345	-0.013207261
253	0x3d9147ab	0.07093748
254	0xbe75d778	-0.24007976
255	0xbe5519b7	-0.2081059

weight f4 [37, 180]
0	0x3e5802cb	0.21094815
1	0x3e6da4b0	0.23207355
2	0x3ea508d3	0.32233295
3	0x3ebbc289	0.36671856
4	0xbd0720c9	-0.03299025
5	0x3d64de31	0.05587596
6	0x3ed69ca7	0.4191639
7	0x3f013605	0.5047305
8	0xbd9398f5	-0.072069086
9	0xbe769b5b	-0.24082701
10	0xbdddcd2e	-0.108301505
11	0x3e866125	0.2624599
12	0xbf30b469	-0.69025284
13	0x3e2ff0c6	0.17181692
14	0x3eaeac03	0.3411561
15	0xbdcc5cf7	-0.09978669
16	0xbead2c9f	-0.33823106
17	0xbd253abc	-0.040339217
18	0x3d1c93c0	0.038226843
19	0xbcd7af7e	-0.026328798
20	0xbcc6941d	-0.024240548
21	0x3edd6f18	0.4324882
22	0xbe74accb	-0.2389404
23	0xbf0dd67f	-0.5540542
24	0x3e06a988	0.13150609
25	0x3d1292d9	0.035784576
26	0xbd869f3a	-0.06573339
27	0xbed34bd6	-0.41268796
28	0x3e7381ac	0.23779935
29	0xbe47c524	-0.19508797
30	0xbdbf4cb3	-0.09340801
31	0x3b985f39	0.0046500233
32	0xbd6a6bad	-0.057231594
33	0x3f26a0bd	0.6508902
34	0x3e4271f1	0.18988778
35	0xbf03a4ba	-0.5142323
36	0xbe56ea68	-0.20987856
37	0xbdaf5171	-0.085604556
38	0x3d955fae	0.0729364
39	0xbf1f8f17	-0.6232771
40	0x3e32bcbf	0.17454813
41	0x3ec5ffaf	0.38671634
42	0xbe5b5ee1	-0.21422912
43	0xbd9264b6	-0.07148115
44	0x3e066f2e	0.13128349
45	0xbeb9f257	-0.36317703
46	0xbe0431f6	-0.12909684
47	0xbe499c05	-0.19688423
48	0xbe2ee7b2	-0.17080572
49	0xbdb8c63d	-0.09022186
50	0xbe8478b8	-0.2587335
51	0x3df9ff1c	0.122068614
52	0x3f0d30cf	0.551526
53	0xbe0c71d4	-0.13715297
54	0xbeaafc19	-0.3339546
55	0x3de2e67f	0.1107912
56	0xbeabf8c5	-0.33588234
57	0x3d810a74	0.06300822
58	0xbdfe8fdd	-0.124297835
59	0x3f006c5a	0.5016533
60	0xbe833c6b	-0.25632033
61	0xbee0e5ec	-0.43925416
62	0xbd3d9136	-0.046281062
63	0xbe14267e	-0.14467809
64	0x3e326ab7	0.17423521
65	0xbe728de8	-0.23686945
66	0xbeaa2555	-0.33231607
67	0x3debb9b0	0.115100265
68	0xbe7c5ced	-0.24644823
69	0xbdfed5a9	-0.12443096
70	0x3f2babbb	0.67058915
71	0x3e59816d	0.21240778
72	0xbef1fc16	-0.4726264
73	0x3dc7516b	0.09732326
74	0x3f068c50	0.5255785
75	0x3e0c3a47	0.13694106
76	0xbeaecbd5	-0.34139886
77	0xbe3d1512	-0.18465069
78	0xbb7071a9	-0.003668884
79	0x3e75e557	0.24013267
80	0x3f403dc6	0.7509426
81	0xbe03c65d	-0.12868638
82	0xbe111609	-0.14168562
83	0x3e177ad7	0.14792953
84	0x3daf3e55	0.08556811
85	0x3b168aaa	0.0022970834
86	0xbe048915	-0.12942918
87	0x3ea19715	0.3156058
88	0xbe18893f	-0.14896105
89	0x3e964e73	0.29356727
90	0xbed3adca	-0.41343528
91	0x3e524d43	0.20537286
92	0xbe7841ba	-0.24243823
93	0x3e800af7	0.25008366
94	0xbefb7648	-0.4911368
95	0x3e896fa0	0.26842976
96	0x3d82a38e	0.06378852
97	0xbd9bd9ce	-0.07609902
98	0x3e04573f	0.12923907
99	0xbe712df2	-0.23552683
100	0x3c2989ad	0.010347766
101	0xbce9e984	-0.028553732
102	0xbe4690e3	-0.19391207
103	0x3e8bd2bf	0.27309224
104	0xbdf4f8a1	-0.11961485
105	0xbe77df2b	-0.24206226
106	0xbe8e4803	-0.27789316
107	0xbcda3a99	-0.02663927
108	0x3d022122	0.03176988
109	0xbdb66034	-0.08905068
110	0xbe670761	-0.22561409
111	0x3d1ab004	0.037765518
112	0x3e4ef3d7	0.20210205
113	0x3cb634b2	0.022241924
114	0xbe854826	-0.26031607
115	0xbf1ec7c1	-0.6202355
116	0xbe6d770c	-0.23189944
117	0x3f2e18e9	0.6800676
118	0x3f250c09	0.6447149
119	0x3d65807d	0.05603074
120	0x3ec19ed4	0.3781649
121	0xbe101b1c	-0.14072841
122	0xbe466652	-0.1937497
123	0xbe442d6b	-0.1915795
124	0xbf2bb2f2	-0.67069924
125	0xbdfaefa6	-0.122527406
126	0xbe2796d6	-0.16366133
127	0x3f42c07a	0.76074946
128	0x3b7d1775	0.0038618718
129	0xbd769e6a	-0.06020967
130	0x3e2de9a4	0.16983658
131	0x3ecca177	0.39966938
132	0xbe579c3c	-0.21055692
133	0xbde409f2	-0.111347094
134	0x3c36fc3d	0.011168537
135	0xbed50d91	-0.41611913
136	0xbdd2cf4e	-0.102934465
137	0x3e22f7be	0.15914819
138	0x3eb18498	0.34671474
139	0xbf27353c	-0.65315604
140	0x3d66274d	0.056189824
141	0xbe461bbf	-0.19346522
142	0x3e7d9bb1	0.24766423
143	0x3ddaf41f	0.10691094
144	0xbeea2b4e	-0.45736164
145	0xbe92671c	-0.2859429
146	0x3e9fba48	0.3119681
147	0x3f1b7a84	0.6073382
148	0xbc616a7f	-0.013758301
149	0xbd74a461	-0.059727076
150	0xbe4ed28f	-0.20197509
151	0xbd533d49	-0.051572118
152	0x3e954209	0.29151943
153	0x3b8c91de	0.0042898497
154	0x3d8c33b7	0.06845801
155	0x3eebd1c6	0.46058482
156	0xbe897511	-0.26847127
157	0x3e666b44	0.22501856
158	0xbe2e22ba	-0.17005435
159	0x3e58eb15	0.21183427
160	0xbea38859	-0.31939963
161	0x3e5ca2e9	0.2154652
162	0x3eafb3cb	0.3431686
163	0x3cbca7eb	0.023029288
164	0xbe3d2eb8	-0.18474853
165	0xbeaa3208	-0.33241296
166	0x3efdbb49	0.4955695
167	0xbdb9d23c	-0.09073302
168	0xbdbe24a2	-0.09284331
169	0x3d2a1861	0.041527156
170	0xbe363c04	-0.17796332
171	0xbdc5ed53	-0.096644066
172	0x3e164854	0.14676028
173	0xbe02ade5	-0.12761648
174	0x3f0e5cc7	0.55610317
175	0xbe2a3019	-0.1661991
176	0x3dc52a6b	0.09627231
177	0x3e52f0c5	0.20599659
178	0xbd8fd85a	-0.07023688
179	0xbe3d4481	-0.18483163
180	0xbf52d270	-0.8235235
181	0x3da66345	0.08124403
182	0xbe007876	-0.12545952
183	0x3f65385d	0.8953913
184	0x3f1a7417	0.6033339
185	0x3ea34cee	0.3189463
186	0x3d7321c3	0.05935837
187	0x3f78f215	0.9724439
188	0xbed336e3	-0.41252813
189	0x3ecee52e	0.40409225
190	0x3f739c8f	0.95160764
191	0x3ec2106c	0.37903154
192	0x3ef50918	0.478585
193	0xbf9eb9e0	-1.2400475
194	0xbf14550f	-0.5794229
195	0xbdd68683	-0.10474875
196	0x3f58bb98	0.84661245
197	0xbf80502c	-1.0024467
198	0x3ec2cc11	0.38046315
199	0xbed6498f	-0.41852996
200	0xbea789cb	-0.32722315
201	0xbf1a233b	-0.6021001
202	0x3f45d60f	0.7727975
203	0xbf23bfd0	-0.6396456
204	0x3eb8c844	0.3609029
205	0x3f081cbd	0.5316885
206	0xbec8da97	-0.3922927
207	0x3f508c2d	0.8146389
208	0x3d3a40b4	0.045471862
209	0xbda4cc2a	-0.08046754
210	0x3ee3455b	0.44388852
211	0x3faeabd6	1.364619
212	0x3eb851ed	0.36000004
213	0x3d8e28aa	0.0694135
214	0xbe741d29	-0.23839249
215	0xbe646811	-0.22305323
216	0xbd435934	-0.047692493
217	0x3dfd2e50	0.12362349
218	0x3ecd39f1	0.40083268
219	0x3edb03d3	0.42776355
220	0xbe62c2e6	-0.2214466
221	0xbd89bd8c	-0.06725606
222	0xbeb387c4	-0.35064518
223	0x3d9eb617	0.07749575
224	0x3eb1d676	0.34733933
225	0x3ef575ee	0.47941536
226	0xbf1a797c	-0.6034162
227	0xbe30129d	-0.171946
228	0xbebb739e	-0.36611646
229	0x3f2ad625	0.6673301
230	0xbf00c9a3	-0.50307673
231	0x3fabc759	1.3420211
232	0xbed9b636	-0.42521828
233	0x3ee203e2	0.44143587
234	0x3efd4a58	0.49470782
235	0xbe31feb3	-0.17382316
236	0xbe8d8383	-0.27639398
237	0xbe5a61e7	-0.2132641
238	0xbec8ff74	-0.39257395
239	0xc019385d	-2.3940651
240	0x3e9dd247	0.3082449
241	0x3dbb1668	0.09135133
242	0x3f06482d	0.5245388
243	0xbf42d81e	-0.7611102
244	0x3f523ba9	0.82122284
245	0xbf40a96d	-0.75258523
246	0x3e52c810	0.2058413
247	0x3e0cdcb2	0.13756064
248	0x3dbc4548	0.09192902
249	0x3f1fd6fb	0.6243741
250	0xbe0fb1c1	-0.14032651
251	0x3ee43c77	0.4457738
252	0x3f4cbff1	0.7998038
253	0xbe6e43bf	-0.2326803
254	0xbe000a8c	-0.12504023
255	0x3e89f5ff	0.26945493

bias f4 [37]
0	0xbc95752f	-0.018244354
1	0xbc994d19	-0.01871352
2	0xbd84c55b	-0.06482955
3	0x3ae2ae91	0.0017294456
4	0xbdc1eb00	-0.09468651
5	0x3a2a7dc4	0.0006503726
6	0xbdadda0f	-0.08488857
7	0x3da219a6	0.07915048
8	0xbe0993c5	-0.13435276
9	0x394f284a	0.00019756067
10	0x3d4e49f5	0.0503635
11	0xbd6886a0	-0.056769013
12	0x3c895e9f	0.016768752
13	0x3e2d6c09	0.16935743
14	0x3dabe8dd	0.083940245
15	0xbdd8737c	-0.10568902
16	0xbda63018	-0.08114642
17	0x3e480f70	0.19537139
18	0xbdac6318	-0.08417338
19	0xbd295403	-0.041339885
20	0xbd6c044c	-0.057621285
21	0xbb9998d4	-0.004687408
22	0x3e296bfa	0.16545096
23	0xbd8a86e8	-0.067640126
24	0x3bb1be50	0.0054242983
25	0xbe247356	-0.16059622
26	0x3d56ff1a	0.052489378
27	0xbe811904	-0.25214398
28	0xbcd217e4	-0.025646158
29	0xbe2d9fa4	-0.1695543
30	0xbe3180e0	-0.17334318
31	0xbdf0dee9	-0.11761267
32	0xbcf734bc	-0.030176513
33	0xbdd7980a	-0.10527046
34	0xbe0ae2de	-0.13563105
35	0xbe2b82b5	-0.1674908
36	0xbd8fe735	-0.07026521
