locales/cy_GB/lstm_model-cy_GB.pth (torch, 306407 bytes, 7 tensors)

weight f4 [34, 8]
-6.7145514 -6.0581965 -1.6277634 -5.756579 -1.2872968 -0.5814284 -9.019881 -2.316128
-2.2578723 -1.9889692 2.5609603 -0.57404387 0.0960439 0.32135537 -0.78156596 -0.75835365
-0.78680015 -1.4624008 -0.9490734 -1.2664826 -0.04459998 0.43024015 -2.2041955 2.6730328
-2.7859497 0.95303893 1.1915499 1.6014729 1.0563378 2.184007 0.39308873 -1.0995469
-1.7358665 0.41383773 -4.067749 -0.24950926 0.8597718 1.6524328 -0.060817756 -1.3394997
-2.026846 -0.96599895 -1.0856177 -0.22804414 -1.5861045 2.269248 3.6533904 -0.6556861
-0.5935183 3.1443865 -0.62292445 -0.6028953 -0.72145766 -0.23937032 2.2973425 -1.1025335
-0.15934272 0.65339077 1.6300709 -1.1609044 3.3282526 1.9708306 0.10805811 -0.53002846
0.23664697 1.4614086 -2.4067774 1.9160542 2.0088756 -1.5449394 -0.7285032 -0.42495382
1.8696665 -1.4659307 -2.0857522 -0.189873 0.20782194 0.7384713 1.844256 0.6785765
-0.9290814 0.7987487 -1.1063219 -1.9475625 0.991387 -1.3362623 0.8369904 -0.46929035
-0.14368969 -0.44259173 0.7036467 0.8403898 0.08955333 1.9096397 -1.9238107 0.43403447
0.3732379 0.7274173 -0.5598725 0.97283995 0.34518796 -0.4083583 -1.1745454 -0.8073706
0.5330924 3.4258456 -1.3428544 -0.0672574 0.6606544 -0.16411258 -1.6186507 -2.6811244
2.672293 2.3677382 -0.33301353 -0.3946011 -1.6178037 -0.30153704 -0.5577492 -2.1252186
0.3964647 0.9385331 -1.9825855 -0.5885379 0.04809285 1.2318642 -1.8152897 -0.1477398
1.8621786 -1.3615758 0.7472077 -0.32039168 -0.20950043 0.10060313 -0.26714605 -2.2054458
0.91285455 0.64251924 2.013993 2.0090675 0.27719235 -0.9160995 -1.9019566 1.9522679
1.4264189 -0.35569412 -0.4585248 -0.3245609 -0.14257386 1.1585578 1.2922215 -2.9806833
-0.29225817 1.2707808 0.10392485 -2.2706516 -2.0152378 -0.5752258 0.07059568 0.436586
-0.17601855 1.3294253 0.01505171 -2.3997335 -1.7408257 -0.4888386 -0.5279344 0.7499484
1.2737917 2.0034394 1.3355892 -1.2656946 1.305401 -1.5271789 -1.3836999 -1.690935
-1.2384733 -1.6517655 0.1841006 0.3661604 -0.58306396 -1.6551615 1.7177289 -2.4364424
-1.6200348 -2.3371177 1.772346 -0.0017654309 -0.5077079 0.69375265 1.5383992 -1.9318731
-0.46530846 -0.78184915 -0.86935234 2.601447 -0.9202645 -0.024015388 0.6256483 -0.15312119
-0.5215746 -0.62390393 0.1449356 2.207731 -1.072886 -1.168135 0.5359968 0.39545515
-0.33151725 -1.7689323 2.398164 0.19956161 1.382345 -0.81977427 1.4549371 1.382573
-0.19860706 -0.65904903 -0.3025787 0.78937876 0.8227539 1.2878784 1.3359455 2.7851942
-0.7581107 -0.8573935 -1.0538448 1.5751363 0.8898315 0.69669235 1.5291148 2.163233
-0.33449522 -0.4178131 -0.4263911 0.8480554 -0.37253755 1.0892129 0.83572996 2.4117928
0.34958044 0.07256708 -0.7628053 1.1875135 0.2694476 1.4902239 0.9682001 3.3355632
-0.3280392 0.46634164 -0.8633872 0.4205088 0.8370178 0.76708996 0.49465388 2.919983
00000000: 9bdd d6c0 bfdc c1c0 8d5a d0bf e535 b8c0
00000010: 24c6 a4bf 7ed8 14bf 6f51 10c1 713b 14c0
00000020: fb80 10c0 8b96 febf c6e6 2340 8af4 12bf
00000030: aab2 c43d b188 a43e b514 48bf 7723 42bf
00000040: bc6b 49bf f32f bbbf 79f6 72bf 1a1c a2bf
00000050: 78ae 36bd 7048 dc3e 8a11 0dc0 f812 2b40
00000060: 004d 32c0 5cfa 733f b584 983f 10fd cc3f
00000070: 1436 873f c5c6 0b40 ed42 c93e f4bd 8cbf
00000080: e030 debf 8ae2 d33e 002b 82c0 5b7f 7fbe
00000090: 011a 5c3f eb82 d33f 0a1c 79bd ba74 abbf
000000a0: d8b7 01c0 b54b 77bf 85f5 8abf 6784 69be
000000b0: 7905 cbbf 5c3b 1140 26d1 6940 0bdb 27bf
000000c0: d1f0 17bf a13d 4940 fa77 1fbf 5957 1abf
000000d0: 73b1 38bf 7e1d 75be a907 1340 d11f 8dbf
000000e0: bd2a 23be 9e44 273f 2aa6 d03f 8498 94bf
000000f0: 1702 5540 2d44 fc3f 924d dd3d f2af 07bf
00000100: 9553 723e 700f bb3f a408 1ac0 4441 f53f
00000110: 6b91 0040 93c0 c5bf 307f 3abf 8c93 d9be
00000120: 3b51 ef3f 9ea3 bbbf f77c 05c0 116e 42be
00000130: 46cf 543e 750c 3d3f 9510 ec3f 31b7 2d3f
00000140: 47d8 6dbf cb7a 4c3f f59b 8dbf ba49 f9bf
00000150: 8acb 7d3f a50a abbf 0145 563f d346 f0be
00000160: 6423 13be 629b e2be 3122 343f c923 573f
00000170: bc67 b73d 136f f43f 6e3f f6bf c439 de3e
00000180: 0a19 bf3e 0538 3a3f ce53 0fbf 0a0c 793f
00000190: 7abc b03e 5714 d1be 8157 96bf d7af 4ebf
000001a0: be78 083f 0e41 5b40 a7e2 abbf 3fbe 89bd
000001b0: a620 293f 210d 28be f22f cfbf 8b97 2bc0
000001c0: d906 2b40 0689 1740 c080 aabe 2809 cabe
000001d0: 3114 cfbf 1063 9abe a7c8 0ebf 9503 08c0
000001e0: 6cfd ca3e b543 703f 5dc5 fdbf 6baa 16bf
000001f0: 02fd 443d baad 9d3f 6a5b e8bf 1a49 17be
00000200: de5b ee3f 1e48 aebf 0149 3f3f 610a a4be
00000210: 4887 56be 0409 ce3d 5ec7 88be 0626 0dc0
00000220: d6b0 693f 247c 243f 43e5 0040 9094 0040
00000230: 28ec 8d3e 7f85 6abf 5073 f3bf eae3 f93f
00000240: e594 b63f 8a1d b6be c3c3 eabe d92c a6be
00000250: e2fe 11be 9f4b 943f 8467 a53f 84c3 3ec0
00000260: dda2 95be f2a8 a23f 8dd6 d43d 5b52 11c0
00000270: a8f9 00c0 ff41 13bf 7894 903d 3388 df3e
00000280: 353e 34be 9c2a aa3f 739b 763c 3c95 19c0
00000290: 60d3 debf 0e49 fabe b526 07bf 9efc 3f3f
000002a0: 9b0b a33f 5a38 0040 96f4 aa3f 4802 a2bf
000002b0: 6117 a73f 997a c3bf 141d b1bf 8f70 d8bf
000002c0: 4b86 9ebf 0d6d d3bf de84 3c3e 6079 bb3e
000002d0: ae43 15bf 55dc d3bf 8ade db3f acee 1bc0
000002e0: 4d5d cfbf 5693 15c0 3cdc e23f 0866 e7ba
000002f0: 25f9 01bf c699 313f 44ea c43f 9e47 f7bf
00000300: e93c eebe 4427 48bf e08d 5ebf 1c7e 2640
00000310: 7496 6bbf ebbb c4bc 7d2a 203f cdcb 1cbe
00000320: ea85 05bf 2bb8 1fbf ff69 143e 774b 0d40
00000330: 5454 89bf 7385 95bf 1637 093f 1979 ca3e
00000340: a1bc a9be 606c e2bf 857b 1940 e159 4c3e
00000350: aef0 b03f badc 51bf 613b ba3f 27f8 b03f
00000360: a65f 4bbe 70b7 28bf 98eb 9abe ba14 4a3f
00000370: 00a0 523f 33d9 a43f 4300 ab3f 9f40 3240
00000380: 8b13 42bf 247e 5bbf 63e4 86bf 119e c93f
00000390: ffcb 633f 6e5a 323f 09ba c33f 6972 0a40
000003a0: f542 abbe 99eb d5be ef4f dabe 291a 593f
000003b0: 3ebd bebe 546b 8b3f 66f2 553f d05a 1a40
000003c0: 35fc b23e 0d9e 943d 3547 43bf 7100 983f
000003d0: 09f5 893e a8bf be3f f6db 773f de79 5540
000003e0: c1f4 a7be 55c4 ee3e f206 5dbf ee4c d73e
000003f0: cc46 563f 0260 443f 4643 fd3e 00e1 3a40

weight_ih_l0 f4 [512, 8]
0.45513493 1.663911 -0.3005727 -0.9411659 -0.3964466 -0.3959582 0.7548503 0.31899524
0.37432578 -0.2519926 0.4811873 -0.681539 0.58180827 -0.34829262 -1.0568 0.91057193
1.7436388 0.16652821 -0.7649793 -1.4734828 -0.37835437 -0.27552763 -1.8695595 0.41756234
-0.11394462 -0.08818359 -1.0161699 -0.708163 -1.0889379 -1.0914599 1.270042 -0.32067674
1.3913658 -0.15132181 1.8877262 -1.0158771 1.5706403 0.17197748 0.023157954 0.09764576
-0.9510409 0.0033686003 -0.20227377 0.11053491 0.5959528 0.78534627 -0.1350563 -0.5359347
1.4565915 1.4698159 0.2746291 -1.17632 -0.28701267 -0.82328176 0.25977919 -0.60638654
-1.5471044 -0.26421994 0.43404397 -0.95335436 -0.72094065 1.0126183 0.5135019 -0.677739
0.36700228 -0.1136511 0.06556856 0.5984506 -0.17289989 0.0856225 -0.048036832 0.030356195
-0.037734047 0.16106923 -0.572406 0.9345696 -0.9476022 0.056059778 0.7947643 0.71208483
-0.040975917 -0.5196446 -0.43835557 -0.38629705 -2.8518076 0.03919398 2.426596 -0.23013136
-0.44568822 0.5453488 0.2891083 -0.6057717 -0.37943453 0.027108075 -0.0781033 0.14608543
-0.8796505 0.78782773 0.6697303 1.6246768 0.39297548 0.11572203 1.8170164 0.004607606
-0.26558036 1.4662731 -0.5924035 -0.032459825 0.35970464 0.89368105 1.0802448 -0.88247156
-0.28969815 -0.1396125 -0.15024833 0.17390393 -0.28098598 -1.3169397 1.2182034 0.53975177
-0.6384238 0.7257561 -0.17657304 0.55362785 -0.13161725 -0.2933596 -0.77459645 -0.4776891
0.48830402 -0.01284195 0.050134882 0.008308769 1.2289028 0.106643096 -0.97262806 -0.7624367
0.14062546 1.0658003 1.1036673 1.0911273 1.0470103 0.60527563 0.16440915 -0.09511807
0.4136693 0.7088428 -0.24216998 1.4934585 1.0231843 -0.0003431906 -0.24305312 -0.57982236
0.75046724 -0.4963387 -1.144208 -0.63486624 -0.5039489 0.57628244 -0.8643846 0.06127296
-0.4511515 -1.0392272 -0.18736403 0.26413977 -1.0459225 0.38925743 0.6826352 -0.42177972
0.17600988 0.15393732 -0.14209688 0.13186045 -0.04113651 0.4783362 0.8135753 -0.6344345
-0.07851643 -0.073564515 -0.6938965 -0.6369838 -1.1151335 -0.1796399 -1.1566889 -0.071270384
0.4578784 -0.36303508 0.62749213 0.47868732 0.31661832 0.46802777 1.2130076 -0.2207209
-0.84034127 0.94120014 1.1348519 1.0323322 0.10576383 0.12093393 -0.68662965 0.13378929
0.38610303 -0.59114325 0.044938873 0.5811681 -0.52118284 -0.8830103 0.8215069 0.7783703
0.40025568 0.55903035 1.6913394 0.26510093 0.8611121 -0.33116072 -0.6494287 0.6859679
1.3239473 1.7001106 -0.13960004 -0.06860582 0.14754649 0.34897685 -0.1789296 0.20614135
-0.5372229 -0.19000316 0.4379222 0.5871133 0.23322783 -0.2844563 2.1562684 -1.6303077
-0.17164072 0.45100716 -0.47578287 0.79880565 -0.25514448 -0.6848716 1.8878508 -0.36598557
-0.77232003 -0.6048436 0.5468869 0.107364535 1.517875 0.86035013 -0.3153684 -1.1083503
-0.3027287 0.15759847 -0.96117574 1.7627714 -0.04086766 0.6403126 0.09698229 -0.27597547
00000000: 7207 e93e 09fb d43f aae4 99be 40f0 70bf
00000010: 0cfb cabe 08bb cabe df3d 413f 5853 a33e
00000020: a1a7 bf3e 2d05 81be 2f5e f63e 5779 2ebf
00000030: 63f1 143f 6953 b2be 3945 87bf 3e1b 693f
00000040: 8e2f df3f 5f86 2a3e afd5 43bf 169b bcbf
00000050: aab7 c1be f511 8dbe ba4d efbf bbca d53e
00000060: cc5b e9bd 9999 b4bd db11 82bf 2c4a 35bf
00000070: 5162 8bbf f5b4 8bbf bc90 a23f be2f a4be
00000080: 4618 b23f 1bf4 1abe 03a1 f13f 4308 82bf
00000090: be0a c93f dd1a 303e c0b5 bd3c 80fa c73d
000000a0: 6b77 73bf bcc3 5c3b db20 4fbe 2060 e23d
000000b0: 5d90 183f 740c 493f 334c 0abe 0433 09bf
000000c0: 9771 ba3f ed22 bc3f 2f9c 8c3e a791 96bf
000000d0: 53f3 92be 98c2 52bf c701 853e 263c 1bbf
000000e0: 8407 c6bf d647 87be 033b de3e 080f 74bf
000000f0: 918f 38bf 7a9d 813f dc74 033f 4e80 2dbf
00000100: b9e7 bb3e e8c1 e8bd cf48 863d 0f34 193f
00000110: ab0c 31be d95a af3d 45c2 44bd 8ead f83c
00000120: 048f 1abd 55ef 243e 3389 12bf f43f 6f3f
00000130: 0f96 72bf f09e 653d ac75 4b3f 314b 363f
00000140: 5dd6 27bd 6e07 05bf 2470 e0be bac8 c5be
00000150: 0484 36c0 de89 203d 594d 1b40 8ea7 6bbe
00000160: 3f31 e4be fb9b 0b3f 0106 943e db13 1bbf
00000170: 3e45 c2be c111 de3c 9ff4 9fbd 6b97 153e
00000180: c630 61bf 14af 493f 7273 2b3f 69f5 cf3f
00000190: 1534 c93e acff ec3d fe93 e83f 67fb 963b
000001a0: 26fa 87be d6ae bb3f c1a7 17bf 98f4 04bd
000001b0: 352b b83e 48c8 643f 7645 8a3f a8e9 61bf
000001c0: 5153 94be 94f6 0ebe b3da 19be df13 323e
000001d0: 65dd 8fbe 7b91 a8bf 17ee 9b3f 2c2d 0a3f
000001e0: be6f 23bf 27cb 393f 90cf 34be 8eba 0d3f
000001f0: acc6 06be 3b33 96be f44b 46bf aa93 f4be
00000200: fc02 fa3e 0b67 52bc 3c5a 4d3d 8121 083c
00000210: b04c 9d3f b267 da3d 27fe 78bf 0d2f 43bf
00000220: 1f00 103e 256c 883f f844 8d3f 0faa 8b3f
00000230: 6f04 863f 58f3 1a3f df5a 283e 43cd c2bd
00000240: 76cc d33e b976 353f 68fb 77be a629 bf3f
00000250: b4f7 823f 43ee b3b9 ebe2 78be 3d6f 14bf
00000260: 9f1e 403f 1b20 febe 6875 92bf 9886 22bf
00000270: cc02 01bf 3f87 133f 4f48 5dbf 5bf9 7a3d
00000280: 54fd e6be 6605 85bf 5bdc 3fbe 543d 873e
00000290: cae0 85bf c04c c73e 2ec1 2e3f 83f3 d7be
000002a0: ef3b 343e bfa1 1d3e d881 11be 6d06 073e
000002b0: c27e 28bd 7be8 f43e 7946 503f 4d6a 22bf
000002c0: 39cd a0bd fea8 96bd 33a3 31bf 5f11 23bf
000002d0: b2bc 8ebf 86f3 37be 620e 94bf 35f6 91bd
000002e0: 0a6f ea3e bcdf b9be 53a3 203f 8116 f53e
000002f0: cc1b a23e 56a1 ef3e d543 9b3f a904 62be
00000300: 9b20 57bf 7ef2 703f d442 913f 7623 843f
00000310: b59a d83d 35ac f73d f6c6 2fbf 0f00 093e
00000320: 4caf c53e 2a55 17bf d311 383d 6fc7 143f
00000330: 3d6c 05bf f70c 62bf 474e 523f 4743 473f
00000340: 50ee cc3e 9d1c 0f3f cf7d d83f 4fbb 873e
00000350: d871 5c3f e68d a9be f640 26bf 989b 2f3f
00000360: 1b77 a93f 399d d93f 50f3 0ebe 3581 8cbd
00000370: 6d16 173e 18ad b23e 5239 37be b816 533e
00000380: 7187 09bf 3090 42be 5737 e03e 0f4d 163f
00000390: 47d3 6e3e 42a4 91be 4d00 0a40 ecad d0bf
000003a0: 96c2 2fbe 69ea e63e d099 f3be 877e 4c3f
000003b0: 4ca2 82be bf53 2fbf 18a5 f13f 7662 bbbe
000003c0: c4b6 45bf 08d7 1abf c800 0c3f f0e1 db3d
000003d0: ba49 c23f e83f 5c3f f877 a1be 6cde 8dbf
000003e0: 42ff 9abe 7e61 213e 9d0f 76bf 7ea2 e13f
000003f0: d964 27bd 87eb 233f a79e c63d a84c 8dbe

weight_hh_l0 f4 [512, 128]
-1.027593 -0.010616389 0.77043056 -0.053973936 -0.5226233 -0.78976965 -0.33505103 0.7093548
-1.1194437 0.52856624 -3.006324 -0.8512071 0.107465394 -0.4966689 -1.6383883 0.41640818
0.16297981 -0.38119635 0.3017906 0.37709695 0.6424158 -0.08771718 -0.47892746 -0.3042362
1.1393456 -0.11126411 1.0204518 0.23980254 1.1137292 -0.6357223 0.5369064 0.12843457
0.70886195 -0.95484596 -0.16575849 -0.041849494 0.7381428 -0.46835765 1.4861275 1.3274839
-1.3455644 -0.61016685 -1.2342848 0.34622428 -0.549657 0.28196406 1.6831821 0.026652167
1.6879348 0.34331125 1.0431186 0.2648484 -1.2506365 0.2987427 0.45528248 -0.06671585
-1.7999462 -0.8354696 -0.31787267 -0.3212019 1.4219818 -0.5616227 -0.20971413 -0.0838176
-1.3634167 0.4900837 -2.0124056 1.2214117 0.58411443 -0.75666755 0.29593277 -0.33220515
-0.48812228 0.30900237 0.85368526 0.22687662 -0.085914895 -1.9625465 0.4097485 1.1295457
1.2721915 -2.0119045 -0.39338198 1.6405497 -0.9164115 -1.34199 -0.073466055 1.048702
-0.054593474 -1.3126855 1.8821428 -2.417217 0.25572705 0.22476341 0.9222612 0.8194503
0.019008879 -0.61714756 0.3225995 0.78200513 0.2818163 0.27511883 -1.2105523 0.5037237
-0.42678195 1.1085633 -0.96681756 1.0891606 -0.7051566 -0.5296536 -0.6802905 0.9416971
0.64996785 -0.47081488 1.8336663 -0.21079104 -0.3503313 -0.80023986 -0.594067 -1.6082346
-1.4145633 -1.3374261 -0.8328503 -1.3597115 -1.0263696 -0.01108699 1.3186933 -0.1533636
0.94736344 -0.25835866 0.3402234 -0.6469821 0.2159258 0.18925348 -0.045121536 -1.5299703
-1.6346738 -0.81766135 2.2575188 -0.5679123 -0.28693008 0.53931123 -1.0742476 -0.5730472
-0.3409673 -0.36134255 0.45563745 -1.2926694 -0.20181833 0.4282073 -0.22992358 0.200569
-0.15838127 -0.20649317 0.16937834 -0.35686782 -0.7576151 1.156807 -1.4622512 0.44053662
-0.80447716 -0.51452786 0.20342013 -0.75704604 -0.5880707 1.138958 0.31378803 -0.58247083
0.38595346 -0.8528413 0.3968757 -0.42678538 -0.5978742 1.587328 -0.057828955 -0.84767514
1.5402172 -0.7312992 -1.4086342 0.75749886 0.7625309 -0.65886605 -0.18578203 -0.13840501
-0.23673639 0.6879701 0.18533628 -0.9331229 0.9638716 -0.27783266 0.97863907 -1.6979434
1.3439136 0.24277449 -1.1334898 1.7504747 -0.18144485 1.0490286 0.083996624 -0.103248335
0.0043756403 0.26320067 0.29007196 -0.29388767 -0.20626527 0.31541255 -0.037481327 -0.57213795
-0.2561257 -0.48323083 -0.005844528 1.0291237 0.6831436 1.1528668 0.122693226 -1.382256
-0.2627332 0.48864335 0.14588104 0.27468187 -0.67791295 -0.70210034 -0.5826938 -0.5050205
-0.4345501 -0.6214882 0.09535128 -0.029716853 0.09411911 1.7653109 -0.5677476 -1.2474567
-0.5898173 -0.45883736 1.52334 0.7433693 -0.6839054 -0.46657112 0.27081716 0.7726924
1.3984945 0.8839414 -0.5806027 0.55231255 -0.099481575 -0.9125581 0.17291975 -0.25991338
0.38026118 -0.6423145 0.31510422 0.27243656 0.4164608 -0.03600941 -0.8533253 -0.80401725
00000000: 2b88 83bf 5df0 2dbc f03a 453f c613 5dbd
00000010: a4ca 05bf 582e 4abf cf8b abbe 4798 353f
00000020: ee49 8fbf 1e50 073f 9d67 40c0 b5e8 59bf
00000030: d116 dc3d 634b febe b5b6 d1bf 7433 d53e
00000040: 2ee4 263e 2b2c c3be 4c84 9a3e da12 c13e
00000050: 5d75 243f 11a5 b3bd fb35 f5be d9c4 9bbe
00000060: 14d6 913f 70de e3bd 2a9e 823f cc8e 753e
00000070: ae8e 8e3f b2be 22bf b372 093f 5a84 033e
00000080: fa77 353f c970 74bf 98bc 29be 606a 2bbd
00000090: edf6 3c3f 93cc efbe 6d39 be3f feea a93f
000000a0: 743b acbf e533 1cbf 0bfd 9dbf 4f44 b13e
000000b0: 52b6 0cbf 985d 903e 8372 d73f a555 da3c
000000c0: 3f0e d83f 7ec6 af3e e984 853f 369a 873e
000000d0: db14 a0bf cef4 983e c91a e93e 52a2 88bd
000000e0: a364 e6bf 56e1 55bf 35c0 a2be 9374 a4be
000000f0: 8003 b63f 81c6 0fbf 4dbf 56be 90a8 abbd
00000100: 7084 aebf 40ec fa3e 41cb 00c0 3857 9c3f
00000110: 8688 153f f7b4 41bf 8084 973e cb16 aabe
00000120: 2aeb f9be 8f35 9e3e 1e8b 5a3f 5852 683e
00000130: 26f4 afbd b934 fbbf 8eca d13e f494 903f
00000140: 2cd7 a23f 0bc3 00c0 5d69 c9be 88fd d13f
00000150: f299 6abf 54c6 abbf 5f75 96bd de3b 863f
00000160: 689d 5fbd 1406 a8bf 0eea f03f afb3 1ac0
00000170: a8ee 823e 6128 663e 4f19 6c3f 7fc7 513f
00000180: 82b8 9b3c 62fd 1dbf c32b a53e 7d31 483f
00000190: 3a4a 903e 60dc 8c3e 61f3 9abf 09f4 003f
000001a0: 2a83 dabe 67e5 8d3f 5b81 77bf 9d69 8b3f
000001b0: 2585 34bf 6197 07bf 8527 2ebf 1013 713f
000001c0: 4b64 263f a60e f1be 94b5 ea3f 9bd9 57be
000001d0: a05e b3be 85dc 4cbf c614 18bf a2da cdbf
000001e0: 6910 b5bf c730 abbf ad35 55bf 070b aebf
000001f0: 1460 83bf 35a6 35bc f1ca a83f 590b 1dbe
00000200: 6986 723f 9647 84be c331 ae3e 9ea0 25bf
00000210: a71b 5d3e aacb 413e 5cd1 38bd 11d6 c3bf
00000220: fe3c d1bf 4152 51bf 307b 1040 b362 11bf
00000230: 80e8 92be 4d10 0a3f f280 89bf 39b3 12bf
00000240: 4493 aebe e401 b9be 5049 e93e 3176 a5bf
00000250: 77a9 4ebe fd3d db3e 1671 6bbe f661 4d3e
00000260: b32e 22be f272 53be 8471 2d3e 61b7 b6be
00000270: 10f3 41bf 4012 943f 0c2b bbbf 048e e13e
00000280: 37f2 4dbf 19b8 03bf 5e4d 503e c5cd 41bf
00000290: cd8b 16bf 60c9 913f d3a8 a03e cf1c 15bf
000002a0: b19b c53e cf53 5abf 4b33 cb3e 9d83 dabe
000002b0: 490e 19bf 902d cb3f 0ede 6cbd 3d01 59bf
000002c0: d625 c53f 6d36 3bbf 204e b4bf 72eb 413f
000002d0: 3a35 433f 72ab 28bf a53d 3ebe 0bba 0dbe
000002e0: 066b 72be cf1e 303f cbc8 3d3e 24e1 6ebf
000002f0: 4ac0 763f 1540 8ebe 1788 7a3f 3656 d9bf
00000300: 5c05 ac3f e099 783e 3216 91bf 8e0f e03f
00000310: aecc 39be 9246 863f 6c06 ac3d dd73 d3bd
00000320: 8861 8f3b 3dc2 863e 5084 943e 7278 96be
00000330: 3437 53be c17d a13e 0586 19bd a277 12bf
00000340: e822 83be 086a f7be 7483 bfbb 53ba 833f
00000350: 80e2 2e3f 2491 933f 9646 fb3d c4ed b0bf
00000360: f784 86be 762f fa3e d761 153e 1aa3 8c3e
00000370: b48b 2dbf d9bc 33bf 6c2b 15bf 0649 01bf
00000380: 5a7d debe da19 1fbf 8847 c33d c270 f3bc
00000390: 85c1 c03d b5f5 e13f e857 11bf a9ac 9fbf
000003a0: 44fe 16bf bbec eabe cefc c23f 734d 3e3f
000003b0: 6d14 2fbf 69e2 eebe 8ca8 8a3e 2bcf 453f
000003c0: de01 b33f fc49 623f 61a2 14bf 5b64 0d3f
000003d0: ffbc cbbd 689d 69bf e011 313e 5e13 85be
000003e0: 98b1 c23e b96e 24bf 5755 a13e ce7c 8b3e
000003f0: 5a3a d53e 9a7e 13bd 8773 5abf 13d4 4dbf

bias_ih_l0 f4 [512]
-0.20817359 0.27471262 -0.4489438 0.113994434 -0.42088318 0.29882935 -0.6120184 0.6765734
0.3739553 0.13131742 0.36748517 -0.038808256 -0.9445876 -0.12948303 0.52297777 0.77968055
0.16324994 -0.1956772 0.28101525 -0.477426 -0.30449536 -0.23117541 0.16866237 0.0095909815
-0.060935266 -0.1931196 -0.34472114 0.107245095 -0.37199724 0.39057449 0.6556044 -0.91119605
0.50234616 -0.8029962 -0.4533646 0.3173688 0.047891054 0.41513774 -0.18612422 -0.22612825
-0.036492415 -0.17324434 -0.35465005 0.35719255 -0.17543928 -0.6598073 -0.21580946 -0.47880378
-0.50975305 0.012116576 0.7115906 -1.0484774 0.3634026 -0.22361454 1.1650674 -0.82070786
0.32602715 0.11257963 0.2141238 -0.3880723 -0.073377505 -0.35181835 -0.62357 0.13663542
-0.5889472 0.46027434 -0.45760396 -0.42425722 0.14769831 0.20544298 -0.09301306 -0.1391528
-0.09714204 -0.22900727 0.21850505 0.23468687 0.7274387 0.19734745 -0.4433831 -0.3771272
0.85077393 -0.32373565 -0.51353586 -0.477402 -0.2548167 0.035313856 -0.63346785 0.64408463
-0.21639124 -0.24255446 0.32927662 0.17591003 0.09475026 0.25285232 -0.671694 -0.03518998
0.4564872 -0.6125384 -0.22011687 -0.10860565 -0.39907268 -0.099497825 -0.30612132 -0.5117142
0.048101205 0.059270356 0.10559213 -1.167605 -0.49690002 -0.022652945 0.417006 0.055192288
-0.6399317 -0.11322705 0.17785886 0.11839475 -0.69663674 0.23212169 -0.15340547 -0.5642275
-0.28884855 0.620832 -0.5335715 -0.6100992 0.104555 0.16568623 -0.7499677 -0.36317864
0.26396388 -0.50454384 -0.94212043 -0.19475079 -0.5961136 0.9486652 -1.0782294 -0.99854267
0.48745018 -0.31621107 -0.40472743 -0.7192523 -0.92533964 -0.03075938 -0.756186 0.84672236
-0.22688918 -0.7428279 0.09927667 -0.29589576 -0.55518085 0.026006758 0.27700695 -0.27174035
-0.4307472 -0.058981277 -0.55370545 -0.50898194 -0.6692373 -0.7342836 -0.6910692 -0.5293915
-0.02287025 -0.36018944 -0.009428001 -0.2217308 -0.4437944 0.11848432 -0.16771035 -0.6443602
-0.60045135 -1.1832042 -0.06420402 -0.46058333 -0.6116879 -0.18017691 -0.3217832 -0.31825855
-0.6119048 0.01934053 -0.4959796 -0.27711064 -0.73554814 -0.44407973 0.24355744 0.10424774
-0.76576805 0.8414349 -0.16899715 -0.6718854 -0.14769712 -0.3071684 -0.3754043 -0.3108922
-0.5279333 -0.65629107 -0.30973393 -0.32832372 -0.502918 -0.85671186 -0.4995321 -0.49473724
-0.8902153 -0.23630512 -0.32491177 -1.0441755 -0.69472605 -1.0722262 -0.7645475 -0.43993118
-0.6661039 0.021096665 -0.91470146 0.097642854 -0.32381627 0.042978268 -0.06941265 -1.0783772
-0.7331752 -0.28988177 0.01923407 -0.5721524 -0.33418941 -1.144238 -0.6790751 0.08835453
-0.68850046 -0.40938294 -0.89072174 -0.056479983 -0.3527154 -0.71887666 -0.34822977 -0.4314663
-0.34069225 -0.96268314 -0.5511708 -0.7544761 -0.21498364 -0.6677211 -0.33669573 -0.5879692
-0.37477985 0.15032807 -0.68863976 -0.5204942 -0.50979525 -0.2711302 -0.61621326 -0.26111993
-1.0630771 -0.98125505 -0.020781962 -0.843444 -0.25546014 -0.38100255 -0.9598646 -0.102981724
00000000: 752b 55be 22a7 8c3e f6db e5be ea75 e93d
00000010: 007e d7be 2900 993e 3dad 1cbf ea33 2d3f
00000020: 1277 bf3e 1378 063e 0427 bc3e 68f5 1ebd
00000030: 7ed0 71bf 3397 04be dfe1 053f 2599 473f
00000040: fe2a 273e 9b5f 48be 3be1 8f3e 2e71 f4be
00000050: d1e6 9bbe 3fb9 6cbe d4b5 2c3e 7e23 1d3c
00000060: 4297 79bd 25c1 45be 4a7f b0be 51a3 db3d
00000070: 6c76 bebe 61f9 c73e b1d5 273f 2544 69bf
00000080: c299 003f 2991 4dbf 681f e8be 2a7e a23e
00000090: 6929 443d ef8c d43e 5997 3ebe 2a8e 67be
000000a0: 1279 15bd f766 31be b194 b5be f1e1 b63e
000000b0: 5ba6 33be 22e9 28bf 28fd 5cbe c525 f5be
000000c0: 2d7f 02bf 9a84 463c cd2a 363f 8234 86bf
000000d0: e80f ba3e 36fb 64be ee20 953f e919 52bf
000000e0: 08ed a63e 2690 e63d 4543 5b3e 6ab1 c6be
000000f0: f246 96bd 8921 b4be 49a2 1fbf 28ea 0b3e
00000100: 3ec5 16bf 14a9 eb3e 114b eabe 3e38 d9be
00000110: 3a3e 173e a55f 523e a27d bebd 127e 0ebe
00000120: 68f2 c6bd e280 6abe cabf 5f3e c151 703e
00000130: 6c39 3a3f 7315 4a3e 1c03 e3be d116 c1be
00000140: 52cc 593f aec0 a5be 1677 03bf 096e f4be
00000150: 5677 82be 43a5 103d f32a 22bf bbe2 243f
00000160: aa95 5dbe 3260 78be f296 a83e c221 343e
00000170: 6d0c c23d dc75 813e 23f4 2bbf 5e23 10bd
00000180: b1b8 e93e 51cf 1cbf 5166 61be a46c debd
00000190: 4153 ccbe 84c5 cbbd efbb 9cbe b4ff 02bf
000001a0: c505 453d 79c5 723d b040 d83d 1574 95bf
000001b0: ae69 febe ab92 b9bc cf81 d53e 4f11 623d
000001c0: 90d2 23bf 95e3 e7bd a220 363e f278 f23d
000001d0: c956 32bf 4fb1 6d3e 5316 1dbe 3771 10bf
000001e0: f5e3 93be d9ee 1e3f 2498 08bf 762f 1cbf
000001f0: ef20 d63d a7a9 293e e2fd 3fbf 8df2 b9be
00000200: 4626 873e c929 01bf ce2e 71bf c06c 47be
00000210: e79a 18bf b9db 723f 6c03 8abf 7ea0 7fbf
00000220: 1293 f93e 6be6 a1be 6f38 cfbe eb20 38bf
00000230: 0fe3 6cbf 18fb fbbc 6895 41bf ccc2 583f
00000240: a355 68be f829 3ebf 9151 cb3d a67f 97be
00000250: 5520 0ebf 200c d53c dbd3 8d3e 8d21 8bbe
00000260: e68a dcbe 5a96 71bd a4bf 0dbf a44c 02bf
00000270: 2353 2bbf 03fa 3bbf e9e9 30bf 3486 07bf
00000280: 645a bbbc c06a b8be e777 1abc 660d 63be
00000290: 0539 e3be e8a7 f23d 43bc 2bbe caf4 24bf
000002a0: 2eb7 19bf 3c73 97bf 667d 83bd 94d1 ebbe
000002b0: 9497 1cbf 4c80 38be c5c0 a4be c9f2 a2be
000002c0: cba5 1cbf 0870 9e3c 0af1 fdbe 72e1 8dbe
000002d0: e24c 3cbf 6b5e e3be 1f67 793e d77f d53d
000002e0: 6009 44bf 4768 573f 970d 2dbe ae00 2cbf
000002f0: ea3d 17be 2d45 9dbe fe34 c0be 432d 9fbe
00000300: a326 07bf b102 28bf 7295 9ebe 0c1a a8be
00000310: 3cbf 00bf 7851 5bbf acc2 ffbe 334e fdbe
00000320: 26e5 63bf f8f9 71be d65a a6be 8ba7 85bf
00000330: 91d9 31bf b53e 89bf 63b9 43bf a93e e1be
00000340: c985 2abf ead2 ac3c e029 6abf faf8 c73d
00000350: 3fcb a5be fb09 303d 3828 8ebd 4408 8abf
00000360: 5fb1 3bbf 626b 94be c590 9d3c 9478 12bf
00000370: e01a abbe 6476 92bf ded7 2dbf 38f3 b43d
00000380: 9141 30bf a49a d1be 5706 64bf 8e57 67bd
00000390: 1d97 b4be 4d08 38bf 2c4b b2be 27e9 dcbe
000003a0: 376f aebe 6772 76bf 8819 0dbf 5825 41bf
000003b0: ac24 5cbe c5ef 2abf 6263 acbe 2685 16bf
000003c0: 25e3 bfbe 9aef 193e b24a 30bf 1c3f 05bf
000003d0: f181 02bf 94d1 8abe 27c0 1dbf 83b1 85be
000003e0: e912 88bf 8833 7bbf ef3e aabc f2eb 57bf
000003f0: accb 82be c412 c3be b0b9 75bf 15e8 d2bd

bias_hh_l0 f4 [512]
-0.3590425 0.37383288 -0.4546337 -0.010597298 -0.3814296 0.38532287 -0.5898375 0.63157785
0.36308587 0.07157042 0.2955172 0.020286093 -0.93750286 -0.03358016 0.4272189 0.8077571
0.1875912 -0.34582475 0.27816692 -0.47707742 -0.25778052 -0.21020693 0.1767563 -0.018241316
0.027707696 -0.084994815 -0.34712946 0.109431036 -0.4282611 0.48455134 0.71428114 -0.77080065
0.5736924 -0.67277116 -0.5850034 0.29641348 0.12961607 0.34427974 -0.20392843 -0.26878735
-0.13024986 -0.19360302 -0.47653678 0.2515623 -0.09446053 -0.6708996 -0.32746866 -0.63450104
-0.54219115 0.01665297 0.5922691 -0.9288899 0.2210713 -0.22987103 1.190562 -0.79233557
0.20551924 0.060326517 0.26411003 -0.3536778 -0.008778761 -0.45224407 -0.6283745 0.1603007
-0.50717133 0.5223966 -0.47135732 -0.46612608 0.12962766 0.09400532 -0.17489411 -0.102458365
-0.1451617 -0.12833013 0.091116376 0.3402165 0.66687644 0.3045321 -0.40341592 -0.51265293
0.867954 -0.25510892 -0.41516557 -0.53361267 -0.19541472 -0.00077063224 -0.5765889 0.60003716
-0.2039029 -0.24605472 0.36916858 0.25951526 0.2588719 0.16508727 -0.77828413 -0.024361262
0.40962714 -0.56568307 -0.35540584 -0.03723441 -0.40287957 -0.05554346 -0.3976377 -0.4697144
0.020297902 -0.006092072 0.11507677 -1.2252389 -0.4540217 -0.060688578 0.37179145 -0.0012582513
-0.7487006 -0.08098214 0.1482032 0.11477624 -0.71461993 0.2685671 -0.15903755 -0.65050703
-0.325542 0.7212135 -0.5695635 -0.70552576 0.094130106 0.15983729 -0.638973 -0.34992936
0.15977158 -0.39388508 -0.91055477 -0.33596885 -0.57423466 0.93572336 -0.961313 -1.0614498
0.5290908 -0.29044428 -0.362475 -0.75493854 -0.94014853 -0.007092319 -0.801144 0.72569597
-0.1339747 -0.7719308 -0.04817664 -0.42626363 -0.42120805 0.01467616 0.416173 -0.41387272
-0.42513213 0.016801393 -0.6853725 -0.50820583 -0.5437152 -0.6629955 -0.6685714 -0.5166757
-0.14614299 -0.22611816 0.06455215 -0.33132735 -0.54430896 0.21468563 -0.060165625 -0.6259339
-0.57953346 -1.0790834 0.0043191956 -0.59572625 -0.756986 -0.28881785 -0.33116958 -0.34807542
-0.55692333 0.09895578 -0.40100065 -0.24689837 -0.6501095 -0.46874663 0.38661477 0.14192712
-0.8170763 0.83908254 -0.1232815 -0.51647085 -0.1688498 -0.3201234 -0.3263849 -0.3168629
-0.48902312 -0.5829749 -0.38355732 -0.27316454 -0.5742913 -0.89927745 -0.37224236 -0.57916296
-0.8693241 -0.19880651 -0.2156603 -1.046821 -0.7286573 -0.9792788 -0.72120327 -0.48153374
-0.66837174 0.00042093406 -0.82809186 0.11401837 -0.22927125 0.053747337 -0.040958688 -1.0830319
-0.7175792 -0.29311788 0.08606942 -0.6104406 -0.31416404 -1.158463 -0.6341177 0.054272436
-0.6643804 -0.34930623 -0.9006546 -0.0035014872 -0.45487973 -0.7260795 -0.31723362 -0.41044858
-0.42341784 -0.9482942 -0.51355183 -0.73325515 -0.19121026 -0.7074662 -0.30295765 -0.49432704
-0.37692025 0.16551721 -0.58291507 -0.47077575 -0.5313353 -0.30979407 -0.6963677 -0.12811327
-1.0020254 -0.88811815 -0.09862577 -0.76283324 -0.32773155 -0.5504666 -0.8290602 -0.14844273
00000000: 6bd4 b7be 0667 bf3e c0c5 e8be 4aa0 2dbc
00000010: be4a c3be 0a49 c53e 97ff 16bf 16af 213f
00000020: 64e6 b93e 8393 923d 084e 973e 052f a63c
00000030: 3000 70bf 5a8b 09bd 70bc da3e 2bc9 4e3f
00000040: e817 403e f10f b1be e56b 8e3e 7e43 f4be
00000050: cffb 83be 7c40 57be 9aff 343e d06e 95bc
00000060: 40fb e23c c311 aebd f4ba b1be 611d e03d
00000070: 0a45 dbbe 1d17 f83e 21db 363f 3153 45bf
00000080: 81dd 123f bb3a 2cbf c8c2 15bf 82c3 973e
00000090: 13ba 043e 6f45 b03e 9dd2 50be 7f9e 89be
000000a0: 3860 05be df3f 46be a1fc f3be c6cc 803e
000000b0: 8674 c1bd 14c0 2bbf f9a9 a7be a96e 22bf
000000c0: 0acd 0abf cf6b 883c f39e 173f bacb 6dbf
000000d0: 8460 623e 5063 6bbe 5664 983f 81d6 4abf
000000e0: a373 523e f018 773d 6e39 873e 4215 b5be
000000f0: cbd4 0fbc 898c e7be 27dd 20bf de25 243e
00000100: fbd5 01bf c9bb 053f bf55 f1be 14a8 eebe
00000110: 1dbd 043e dc85 c03d 7117 33be b1d5 d1bd
00000120: 45a5 14be f968 03be 399b ba3d db30 ae3e
00000130: 6ab8 2a3f a2eb 9b3e 888c cebe 393d 03bf
00000140: 3c32 5e3f a39d 82be 9590 d4be d79a 08bf
00000150: cc1a 48be 4104 4aba 559b 13bf 099c 193f
00000160: eccb 50be c5f5 7bbe aa03 bd3e 2fdf 843e
00000170: dc8a 843e a30c 293e a13d 47bf 4591 c7bc
00000180: a6ba d13e 9bd0 10bf c1f7 b5be 1c83 18bd
00000190: 3b46 cebe 8a81 63bd 2b97 cbbe 687e f0be
000001a0: c947 a63c 01a0 c7bb 5fad eb3d a1d4 9cbf
000001b0: 8875 e8be 9694 78bd 735b be3e e8eb a4ba
000001c0: d8aa 3fbf f7d9 a5bd 94c2 173e ce0f eb3d
000001d0: 55f1 36bf a081 893e bdda 22be a187 26bf
000001e0: 71ad a6be 73a1 383f eace 11bf 569d 34bf
000001f0: 49c7 c03d 63ac 233e bc93 23bf f129 b3be
00000200: 299b 233e 4eab c9be 1e1a 69bf 1c04 acbe
00000210: 0b01 13bf 918b 6f3f 9c18 76bf 96dd 87bf
00000220: 7f72 073f 1db5 94be 5396 b9be a743 41bf
00000230: 93ad 70bf af66 e8bb c617 4dbf 36c7 393f
00000240: aa30 09be 429d 45bf de54 45bd 3a3f dabe
00000250: 95a8 d7be 4774 703c a114 d53e 20e7 d3be
00000260: ebaa d9be 13a3 893c 9274 2fbf c719 02bf
00000270: eb30 0bbf 13ba 29bf 7f27 2bbf dc44 04bf
00000280: 82a6 15be 858b 67be eb33 843d bda3 a9be
00000290: d557 0bbf 8dd6 5b3e 3b70 76bd 343d 20bf
000002a0: 4e5c 14bf 681f 8abf 0a88 8d3b 8481 18bf
000002b0: d6c9 41bf efdf 93be 0f8f a9be f136 b2be
000002c0: 8792 0ebf 54a9 ca3d f54f cdbe edd2 7cbe
000002d0: 946d 26bf 8fff efbe 5ff2 c53e 5855 113e
000002e0: ea2b 51bf 1dce 563f 037b fcbd 6f37 04bf
000002f0: f6e6 2cbe 37e7 a3be ec1b a7be db3b a2be
00000300: 3d61 fabe d83d 15bf a061 c4be 39dc 8bbe
00000310: c104 13bf 0c37 66bf 8d96 bebe 0644 14bf
00000320: 068c 5ebf ef93 4bbe 0ed6 5cbe 3bfe 85bf
00000330: 4989 3abf 04b2 7abf c7a0 38bf 978b f6be
00000340: 691a 2bbf d0b0 dc39 d4fd 53bf 7782 e93d
00000350: 15c6 6abe 2b26 5c3d 4cc4 27bd caa0 8abf
00000360: 45b3 37bf 8c13 96be 2a45 b03d d645 1cbf
00000370: 1cda a0be 8448 94bf 8a55 22bf c64c 5e3d
00000380: d514 2abf 44d8 b2be 4d91 66bf 3579 65bb
00000390: ffe5 e8be 59e0 39bf 726c a2be 5126 d2be
000003a0: 39ca d8be 69c3 72bf 2278 03bf 9cb6 3bbf
000003b0: 9fcc 43be 811c 35bf 441d 9bbe 6f18 fdbe
000003c0: b1fb c0be 587d 293e ec39 15bf 8509 f1be
000003d0: 9705 08bf 549d 9ebe 2745 32bf 2030 03be
000003e0: 5e42 80bf b65b 63bf 4ffc c9bd 0a49 43bf
000003f0: 6ecc a7be 61eb 0cbf 4a3d 54bf 5f01 18be

weight f4 [34, 128]
0.008640135 -0.20526595 -1.1218102 0.040422417 0.45509604 -0.9768585 -0.4093138 0.15707411
-0.11405442 -0.13009511 -0.2363626 0.38485417 -0.6135365 -0.008334066 -0.35074934 0.39546645
-0.5188798 0.34521922 0.22775923 1.216106 0.82695764 0.39570612 0.5441957 -0.9179076
-0.2684332 -0.23226531 0.21300869 -0.35027647 1.2464747 -0.012801602 -0.73070186 0.66134125
0.66832453 -0.71059585 -0.19917978 0.23217924 -0.061665826 0.9773547 -0.93889886 0.16983409
-0.31635618 1.2585976 0.057410464 0.38169014 0.06895149 0.35958108 0.64582425 -0.19378394
-0.21293905 0.27900892 0.9011038 -0.41673198 1.3663687 0.5734526 0.33250976 -0.5247968
-0.23163216 0.21136278 -0.4794978 0.13920997 1.0018103 -1.0142325 1.1864437 0.14986524
0.03643961 0.78761595 -1.0408604 0.43735704 -0.22115506 0.29533872 0.5299455 0.13536423
0.4389437 0.69556725 -0.0018457852 -0.15890968 0.0873543 0.75527966 0.18509041 0.58604443
-0.15114969 -0.045698926 0.36561236 -1.8057395 -0.36915118 -0.23696683 -0.016174247 0.5746687
0.692598 -0.51304877 0.5866207 -0.8222632 -0.09312702 -0.046112414 0.060903423 -0.60319626
0.2560463 -0.3262147 0.18780233 0.72958964 -0.05490517 -0.65471023 0.2506317 0.19746147
0.39402097 -0.68003803 -0.15922974 -0.4427993 0.47265324 0.44085965 -0.13187586 -0.46640238
-1.251285 -0.6534928 -0.58424866 0.034158636 -0.4122641 0.1286147 -1.1383588 0.038053446
-0.19286186 0.9320414 0.26947197 -0.43621382 -0.6196095 -0.00042090882 0.2136522 -0.78830475
-1.9734087 0.8103484 -0.8342128 -1.3901923 0.8026233 2.3513994 0.41177806 0.82942104
1.6805303 0.2322925 -0.2536276 1.2052041 0.23424006 -0.17696759 2.1630068 -5.7184663
1.0245398 0.58160466 -1.6795584 0.99521196 1.149334 -0.15178207 -1.1478767 0.37005362
0.31273475 -1.1965157 -0.7027382 -0.16757524 -0.5618633 3.8082657 0.57423955 0.05668711
-0.31815004 0.48433867 -1.0351114 0.7841738 0.5597652 -1.040385 -0.23131831 -0.5801499
-0.23768452 0.2414969 -0.33102116 1.2018652 -0.4802367 0.9574052 -0.61698186 -0.12319691
-0.22930573 -2.011515 -1.4337198 0.11948685 -0.085850686 1.5761094 6.611643 -0.028804215
-0.6270311 -5.237121 2.8587193 -2.3093193 -0.19721138 -1.188797 0.30385983 1.4130621
1.0023165 -1.0200539 1.189531 2.131712 -1.8796207 0.5872896 -0.47861075 0.52511233
0.25288025 -3.0497649 0.7989149 0.16284527 0.17948872 -0.6048614 -0.1590459 -0.032188885
-1.4537245 0.23210885 -1.5121367 -0.18838441 1.0235999 0.10357052 3.2921555 0.31041017
0.38584945 0.7843333 0.17971025 -0.3708636 0.9348783 -1.1027625 -0.73428947 1.8839774
0.40201297 4.2155004 2.2731385 1.5486573 -1.0348508 0.9845712 -0.50427663 -0.60138625
-0.22572185 1.2933306 -0.87239885 1.8346666 -1.7325491 0.34214017 0.3587088 -0.913852
-0.95866346 0.12574893 -0.2758699 0.27055377 -0.60650784 -1.4906797 -0.40643892 0.52530575
0.521322 -0.7411248 2.2117536 0.72489494 1.0686929 0.5187839 0.5658248 -1.5197194
00000000: 5a8f 0d3c 3d31 52be 7a97 8fbf fa91 253d
00000010: 5902 e93e 6613 7abf 9491 d1be 09d8 203e
00000020: 5d95 e9bd a737 05be 0a09 72be 9b0b c53e
00000030: ba10 1dbf 9b8b 08bc 6b95 b3be 947a ca3e
00000040: 4ed5 04bf 93c0 b03e b739 693e 5da9 9b3f
00000050: 7fb3 533f fe99 ca3e 6950 0b3f fefb 6abf
00000060: 1470 89be f5d6 6dbe f31e 5a3e 7057 b3be
00000070: 7c8c 9f3f cfbd 51bc 470f 3bbf a94d 293f
00000080: 5117 2b3f 9ce9 35bf c9f5 4bbe 65c0 6d3e
00000090: 4e95 7cbd eb33 7a3f ad5b 70bf fde8 2d3e
000000a0: 70f9 a1be ba19 a13f 3c27 6b3d e46c c33e
000000b0: 7036 8d3d 031b b83e bd54 253f 4c6f 46be
000000c0: b20c 5abe 42da 8e3e bdae 663f e55d d5be
000000d0: 2be5 ae3f cacd 123f b83e aa3e 1559 06bf
000000e0: fb30 6dbe 7c6f 583e bc80 f5be 0f8d 0e3e
000000f0: 523b 803f 5fd2 81bf 63dd 973f 4676 193e
00000100: b341 153d 33a1 493f ea3a 85bf 43ed df3e
00000110: 7976 62be a336 973e 82aa 073f ec9c 0a3e
00000120: 3bbd e03e b210 323f 46ee f1ba 38b9 22be
00000130: d0e6 b23d 025a 413f 5788 3d3e 0207 163f
00000140: fcc6 1abe cc2e 3bbd 8b31 bb3e 7922 e7bf
00000150: 6201 bdbe 6fa7 72be db7f 84bc 7d1d 133f
00000160: 1a4e 313f 2a57 03bf c62c 163f d77f 52bf
00000170: 61b9 bebd 5fe0 3cbd de75 793d 126b 1abf
00000180: 8018 833e 9d05 a7be 414f 403e 63c6 3a3f
00000190: 3ee4 60bd 179b 27bf cc52 803e 5733 4a3e
000001a0: 1ebd c93e f916 2ebf 1f0d 23be 97b6 e2be
000001b0: 9bff f13e 5bb8 e13e 770a 07be 4bcc eebe
000001c0: 1b2a a0bf 4e4b 27bf 5291 15bf ede9 0b3d
000001d0: 4814 d3be 92b3 033e beb5 91bf eedd 1b3d
000001e0: 947d 45be 449a 6e3f 3bf8 893e 6b57 dfbe
000001f0: ba9e 1ebf 6dad dcb9 a4c7 5a3e 57ce 49bf
00000200: a898 fcbf fe72 4f3f f88e 55bf d2f1 b1bf
00000210: b878 4d3f 547d 1640 93d4 d23e f054 543f
00000220: 9e1b d73f 16de 6d3e 7adb 81be 2144 9a3f
00000230: a0dc 6f3e fe36 35be b46e 0a40 adfd b6c0
00000240: 1f24 833f 0be4 143f c5fb d6bf 36c6 7e3f
00000250: 601d 933f c26c 1bbe a0ed 92bf ab77 bd3e
00000260: c51e a03e 6d27 99bf a7e6 33bf d898 2bbe
00000270: 46d6 0fbf a0ba 7340 5d01 133f be30 683d
00000280: 90e4 a2be 3dfb f73e 887e 84bf 9dbf 483f
00000290: c64c 0f3f 562b 85bf b5de 6cbe b484 14bf
000002a0: 9263 73be f74a 773e 9b7b a9be b8d6 993f
000002b0: 96e1 f5be 8218 753f 86f2 1dbf a94e fcbd
000002c0: 1fcf 6abe a9bc 00c0 2184 b7bf 86b5 f43d
000002d0: 7cd2 afbd f4bd c93f 9492 d340 d1f6 ebbc
000002e0: 1c85 20bf 7f96 a7c0 42f5 3640 e3cb 13c0
000002f0: c8f1 49be 802a 98bf 8493 9b3e 38df b43f
00000300: e84b 803f 2091 82bf 8d42 983f f86d 0840
00000310: 6997 f0bf 9c58 163f 780c f5be c36d 063f
00000320: 8579 813e 592f 43c0 b085 4c3f e9c0 263e
00000330: e4cb 373e 32d8 1abf eedc 22be 7ed8 03bd
00000340: a513 babf f1ad 6d3e b28d c1bf d8e7 40be
00000350: 5205 833f c81c d43d adb2 5240 15ee 9e3e
00000360: 0f8e c53e 11ca 483f f705 383e d5e1 bdbe
00000370: 2f54 6f3f 5227 8dbf 65fa 3bbf 2c26 f13f
00000380: a5d4 cd3e 61e5 8640 1a7b 1140 673a c63f
00000390: fe75 84bf dc0c 7c3f 4618 01bf 73f4 19bf
000003a0: a123 67be db8b a53f 8855 5fbf 5bd6 ea3f
000003b0: 2bc4 ddbf ff2c af3e aea8 b73e 34f2 69bf
000003c0: f86a 75bf 54c4 003e d23e 8dbe 0686 8a3e
000003d0: 1944 1bbf 98ce bebf c318 d0be 707a 063f
000003e0: 5c75 053f 5bba 3dbf 5f8d 0d40 b792 393f
000003f0: eeca 883f 06cf 043f e5d9 103f 2a86 c2bf

bias f4 [34]
0.03205768 -1.1260859 -1.6093569 0.4034048 0.07906975 -0.16495876 0.07093141 0.70708585
0.08665228 -0.12646091 -0.6849638 0.5584358 -1.0293505 -1.5680686 0.0986201 -0.27875036
-0.21301532 0.38301703 -0.6941747 -1.5338469 0.46351913 -0.025630854 0.39742664 0.05682547
-0.81230736 1.0334091 -0.022290543 -1.0855836 -0.9395741 -1.2121779 -1.2902347 -1.2777083
-0.99592423 -1.5999979
00000000: ea4e 033d 9523 90bf 68ff cdbf 138b ce3e
00000010: 52ef a13d f3ea 28be 7d44 913d 9403 353f
00000020: c076 b13d f87e 01be ca59 2fbf a6f5 0e3f
00000030: c2c1 83bf 79b6 c8bf 56f9 c93d 5eb8 8ebe
00000040: b020 5abe cf1a c43e 6fb5 31bf 1855 c4bf
00000050: 6152 ed3e ccf7 d1bc 817b cb3e d3c1 683d
00000060: 60f3 4fbf c046 843f a89a b6bc 67f4 8abf
00000070: ee87 70bf a528 9bbf 6926 a5bf f28b a3bf
00000080: e4f4 7ebf bbcc ccbf
