locales/en-GB/lstm_model-en-GB.pth (torch, 13671 bytes, 7 tensors)

weight f4 [27, 13]
0.09843162 2.1188664 -3.1478393 1.035332 1.1187379 -3.0329702 -0.3583354 -2.7962444
-2.1705608 3.5146294 3.029804 4.5130525 -0.4241237 -2.0301392 0.58654386 0.07204916
-1.3749087 1.4348073 1.6632369 0.08186884 -0.32686138 -0.8878339 -3.593193 2.2391436
1.4185171 0.043188017 -3.1649714 1.2506183 1.0534426 -1.7804905 -0.013782091 -1.358159
-0.11526406 -1.305588 -0.49158484 0.82175964 -2.2385387 -0.49839005 0.81719685 0.5824608
2.8296757 0.08905624 0.01854488 0.26460433 -2.7149813 -2.6307156 1.5741265 1.0232432
0.8878754 0.3196473 0.2449708 -0.23938423 0.87364036 -3.0939636 -0.23661634 -1.4702392
0.9357855 0.14794056 -0.786424 2.0734189 -0.19182959 0.63938 -0.079409674 2.4386933
-0.5712843 -1.8800408 0.8919219 -0.25180465 0.8079067 -0.5631498 1.7962692 -1.1402266
-0.14659478 0.85257953 0.9972154 0.89099693 0.5542784 -1.2213371 -1.4433186 0.95165825
2.132696 -1.7739643 0.07254265 -1.1009983 -0.6950997 -0.9700348 -1.8311591 0.45270666
0.36737108 0.33364323 1.1645364 -0.54904824 0.1110402 0.73263854 0.6939616 0.22903444
-1.0474594 1.4024146 1.0177987 0.36585993 1.1305842 1.4087414 -1.3481036 -0.26971418
-0.42111155 -1.5276445 2.7024302 0.16334617 0.3470362 -1.1815335 -1.4662299 -0.46023676
-0.9204724 -0.9618975 0.7437205 1.5380106 1.0895914 0.90559095 1.9202594 -0.57900697
-0.65126824 2.1483645 1.4023557 0.7539126 0.331461 1.4016104 0.114720955 -0.32113847
2.0268762 2.4393072 -0.34103987 -0.4932656 0.24707687 0.19047919 0.796728 -0.8563075
1.0742311 -0.56520104 -0.043246735 1.4438254 -0.5430705 -1.2971698 1.7004689 0.5387626
-0.5180957 1.5118252 -1.5899659 1.7110738 -0.3971477 1.830093 1.6462557 -0.63142246
2.2083862 0.47372487 0.95113665 -0.8261818 -0.2592376 -1.1867923 0.56807137 -1.4936948
-0.5320619 -0.058965065 -0.6627335 0.50237703 -0.3209348 0.51415557 0.15844873 -1.6631229
0.41758734 0.46217582 -0.8191679 1.0333092 0.27086806 -0.8378728 -1.2041928 0.41842636
-1.8287128 1.9664894 -2.4962804 -0.0029765416 -0.73547214 -0.2431801 0.16665466 0.5958127
0.77790374 0.7450323 -0.12762147 -0.27949342 -2.012211 1.5104318 -0.023062723 0.8814558
1.1640723 -0.312339 2.8667386 -0.087349735 -0.3655471 1.5301104 0.7713577 -1.9366026
1.6135149 1.9595858 -0.6682312 1.3661492 0.54020655 1.8596247 1.9287157 0.3973299
0.3538855 1.5588156 2.979758 1.1076243 -1.316129 -1.6019251 -1.4473315 -1.4347736
-0.29900882 0.29076564 0.8166548 0.9615114 -2.198761 2.787392 2.436846 0.6126296
-1.5044206 2.712309 -2.4110537 -5.6502695 -1.8739494 -1.7499945 2.167028 -7.3315167
0.8486343 -5.8411856 1.965817 -1.6585264 0.1366925 -2.0201628 -0.46377 0.93930835
-1.7997481 -1.4345652 0.41716716 0.55813235 1.2414693 -0.75114185 0.63141316 2.065266
0.85156983 0.63924575 1.5523475 1.9590893 0.23903655 -0.18192364 0.95759463 -1.3454937
00000000: 8496 c93d 829b 0740 3376 49c0 c285 843f
00000010: ce32 8f3f 2f1c 42c0 bd77 b7be abf5 32c0
00000020: 78ea 0ac0 b0ef 6040 4fe8 4140 ed6a 9040
00000030: be26 d9be cded 01c0 bd27 163f 838e 933d
00000040: 02fd afbf c4a7 b73f f2e4 d43f daaa a73d
00000050: 605a a7be 1549 63bf e0f6 65c0 214e 0f40
00000060: f891 b53f ebe5 303d e48e 4ac0 4314 a03f
00000070: 35d7 863f 1de7 e3bf 48ce 61bc 27d8 adbf
00000080: 900f ecbd 821d a7bf 02b1 fbbe d75e 523f
00000090: 3844 0fc0 fb2c ffbe d033 513f 271c 153f
000000a0: 6819 3540 1e63 b63d 6feb 973c 387a 873e
000000b0: 41c2 2dc0 a55d 28c0 fa7c c93f a2f9 823f
000000c0: cd4b 633f d0a8 a33e a0d9 7a3e 2421 75be
000000d0: e5a6 5f3f 8003 46c0 8e4b 72be cc30 bcbf
000000e0: a38f 6f3f bb7d 173e 1553 49bf e5b2 0440
000000f0: fa6e 44be 68ae 233f 8aa1 a2bd 8d13 1c40
00000100: b03f 12bf 2da5 f0bf fe54 643f 8aec 80be
00000110: f9d2 4e3f 962a 10bf 26ec e53f f2f2 91bf
00000120: f11c 16be a742 5a3f 8249 7f3f 6018 643f
00000130: 30e5 0d3f c654 9cbf aabe b8bf e09f 733f
00000140: 177e 0840 4311 e3bf 3e91 943d 83ed 8cbf
00000150: 0ef2 31bf 3354 78bf 6c63 eabf 2bc9 e73e
00000160: 1018 bc3e 49d3 aa3e 870f 953f 6d8e 0cbf
00000170: 0b69 e33d 338e 3b3f 78a7 313f 0188 6a3e
00000180: 2613 86bf 5282 b33f 3a47 823f fe51 bb3e
00000190: fcb6 903f a351 b43f a98e acbf fa17 8abe
000001a0: ef9b d7be db89 c3bf 9ef4 2c40 3844 273e
000001b0: bbae b13e 7d3c 97bf 6cad bbbf 27a4 ebbe
000001c0: 14a4 6bbf ea3e 76bf 7764 3e3f 88dd c43f
000001d0: bb77 8b3f cfd4 673f 0fcb f53f cd39 14bf
000001e0: 84b9 26bf ce7e 0940 6480 b33f 6b00 413f
000001f0: 42b5 a93e f867 b33f d2f2 ea3d 436c a4be
00000200: 57b8 0140 9c1d 1c40 c79c aebe 4f8d fcbe
00000210: b801 7d3e fa0c 433e 5ef6 4b3f f836 5bbf
00000220: 6880 893f 04b1 10bf 7d23 31bd 45cf b83f
00000230: ab06 0bbf a909 a6bf f7a8 d93f 59ec 093f
00000240: eba1 04bf 7d83 c13f 0184 cbbf 7704 db3f
00000250: f156 cbbe 7d40 ea3f 82b8 d23f e7a4 21bf
00000260: 3356 0d40 118c f23e b17d 733f a780 53bf
00000270: caba 84be cfe8 97bf 206d 113f 6431 bfbf
00000280: 3535 08bf 5a85 71bd e7a8 29bf c89b 003f
00000290: 9151 a4be b39f 033f 6240 223e 36e1 d4bf
000002a0: 02ce d53e 4fa2 ec3e fdb4 51bf 7a43 843f
000002b0: 38af 8a3e d57e 56bf fd22 9abf fb3b d63e
000002c0: 4313 eabf edb5 fb3f 0fc3 1fc0 1512 43bb
000002d0: e747 3cbf 3404 79be 85a7 2a3e 2e87 183f
000002e0: b324 473f 70ba 3e3f 34af 02be c319 8fbe
000002f0: 11c8 00c0 d455 c13f 09ee bcbc 16a7 613f
00000300: 5200 953f e6ea 9fbe a578 3740 6be4 b2bd
00000310: fd28 bbbe a8da c33f b377 453f 98e2 f7bf
00000320: a887 ce3f b5d3 fa3f 3311 2bbf fadd ae3f
00000330: fa4a 0a3f 2f08 ee3f 28e0 f63f d36e cb3e
00000340: 7b30 b53e 4587 c73f 5bb4 3e40 a2c6 8d3f
00000350: ea76 a8bf e20b cdbf 2942 b9bf a9a6 b7bf
00000360: af17 99be 3cdf 943e 4a10 513f 9c25 763f
00000370: 80b8 0cc0 a164 3240 49f5 1b40 4bd5 1c3f
00000380: db90 c0bf 7896 2d40 b44e 1ac0 02cf b4c0
00000390: 93dd efbf d2ff dfbf 96b0 0a40 c99b eac0
000003a0: 1940 593f feea bac0 e49f fb3f 984a d4bf
000003b0: 1ef9 0b3e 594a 01c0 4373 edbe 8376 703f
000003c0: 255e e6bf d59f b7bf ef96 d53e c3e1 0e3f
000003d0: 77e8 9e3f d54a 40bf 4ba4 213f 512d 0440
000003e0: 7b00 5a3f 9ca5 233f 53b3 c63f 70c3 fa3f
000003f0: ffc5 743e 314a 3abe ec24 753f 2339 acbf

weight_ih_l0 f4 [52, 13]
-0.21393755 0.56085205 -0.27697077 -0.26201043 0.8796502 -1.0027176 -0.027338788 0.486361
0.009146796 -0.22517937 -0.0709431 -0.33695266 0.54340374 -0.64730823 0.7996325 -0.66863793
-0.29276672 0.65096104 -0.5233449 0.8501924 -0.13478994 0.1651733 0.6693997 0.13288376
0.45233357 -0.41163927 -0.99472857 -1.0106033 -0.88424647 -0.4358531 0.81467354 0.7927739
0.4503446 -1.2194715 -0.18320026 0.94239676 1.1815864 0.41424853 -0.45111206 0.82685035
0.007695333 -0.87121713 -0.4193433 -0.05974561 -0.423996 -0.2942066 -0.45248052 0.27984196
1.7576033 -0.24076389 -0.16493368 -0.19762254 1.4696789 1.7359993 -0.6743514 -0.99279565
0.04809867 0.12597068 -0.9600626 -0.38269016 -0.15351644 -0.75781614 -0.17768347 0.73478085
-0.95787454 -0.35667053 1.0180577 1.6991413 -0.71633035 0.026636312 0.08458124 0.9468008
-0.7646379 -0.3950002 -0.10847765 0.38776818 -0.33270594 0.04603129 0.25627893 0.5364772
-1.0680281 -0.028833412 0.68062294 -0.22792278 -0.74753934 -0.13498741 0.38767812 0.09931529
0.3338912 0.14304134 0.42614138 0.72815853 0.45069033 0.50301623 -0.20171782 0.025688937
-0.7365512 -0.48425123 -0.1280971 -0.54420733 0.82643193 -0.80342513 0.199902 -1.2762362
0.63651055 -0.843439 -0.07857727 -0.5948545 1.4778266 -0.98206484 0.7957148 0.92152816
1.3507212 -0.78304386 -0.022453507 1.5794806 -0.42552355 -0.35753778 -0.72076535 -0.37275127
-2.3893347 -1.0560291 -1.1448911 -0.17431521 -0.287952 0.0067571644 0.699322 -0.06516084
0.96958435 -0.76195824 -0.113161884 0.096737266 -0.19870198 0.15525606 0.33957404 -0.40804747
0.23070054 -0.44389623 0.14639689 -0.13186584 -0.19130912 0.44133866 -0.049073294 0.23211522
0.2465541 0.96360224 -0.7015162 0.7992606 -0.4307665 -1.6411362 -0.6543252 -0.5720036
1.046926 0.5188032 0.15329334 -0.0057973145 0.2936301 1.4539007 -0.9798021 -0.47985736
-0.22896497 -1.354197 -0.25362617 -0.5323654 -0.6131631 -0.46875829 -0.70491266 0.069284245
-0.42428216 -0.17142831 -0.29169762 -0.5531682 -0.10900171 -0.33994076 -0.40139398 0.53621507
0.38935018 -0.20294976 -1.0043703 -0.5265664 -0.15323278 0.011178462 0.5195129 0.38941494
-1.1021837 0.021545831 0.33976588 -0.75627184 -0.033040583 0.29484144 -0.10299045 0.3572142
0.47809902 0.27624178 -0.47885054 1.2385591 -0.83441496 -1.2043359 0.7553364 0.054035366
0.7297387 0.4959768 -0.88164693 0.3106797 -0.18800004 0.10125627 0.99304646 0.2552631
0.5638971 -0.30773625 -0.5188822 -0.6465886 -0.22123186 0.6763798 -0.8372599 0.65353304
1.7974746 -0.79781073 0.7079697 -0.122217 -0.21573709 0.94950026 1.0609331 1.0052392
-0.75307083 0.33962306 -0.5421554 0.40353084 0.4432398 0.8632107 -0.042606153 0.5472493
0.28476262 0.4882445 0.49334246 0.62507623 -1.2114692 0.66996336 0.073061384 0.42037064
0.9340286 -0.22555308 1.0624242 0.49397036 0.18095456 0.42338476 -1.2208778 0.21127003
-0.4075779 0.45564425 -0.27559263 0.0623686 -0.45612776 -0.59180987 1.233375 -0.3817778
00000000: 7212 5bbe 0094 0f3f 1dcf 8dbe 3b26 86be
00000010: c130 613f 0d59 80bf 98f5 dfbc 4f04 f93e
00000020: 71dc 153c 6c95 66be 9e4a 91bd 0f85 acbe
00000030: 821c 0b3f feb5 25bf b7b4 4c3f db2b 2bbf
00000040: 85e5 95be 62a5 263f eef9 05bf 36a6 593f
00000050: 6006 0abe 3123 293e c75d 2b3f ae12 083e
00000060: 4498 e73e 62c2 d2be 88a6 7ebf 735b 81bf
00000070: fa5d 62bf 2328 dfbe 728e 503f 3bf3 4a3f
00000080: 9193 e63e a417 9cbf d998 3bbe ea40 713f
00000090: 393e 973f 6218 d43e 29f8 e6be 77ac 533f
000000a0: 2229 fc3b 1608 5fbf 2ab4 d6be d0b7 74bd
000000b0: 0116 d9be 3fa2 96be 87ab e7be 7247 8f3e
000000c0: 25f9 e03f cf8a 76be 60e4 28be 905d 4abe
000000d0: 701e bc3f 3a35 de3f 4ba2 2cbf db27 7ebf
000000e0: 1c03 453d 75fe 003e aac6 75bf f7ef c3be
000000f0: 6a33 1dbe 3d00 42bf a8f2 35be 991a 3c3f
00000100: 4437 75bf 859d b6be b74f 823f 767d d93f
00000110: 6d61 37bf 6534 da3c ee38 ad3d 8a61 723f
00000120: 4fbf 43bf 773d cabe 8829 debd 8d89 c63e
00000130: 6f58 aabe 4e8b 3c3d fe36 833e 9256 093f
00000140: 25b5 88bf 0c34 ecbc 4e3d 2e3f 9764 69be
00000150: bd5e 3fbf 243a 0abe bf7d c63e d165 cb3d
00000160: caf3 aa3e 6e79 123e 342f da3e 9968 3a3f
00000170: e2c0 e63e acc5 003f 1e8f 4ebe 9b71 d23c
00000180: 9f8e 3cbf c7ef f7be e32b 03be 2c51 0bbf
00000190: 0b91 533f 45ad 4dbf 1cb3 4c3e b55b a3bf
000001a0: 5bf2 223f 9eeb 57bf 1fed a0bd 6248 18bf
000001b0: 6c29 bd3f 9a68 7bbf f7b3 4b3f 45e9 6b3f
000001c0: 6fe4 ac3f 9075 48bf 6bf0 b7bc 6c2c ca3f
000001d0: 39de d9be 310f b7be 1484 38bf 41d9 bebe
000001e0: dcea 18c0 f62b 87bf cb8b 92bf b07f 32be
000001f0: 726e 93be 346b dd3b c406 333f 0c73 85bd
00000200: ae36 783f b20f 43bf 6bc1 e7bd 301e c63d
00000210: 8878 4bbe 72fb 1e3e a6dc ad3e 99eb d0be
00000220: c33c 6c3e 5e46 e3be 11e9 153e d707 07be
00000230: 8ae6 43be 24f7 e13e 1401 49bd 9daf 6d3e
00000240: ae78 7c3e a3ae 763f 9196 33bf 589c 4c3f
00000250: 6d8d dcbe c010 d2bf db81 27bf d46e 12bf
00000260: ac01 863f 49d0 043f eef8 1c3e 66f7 bdbb
00000270: af56 963e 6b19 ba3f 4fd4 7abf ddaf f5be
00000280: cb75 6abe 5456 adbf 4adb 81be 1949 08bf
00000290: 42f8 1cbf 1601 f0be 2875 34bf e6e4 8d3d
000002a0: 833b d9be e78a 2fbe 6459 95be 6e9c 0dbf
000002b0: 4a3c dfbd b70c aebe 8383 cdbe 6445 093f
000002c0: e858 c73e 10d2 4fbe 358f 80bf 0ecd 06bf
000002d0: 0ee9 1cbe de25 373c ccfe 043f 6561 c73e
000002e0: 5b14 8dbf e280 b03c cbf5 ad3e 089b 41bf
000002f0: 9055 07bd 75f5 963e a8ec d2bd c8e4 b63e
00000300: 65c9 f43e 906f 8d3e e62b f5be 1b89 9e3f
00000310: 389c 55bf ae27 9abf ba5d 413f 3054 5d3d
00000320: 28d0 3a3f acf0 fd3e 9db3 61bf 6911 9f3e
00000330: 1583 40be 735f cf3d 4b38 7e3f d8b1 823e
00000340: 8f5b 103f 9b8f 9dbe 77d5 04bf d586 25bf
00000350: 9b8a 62be 3a27 2d3f aa56 56bf f14d 273f
00000360: a613 e63f 533d 4cbf 813d 353f e84c fabd
00000370: 2fea 5cbe 7312 733f a8cc 873f aeab 803f
00000380: 40c9 40bf 13e3 ad3e b2ca 0abf 989b ce3e
00000390: 54f0 e23e 60fb 5c3f ca83 2ebd 8818 0c3f
000003a0: 68cc 913e 2ffb f93e 6297 fc3e ff04 203f
000003b0: 6c11 9bbf b882 2b3f 35a1 953d d23a d73e
000003c0: 801c 6f3f 63f7 66be 84fd 873f afe9 fc3e
000003d0: 274c 393e e3c5 d83e b945 9cbf 2c57 583e
000003e0: 0dae d0be 344a e93e 7a1a 8dbe 3876 7f3d
000003f0: 9489 e9be da80 17bf 3bdf 9d3f 6178 c3be

weight_hh_l0 f4 [52, 13]
0.4935661 -1.0306152 -0.663663 -0.85168326 -0.6473019 1.5051869 0.26028895 0.67919576
-0.32081312 0.08445156 0.5672579 0.9969578 -0.03287108 1.5805135 1.2333188 -0.3811928
-0.7715589 -0.51731986 0.9137842 1.0153761 -1.5854424 0.35737088 -0.16417244 -0.4570047
0.20081073 -2.0670586 -3.1369581 0.38446748 -1.1620219 -2.028101 -0.95782727 -0.40001842
-3.0472827 -4.196727 0.20949398 3.6772249 -1.8042338 -1.8865178 0.23132762 0.45532015
-1.035402 0.64636743 -1.4306111 -0.64340544 0.5964418 0.7413625 -0.1884307 -0.6775032
-0.3807603 2.178978 -0.51699317 -0.6357525 -0.5787614 0.28567648 -1.4805853 0.32747927
-1.1806068 2.3094645 -0.26690924 -0.3493474 -1.1065102 0.56324536 0.3175773 -0.9222159
1.4251933 0.14175984 -0.083955705 0.30354548 -2.8168228 0.70678425 2.627242 -2.2940905
3.179793 -0.30078506 2.3471227 0.9650697 -1.1971043 -0.76579165 0.7380416 0.65913874
0.2633378 1.0387998 -0.76982373 -0.7119222 -1.641824 0.3964113 1.9138929 -0.9993739
0.6557482 -0.4251102 0.57676005 -0.08544694 -0.10508264 -1.1952686 0.20830491 0.81283015
0.834688 -0.40656015 0.070548736 1.6283145 0.70595014 1.3622801 0.24173184 -0.27169287
1.6369991 -2.3442307 0.79712653 -3.0241086 0.27031818 -1.077331 -1.934133 -0.6949333
0.22552149 0.81232 0.21228842 0.70921457 -1.5808828 0.3588039 -0.5586831 0.36507392
-1.3270863 0.27392966 2.8049598 -2.1345139 0.5372006 2.105431 -0.16227385 1.1190774
1.1686448 -0.45842925 0.84227496 -0.38670737 -0.029154332 -0.22741309 0.15096423 0.47718576
0.23845953 0.64117724 -0.78133404 0.4735081 0.5604288 -0.020287042 -0.31431502 1.0368062
0.74147904 -0.17632174 -0.19094196 -0.23311804 0.877656 1.4926927 -2.426014 -0.7599961
-0.8085133 4.446481 -0.7314993 -1.1718957 1.245102 0.22255214 -0.266849 -0.45566228
-0.050693817 -0.2318099 0.57488364 0.50544286 0.04542248 -0.54882985 1.16443 0.40922263
-0.14052685 0.35143965 -1.1073049 0.051706463 -0.21290474 0.056522574 -0.4699961 -0.026550993
-0.82800496 0.30862677 0.26746863 -1.0908338 -0.32711002 -0.76260334 0.10352662 0.8119395
-0.64319 0.9209276 -0.3227523 2.3006756 -0.009504176 0.8498171 0.1214509 -0.19358927
2.7870533 -0.19058402 1.0706139 0.79108995 0.5423832 0.006267334 1.9741745 -1.2224283
-1.6024717 -0.3690019 -0.7312167 0.6579676 -0.9979031 -1.763889 -1.5394725 -2.021537
1.6815007 0.4839509 0.6954535 -0.08127766 1.1993269 -0.20944066 0.5664835 -0.44098175
-0.6286042 -0.80245084 0.65929955 -1.4771043 -0.34430647 0.22415067 -0.14792967 1.5966508
0.7058699 -0.6804578 -1.6852913 0.8096094 -0.21493424 0.7279497 -0.17436984 1.647864
0.12737226 -0.9597896 0.9219007 -0.403431 0.88043946 0.76382583 -0.3138539 -2.3092818
0.83517855 -2.618039 0.29565376 0.36398977 1.6906868 -1.6695583 0.5715152 -1.2690021
-2.5428271 0.75691736 -1.4320803 -0.9765118 -0.24458022 -2.3412433 0.96694237 0.15369798
00000000: b2b4 fc3e 33eb 83bf d2e5 29bf ea07 5abf
00000010: 94b5 25bf f7a9 c03f 9844 853e c6df 2d3f
00000020: 9e41 a4be f1f4 ac3d d037 113f a038 7f3f
00000030: d3a3 06bd 444e ca3f 64dd 9d3f b42b c3be
00000040: e284 45bf 136f 04bf c3ed 693f d8f7 813f
00000050: c7ef cabf 51f9 b63e d21c 28be 85fc e9be
00000060: 54a1 4d3e b04a 04c0 ecc3 48c0 ecd8 c43e
00000070: 22bd 94bf 68cc 01c0 2b34 75bf 37cf ccbe
00000080: ae06 43c0 964b 86c0 9785 563e a757 6b40
00000090: 22f1 e6bf 6a79 f1bf 26e1 6c3e b91f e93e
000000a0: 0e88 84bf 5678 253f 441e b7bf 38b6 24bf
000000b0: 69b0 183f efc9 3d3f faf3 40be da70 2dbf
000000c0: 04f3 c2be 6074 0b40 aa59 04bf adc0 22bf
000000d0: b529 14bf 3044 923e d283 bdbf 5dab a73e
000000e0: 201e 97bf 44ce 1340 54a8 88be aadd b2be
000000f0: 20a2 8dbf d930 103f 7e99 a23e 5716 6cbf
00000100: bc6c b63f 7e29 113e f8f0 abbd 506a 9b3e
00000110: d346 34c0 d0ef 343f bc24 2840 61d2 12c0
00000120: ba81 4b40 8000 9abe 4237 1640 cf0e 773f
00000130: b73a 99bf ec0a 44bf 4bf0 3c3f 51bd 283f
00000140: 36d4 863e 64f7 843f 2b13 45bf 8940 36bf
00000150: 4a27 d2bf 6cf6 ca3e 71fa f43f f8d6 7fbf
00000160: 1ddf 273f 0ba8 d9be 8ca6 133f cefe aebd
00000170: 9135 d7bd 90fe 98bf e24d 553e a315 503f
00000180: 1dae 553f a728 d0be db7b 903d 9c6c d03f
00000190: 26b9 343f 325f ae3f 8d88 773e 541b 8bbe
000001a0: 3089 d13f e007 16c0 7c10 4c3f ff8a 41c0
000001b0: 2567 8a3e fbe5 89bf ac91 f7bf 26e7 31bf
000001c0: 1bef 663e 34f4 4f3f 2362 593e 168f 353f
000001d0: 5e5a cabf 25b5 b73e db05 0fbf f8ea ba3e
000001e0: f7dd a9bf 8240 8c3e 7684 3340 e09b 08c0
000001f0: fb85 093f 62bf 0640 1e2b 26be ee3d 8f3f
00000200: 2796 953f 3db7 eabe 559f 573f 82fe c5be
00000210: 11d5 eebc fade 68be 5e96 1a3e b151 f43e
00000220: bc2e 743e 3124 243f 8205 48bf a76f f23e
00000230: 4378 0f3f 0331 a6bc e6ed a0be 11b6 843f
00000240: 92d1 3d3f b08d 34be 4a86 43be 7fb6 6ebe
00000250: 10ae 603f 8e10 bf3f d043 1bc0 1b8f 42bf
00000260: bafa 4ebf 9349 8e40 8a43 3bbf ae00 96bf
00000270: 815f 9f3f b5e4 633e 6fa0 88be 914c e9be
00000280: 52a4 4fbd 935f 6dbe 932b 133f b464 013f
00000290: ec0c 3a3d 1d80 0cbf 0b0c 953f a185 d13e
000002a0: 45e6 0fbe e6ef b33e 2bbc 8dbf 28ca 533d
000002b0: b303 5abe 3784 673d 54a3 f0be 7881 d9bc
000002c0: 22f8 53bf 5404 9e3e a6f1 883e 71a0 8bbf
000002d0: f77a a7be f939 43bf c405 d43d 44db 4f3f
000002e0: 1aa8 24bf e9c1 6b3f ca3f a5be 453e 1340
000002f0: 67b7 1bbc 9d8d 593f 40bb f83d 443c 46be
00000300: 155f 3240 7528 43be e009 893f df84 4a3f
00000310: a0d9 0a3f 355e cd3b c0b1 fc3f 8878 9cbf
00000320: cb1d cdbf d1ed bcbe 0531 3bbf 9170 283f
00000330: 9476 7fbf 1dc7 e1bf 6f0d c5bf dd60 01c0
00000340: 6a3b d73f 6ac8 f73e 3e09 323f e774 a6bd
00000350: 8b83 993f 9d77 56be 1005 113f 5cc8 e1be
00000360: 34ec 20bf 6b6d 4dbf dbc7 283f c111 bdbf
00000370: f048 b0be c187 653e e07a 17be 0e5f cc3f
00000380: e4b3 343f 7b32 2ebf a0b7 d7bf 9042 4f3f
00000390: b917 5cbe e95a 3a3f 028e 32be 35ed d23f
000003a0: e06d 023e c5b4 75bf af01 6c3f 828e cebe
000003b0: 7b64 613f 178a 433f 75b1 a0be 46cb 13c0
000003c0: 43ce 553f f38d 27c0 ee5f 973e de5c ba3e
000003d0: 6d68 d83f 16b4 d5bf d24e 123f a96e a2bf
000003e0: aebd 22c0 56c5 413f 684e b7bf adfc 79bf
000003f0: 3d73 7abe eed6 15c0 8989 773f 0163 1d3e

bias_ih_l0 f4 [52]
0.16270913 -0.2278433 1.6809077 -0.033953797 0.8226076 1.2884766 1.2864782 1.0526638
1.4857711 0.63655484 -0.0033301245 0.95718277 0.9186711 0.21010536 0.3723908 0.98231626
-0.61117923 -0.5844781 -0.3606265 -0.73236245 0.09769907 0.03751491 0.13584922 0.21856447
-0.72829527 -0.13404603 0.5825285 -0.22989231 -0.41468653 -0.3123856 -0.24287763 0.61706704
0.3257999 0.33145127 0.49692488 0.79043233 0.056803685 1.0025325 -0.8149118 -0.1798238
0.98447496 1.3168606 0.24701767 1.4494578 -0.42293033 0.4755041 0.9138162 0.56239325
0.0122760795 0.80497855 0.5869159 0.5867367
00000000: 399d 263e c14f 69be fc27 d73f 2313 0bbd
00000010: 6996 523f cdec a43f 51ab a43f b0bd 863f
00000020: bf2d be3f 42f5 223f 383e 5abb ee09 753f
00000030: 072e 6b3f dc25 573e 02aa be3e 1479 7b3f
00000040: 3e76 1cbf 5ba0 15bf 09a4 b8be 1b7c 3bbf
00000050: 7316 c83d 3ca9 193d 0f1c 0b3e 5dcf 5f3e
00000060: 8f71 3abf 5d43 09be 9620 153f e468 6bbe
00000070: cb51 d4be 01f1 9fbe eab4 78be 1bf8 1d3f
00000080: 3fcf a63e fbb3 a93e f06c fe3e c659 4a3f
00000090: fbaa 683d fc52 803f 0f9e 50bf bb23 38be
000000a0: 8d06 7c3f e38e a83f 33f2 7c3e d587 b93f
000000b0: 538a d8be 4675 f33e dcef 693f 01f9 0f3f
000000c0: 9c21 493c 1313 4e3f 1f40 163f 6034 163f

bias_hh_l0 f4 [52]
0.19634034 -0.2706252 1.5416901 -0.016207116 0.8509547 1.221337 0.9513463 0.9913184
1.4064134 0.6689067 -0.3769047 1.3653802 0.9973289 0.25319788 -0.07304583 0.773312
-0.6136476 -0.56295043 -0.07805802 -0.7447602 -0.13756667 0.024977148 0.55814594 0.20781554
-1.2074653 -0.0025374726 0.5536173 -0.28292432 -0.57301414 -0.17506129 -0.20324218 0.2915561
0.4165472 0.13087915 0.40789068 0.61003196 0.08929214 0.8397498 -0.41091782 0.045335468
1.1232728 0.97942984 -0.07114641 1.3778962 -0.4488639 0.4366129 0.84708667 0.48509875
-0.19142285 1.1330322 0.46759716 0.68364584
00000000: 710d 493e 638f 8abe 1a56 c53f c9c4 84bc
00000010: 2bd8 593f c554 9c3f 6e8b 733f 0bc7 7d3f
00000020: 5b05 b43f 783d 2b3f a7f9 c0be c7c4 ae3f
00000030: f250 7f3f 27a3 813e 0d99 95bd c6f7 453f
00000040: 0218 1dbf 851d 10bf e2dc 9fbd 9ba8 3ebf
00000050: 47de 0cbe e09c cc3c a7e2 0e3f 99cd 543e
00000060: 398e 9abf ba4b 26bb ddb9 0d3f 75db 90be
00000070: 0eb1 12bf 4443 33be b81e 50be d746 953e
00000080: ad45 d53e 2f05 063e 0cd7 d03e 0e2b 1c3f
00000090: ccde b63d d8f9 563f d263 d2be afb1 393d
000000a0: 67c7 8f3f eabb 7a3f 36b5 91bd e75e b03f
000000b0: 7dd1 e5be ba8b df3e acda 583f dd5e f83e
000000c0: 5a04 44be 3307 913f e568 ef3e 6a03 2f3f

weight f4 [27, 13]
-0.20484559 -0.58195007 -0.6708219 -0.2563519 0.042250827 -0.06530148 1.5484586 2.3978999
-2.538907 0.55210924 2.6720622 1.7388421 -0.6186423 0.9186889 -1.0235609 -1.7933177
0.32476875 1.9950964 1.8137336 -1.3851439 1.2642072 0.35084167 0.9049463 0.042415727
-1.805191 -0.35717794 1.5431595 -1.0603448 0.00023444969 -1.737082 -1.119481 -0.64290524
0.8734699 -0.6483077 -1.0481262 -0.6262057 -1.5081997 0.79933125 0.7118195 -1.0976807
0.07982015 1.5347683 -0.3939424 0.18122922 -0.56166124 1.1546092 -2.8598833 0.861044
0.58473414 -0.75055087 -0.23362486 0.34184793 -0.392158 1.9958732 -0.55512816 -0.8401676
1.1000788 -1.7978547 1.7073457 -1.6589576 0.77126163 -0.5353735 0.47856364 1.9368818
-0.32381952 0.4611851 -0.48167378 0.21720311 -1.2098902 1.5455692 2.3273027 -1.2414148
2.1165674 0.7331567 0.69095933 0.43187317 -1.7651193 -0.6020173 -1.6450129 -1.6704675
-0.5993667 -1.7644783 -1.6711484 -1.1351371 1.8914605 0.5623508 -0.15198329 -2.0003884
-2.382279 -0.6277938 0.1712451 -1.2555821 0.24147332 -1.1641201 -2.5182178 1.2336537
1.6167374 1.198097 -0.4665047 2.6887088 -3.9739604 1.289358 -0.56368345 2.0222912
-1.5492147 0.7719939 1.0157998 2.2741308 -0.15716745 1.847244 -2.9083848 -0.5475301
1.5963229 -0.51665276 0.5334145 1.2857641 0.07722921 0.8607501 -0.66297674 0.13587022
-0.42473358 1.2650439 1.0920821 -1.299824 2.0697546 0.73144454 0.92707485 0.3264011
-0.5644042 0.18269488 -1.1538687 -0.35022637 1.1745964 -1.6527977 0.11334959 -1.6763331
0.67091656 0.84230083 -0.5758229 -0.9113209 -2.9223135 0.20469369 0.41123196 -3.5983412
1.5346266 1.3993055 3.0271125 1.7588296 -1.1980723 1.2320535 -2.2494454 2.5972147
-0.2050884 -0.06170913 2.1902554 1.5283315 0.15127887 -0.51560014 -0.4850661 2.8617463
-1.5119821 -4.896857 -0.36152837 1.062243 1.2388288 0.119546294 -0.18798628 -0.12162837
-1.8146882 1.0896518 0.17535447 -0.6389923 -0.8077062 -1.0289768 0.65286267 0.4987818
-2.509893 -0.60022265 -0.423218 -0.6530962 1.1249226 1.1696856 1.1529298 0.17011607
-1.6730466 -1.4961541 -1.6350623 1.0738255 1.4866273 0.79497045 -0.3035631 -3.3951864
0.5779035 -1.2017685 -1.7607329 0.8112595 0.0031852857 -1.1063504 0.70137984 1.1763103
0.982192 -2.085656 0.6502754 0.47621334 2.2659822 -0.09559482 -2.4911945 -0.7314211
-0.120554276 -0.62419194 0.63459295 0.0034392811 -1.9568528 0.08007359 1.021511 -2.5173132
-1.8145144 -0.15781282 -2.9295366 1.1445755 0.86646074 -1.5984195 0.09390377 1.2607852
0.28130484 0.79744434 0.2340838 1.1193265 -3.2183614 -0.06527867 0.62271494 -2.5349853
-0.369627 1.2075764 1.9691001 1.3409837 -1.5999321 3.4023585 -1.0786308 -2.3362732
-1.5809344 0.94797647 0.8032478 -1.0920539 0.049096353 1.1346555 -2.4146757 -1.4101988
0.7266796 2.2942834 -1.9316896 -1.640385 -1.5880268 2.398574 -2.5254555 -2.6319313
00000000: 0bc3 51be aefa 14bf fcba 2bbf 8e40 83be
00000010: 340f 2d3d c8bc 85bd e433 c63f 3177 1940
00000020: 747d 22c0 0857 0d3f 1103 2b40 6192 de3f
00000030: 575f 1ebf 322f 6b3f 0b04 83bf 6f8b e5bf
00000040: 1748 a63e 525f ff3f 6c28 e83f 654c b1bf
00000050: 8bd1 a13f 85a1 b33e 90aa 673f 1dbc 2d3d
00000060: 8010 e7bf 07e0 b6be 4086 c53f 61b9 87bf
00000070: 9cd6 7539 b458 debf 274b 8fbf 7095 24bf
00000080: b99b 5f3f 7ef7 25bf 0029 86bf 044f 20bf
00000090: b00c c1bf f9a0 4c3f ce39 363f cd80 8cbf
000000a0: bf78 a33d 4a73 c43f d1b2 c9be 2794 393e
000000b0: 08c9 0fbf 3cca 933f 5408 37c0 616d 5c3f
000000c0: 23b1 153f 1a24 40bf 5b3b 6fbe b106 af3e
000000d0: efc8 c8be c678 ff3f e11c 0ebf 3915 57bf
000000e0: 62cf 8c3f 1a20 e6bf 4e8a da3f b958 d4bf
000000f0: 6771 453f 3d0e 09bf 4b06 f53e beeb f73f
00000100: accb a5be 7420 ec3e f29d f6be 7e6a 5e3e
00000110: afdd 9abf 36d5 c53f 87f2 1440 aee6 9ebf
00000120: d775 0740 28b0 3b3f b6e2 303f 7b1e dd3e
00000130: 6eef e1bf ce1d 1abf c88f d2bf e1d1 d5bf
00000140: 1970 19bf 6dda e1bf 31e8 d5bf 2c4c 91bf
00000150: 611b f23f 39f6 0f3f 82a1 1bbe 5d06 00c0
00000160: 4277 18c0 18b7 20bf e05a 2f3e eab6 a0bf
00000170: c844 773e e301 95bf 7b2a 21c0 5de8 9d3f
00000180: 40f1 ce3f 3e5b 993f b4d9 eebe ce13 2c40
00000190: 5e55 7ec0 af09 a53f 8f4d 10bf 386d 0140
000001a0: ab4c c6bf 64a1 453f ba05 823f 5c8b 1140
000001b0: 81f0 20be 7e72 ec3f fa22 3ac0 ef2a 0cbf
000001c0: 4f54 cc3f 5b43 04bf da8d 083f eb93 a43f
000001d0: 592a 9e3d 1e5a 5c3f d8b8 29bf 9021 0b3e
000001e0: ae76 d9be f5ec a13f 59c9 8b3f a260 a6bf
000001f0: dc76 0440 f33f 3b3f c754 6d3f 0c1e a73e
00000200: cb7c 10bf 5e14 3b3e f8b1 93bf df50 b3be
00000210: 2d59 963f e08e d3bf d423 e83d 1592 d6bf
00000220: 30c1 2b3f 07a1 573f 2169 13bf 544c 69bf
00000230: 2f07 3bc0 399b 513e ff8c d23e 394b 66c0
00000240: a56e c43f 711c b33f 36bc 4140 5421 e13f
00000250: 6f5a 99bf eeb3 9d3f eaf6 0fc0 c438 2640
00000260: b202 52be b6c2 7cbd 252d 0c40 5ea0 c33f
00000270: d9e8 1a3e 5ffe 03bf 955a f8be da26 3740
00000280: a188 c1bf 0db3 9cc0 3f1a b9be 94f7 873f
00000290: f191 9e3f b0d4 f43d 7a7f 40be 4b18 f9bd
000002a0: b447 e8bf b679 8b3f 1f90 333e 0095 23bf
000002b0: d5c5 4ebf 83b5 83bf 0222 273f 5460 ff3e
000002c0: 16a2 20c0 31a8 19bf 08b0 d8be 5031 27bf
000002d0: 77fd 8f3f 42b8 953f 3493 933f e832 2e3e
000002e0: 6426 d6bf fa81 bfbf b949 d1bf 1d73 893f
000002f0: ce49 be3f 2f83 4b3f 9f6c 9bbe bc4a 59c0
00000300: 7cf1 133f 8dd3 99bf b25f e1bf b4ae 4f3f
00000310: 3ac0 503b e49c 8dbf a18d 333f 5691 963f
00000320: ef70 7b3f 637b 05c0 7378 263f 3cd2 f33e
00000330: da05 1140 38c7 c3bd bb6f 1fc0 6a3e 3bbf
00000340: 29e5 f6bd 0bcb 1fbf af74 223f 9065 613b
00000350: 277a fabf 9ffd a33d dfc0 823f a91b 21c0
00000360: 0242 e8bf af99 21be 877d 3bc0 7381 923f
00000370: 5fd0 5d3f 0399 ccbf 9f50 c03d 6961 a13f
00000380: 3007 903e 5025 4c3f aab3 6f3e 1746 8f3f
00000390: a2f9 4dc0 d3b0 85bd 3f6a 1f3f 333d 22c0
000003a0: c03f bdbe dd91 9a3f 790b fc3f 5ba5 ab3f
000003b0: 93ca ccbf 3ec0 5940 9310 8abf 8085 15c0
000003c0: 0f5c cabf 96ae 723f a6a1 4d3f 6cc8 8bbf
000003d0: 4219 493d 643c 913f 0c8a 1ac0 6581 b4bf
000003e0: ad07 3a3f 8ad5 1240 9b41 f7bf 23f8 d1bf
000003f0: 7644 cbbf 3d82 1940 10a1 21c0 9071 28c0

bias f4 [27]
0.16828679 -0.197919 -1.2935369 1.1705006 -0.29420722 1.3796343 -1.3669826 -0.038264655
-0.19984077 0.90368646 -1.5080211 0.7920471 -0.22377524 -1.3383566 -0.6492605 -0.17989652
-0.5403647 -1.4720534 -0.9234625 1.5800722 1.3079379 1.4930165 -1.1645498 0.42148384
-1.6353704 0.79488564 0.3878461
00000000: 5f53 2c3e 47ab 4abe 9e92 a5bf f7d2 953f
00000010: 54a2 96be db97 b03f 49f9 aebf 66bb 1cbd
00000020: 0fa3 4cbe ff57 673f d606 c1bf 99c3 4a3f
00000030: 5625 65be 454f abbf f035 26bf cb36 38be
00000040: 5755 0abf 3f6c bcbf 0a68 6cbf ce3f ca3f
00000050: 826a a73f 2a1b bf3f f80f 95bf bbcc d73e
00000060: d153 d1bf a07d 4b3f c493 c63e
