locales/en-GB/lstm_model-en-GB.pth (torch, 12839 bytes, 7 tensors)

weight f4 [27, 4]
000000 22 6f 7e c1 f5 71 d5 40 f0 5f 34 41 5a 58 6e 41
       -15.902132 6.670161 11.273422 14.89657
000010 1b df 80 3f d8 b7 f8 3f 64 55 b0 bf 02 15 2f 3f
       1.0068086 1.9431105 -1.3776059 0.6839143
000020 24 c3 d9 3f 98 b7 9e bf 07 dc 8e 3f ca a5 05 40
       1.7012677 -1.2399778 1.1160897 2.088244
000030 3b 95 ac bf f5 bf 9b bf dc 6b 12 3d 55 f8 1b 40
       -1.3483042 -1.2167956 0.035747394 2.437032
000040 28 4a c5 3f e7 66 00 c0 18 36 e3 3e c9 94 73 bf
       1.5413256 -2.0062807 0.44377208 -0.95148903
000050 84 a8 b0 3d 5e fa 8b 3f 45 7b 7f 3f 5e a3 8c bf
       0.08625892 1.0935781 0.9979747 -1.0987356
000060 68 ab 5a 40 58 90 c8 bf 02 0b 07 3f 65 85 12 40
       3.4167118 -1.566905 0.5275117 2.2893918
000070 48 80 fd 3f ff 90 fd be 7f 43 06 bf e2 71 cd 3e
       1.9804773 -0.49524686 -0.5244674 0.40125948
000080 1d 26 0a 40 4d b0 0a c0 bc f2 ce 3e 2d 64 48 be
       2.1585763 -2.1670105 0.40419567 -0.19569464
000090 c5 7c 3c bf a6 47 bf 3f be 87 dc bf 63 d2 85 be
       -0.73627883 1.494374 -1.7228925 -0.26137075
0000a0 bb fd 20 bf e3 6d 7e 3f 2c 61 dc bf ca 57 70 40
       -0.6288716 0.99386424 -1.7217155 3.7553582
0000b0 18 ad 6f 40 9e 35 c3 bf e9 de 7b be 1b 00 8e bf
       3.7449398 -1.5250738 -0.24596752 -1.1093782
0000c0 20 0d f0 3e c6 77 5e c0 80 b0 9e 3e 66 78 53 3f
       0.46885014 -3.4760604 0.30994034 0.8260559
0000d0 34 0d e6 3e eb 8e f1 bf f9 33 d1 3f 8f 5f 83 3f
       0.44931948 -1.887174 1.6343986 1.0263537
0000e0 0c 04 b3 be 44 7d 19 bf 1e fa f6 bf 3f 01 9c 3f
       -0.34964025 -0.59956765 -1.929508 1.218788
0000f0 4e cb 0e bf 06 28 32 3e e6 de 2b bf a6 2e 06 c0
       -0.5577897 0.1739808 -0.6713699 -2.0965972
000100 0f 70 38 3f 85 c3 d7 be 49 01 34 3f 41 a5 f9 3f
       0.7204599 -0.42141357 0.7031446 1.9503556
000110 68 17 6a c1 6e 25 81 be 7d c9 f4 bf e8 4b 5e 41
       -14.630714 -0.2522387 -1.9123989 13.893532
000120 15 9d 23 bf d5 bf 13 c0 eb d2 0a 3f 94 f8 55 bd
       -0.63911563 -2.3085835 0.54228085 -0.052239016
000130 60 e9 8d 3d d9 e8 e7 3e 45 ad 19 40 a8 00 d2 3d
       0.069292784 0.45294836 2.4012005 0.102540314
000140 59 d6 5d 3f 8d a1 a5 bd 2a 94 2f 3e 7c d5 de 3e
       0.86655194 -0.08087454 0.17146364 0.4352225
000150 4e 54 68 bf a7 5b 75 3f 45 d3 80 bf 21 90 88 bf
       -0.9075364 0.95842975 -1.0064474 -1.0668985
000160 2b ab 90 40 dc 8e 27 40 49 2b 1b c0 35 b9 90 40
       4.5208945 2.6180944 -2.424517 4.5226083
000170 e4 4c e1 3f 2a 95 87 bf 9a 75 e6 3e 9f 3a 89 3f
       1.760159 -1.0592396 0.45011598 1.0721015
000180 ac c7 03 bf 94 7a 98 c0 b5 9a c8 bf 34 49 d9 be
       -0.5147655 -4.764963 -1.5672213 -0.42438662
000190 32 9f 28 40 71 64 48 3f 80 ae 41 3e 06 5e 24 c0
       2.6347165 0.7827826 0.18914223 -2.5682387
0001a0 86 95 4f 40 01 c7 63 3e 24 d2 08 c0 36 94 de 3f
       3.2435012 0.22243883 -2.137826 1.738898

weight_ih_l0 f4 [64, 4]
000000 cd 71 1e bf 8f 4c 0a c0 c7 99 18 be 12 11 18 40
       -0.61892396 -2.1609228 -0.14902411 2.376042
000010 76 23 05 bf b8 c3 0b 40 07 ef e1 3f 1c a0 a9 be
       -0.52007234 2.1838207 1.765107 -0.33129966
000020 b4 3a 80 bf 5d 6a 82 40 5a 0e 68 c1 4b cf 0f 3f
       -1.0017915 4.075484 -14.503504 0.5617568
000030 e9 15 d3 be c6 c9 b5 3f ce 44 0b bf bc 8b 00 be
       -0.41227654 1.4202201 -0.5440186 -0.12553304
000040 dd 8f 51 40 b8 bf 41 c0 c1 4e e2 3f cf f3 c5 3f
       3.2744057 -3.0273266 1.7680284 1.546503
000050 ba 21 ce 3d 80 be 09 3f 4c 66 97 be 9d c9 8d be
       0.100650266 0.53806305 -0.29570234 -0.2769288
000060 a6 99 b5 c0 b5 4a a0 3e 31 6d 56 40 d8 ae b3 3f
       -5.675006 0.31306997 3.3504145 1.4037733
000070 60 ad 96 3f f4 f9 e0 bf d3 9c 77 c0 55 a3 72 c0
       1.177166 -1.757628 -3.8689468 -3.791219
000080 98 66 0b c0 fa 10 e5 bf 99 cf 0d 3f 7d f1 f8 3e
       -2.1781368 -1.7895806 0.55394894 0.4862174
000090 ba 3b c6 3f ff 36 82 3e f3 18 bc bf 3a 23 eb bf
       1.5486977 0.25432584 -1.4695114 -1.8370125
0000a0 df 7e a2 be cd 14 bb 3f 27 a0 21 40 13 93 36 bd
       -0.3173742 1.4615723 2.5254 -0.044573855
0000b0 40 8f a3 bf cd e8 78 40 86 59 3b c0 99 9c 92 bf
       -1.2778091 3.889209 -2.927339 -1.145404
0000c0 c3 3c 9e be 1c 79 8b bd f6 f1 15 c0 ba e1 33 3f
       -0.30905733 -0.06810209 -2.3428931 0.70266306
0000d0 74 ab 8d bc f0 0c 53 3f 16 fd 51 bf c6 2b c0 c0
       -0.01729367 0.82441616 -0.82026803 -6.0053434
0000e0 e2 83 9c 40 f6 71 65 40 c7 06 b7 3f 9a e3 5f c0
       4.891099 3.5850806 1.4298943 -3.4982667
0000f0 bb 73 d5 3f aa 50 d3 bf 91 e3 bd 3b 13 e8 64 40
       1.6675943 -1.6508992 0.0057949503 3.5766647
000100 bb e3 97 bf 96 ee 06 40 8b af 01 3f 6a 2a 9e c0
       -1.1866373 2.1083121 0.5065848 -4.9426775
000110 d4 8a 02 40 53 c6 ed c0 32 7a 74 c0 08 84 30 3f
       2.0397234 -7.4304595 -3.8199582 0.68951464
000120 08 4f d1 40 a3 cb 08 3f b3 09 16 c0 33 bf e3 3f
       6.5408974 0.53435725 -2.344342 1.7792724
000130 b8 c1 b6 3e b5 a3 f3 be 51 76 0a 40 06 68 a3 bf
       0.3569467 -0.47585836 2.1634715 -1.276612
000140 ae 64 3c 3e d4 c1 b4 3f 69 a3 96 3f a2 fc 65 40
       0.18397781 1.4121652 1.1768619 3.5935445
000150 84 ad 02 bf ac 70 ae be ac ee a5 bf 9c 2d 73 bf
       -0.51046014 -0.34070337 -1.2963462 -0.9499147
000160 84 c0 d8 bd 8a 39 a6 c0 2a 0b f5 3f 27 01 66 40
       -0.105835944 -5.194524 1.9144032 3.5938203
000170 74 d2 0d 41 4a f2 68 bf c6 bb 03 40 d4 13 43 40
       8.86388 -0.90994704 2.0583358 3.0480852
000180 c1 16 df 3f 42 e9 a9 3f a1 22 8a 3e b0 0e 4a 3f
       1.7428819 1.327431 0.26979545 0.7892866
000190 58 ec 85 c0 7e d1 1c c0 63 ee 25 c0 b4 63 b9 3f
       -4.1851006 -2.4502864 -2.592675 1.4483552
0001a0 f5 14 06 c1 1d 6d d5 40 ee de d1 be 52 37 cb 40
       -8.380116 6.6695695 -0.40990394 6.350503
0001b0 36 d1 3e bf e1 d8 55 c0 48 e5 e4 be 78 6e 06 c0
       -0.7453798 -3.3413622 -0.44706178 -2.1004925
0001c0 ab aa 36 40 90 f8 0e c1 c8 ee b0 3f c4 0b 46 bf
       2.8541667 -8.935684 1.382287 -0.773617
0001d0 6e 18 bf bf 1b 02 27 bf 77 12 9b c0 71 b9 81 c0
       -1.492933 -0.6523759 -4.846004 -4.053887
0001e0 21 98 27 3f b1 7f 72 3f 7c ea b8 bf 87 b8 36 c0
       0.65466505 0.9472609 -1.4446559 -2.8550127
0001f0 57 d8 b8 3f ae f0 23 3f b9 1b 92 c0 15 a9 a8 bc
       1.4441022 0.64039123 -4.565884 -0.020588437
000200 b6 31 09 c0 4b 5e c6 3f 1e f2 3d 40 8c ac 26 c0
       -2.143659 1.5497526 2.9679027 -2.6042814
000210 c9 1d c6 3f e1 3e 4e c0 5b 69 d1 3f 99 04 35 40
       1.547784 -3.2225878 1.6360277 2.8284056
000220 0a 52 2b bf e8 ef b6 40 89 65 e3 bf 34 28 b1 c0
       -0.66922057 5.7167854 -1.7765361 -5.5361576
000230 1d 0a 05 40 09 d7 81 c0 a5 9f 7d 40 8f 02 27 bf
       2.0787423 -4.0574994 3.962869 -0.6523828
000240 6d 1e 0a c1 b3 83 87 40 37 6a 1f c0 99 3a 8b c0
       -8.632428 4.2348266 -2.4908578 -4.350903
000250 10 2b 20 c0 95 e4 0a 40 15 d0 0f 40 7f f0 9c 3f
       -2.5026283 2.1702015 2.2470753 1.2260894
000260 55 e7 32 be d0 fa 53 3e a1 b1 a4 3e aa 30 84 c0
       -0.17471059 0.20701146 0.3216677 -4.1309404
000270 51 93 cd 3f 1a fc 08 41 61 8e de 3f 1d 36 20 40
       1.6060582 8.561548 1.73872 2.5033028
000280 0e fc 0f bf f0 9c aa c0 c1 b8 02 40 d6 2a db c0
       -0.5624398 -5.3316574 2.0425265 -6.848979
000290 6f 77 0b c0 42 21 06 41 ac 58 2c bf ce b7 cd c0
       -2.1791646 8.38312 -0.673228 -6.428687
0002a0 47 86 56 c0 d7 50 0c c0 c2 d8 89 c0 eb 0a bc 3e
       -3.3519456 -2.192434 -4.3077097 0.3672708
0002b0 09 95 dd be 49 cc d9 c0 b3 29 80 40 3d bb 95 40
       -0.43277767 -6.806187 4.00509 4.679106
0002c0 69 92 64 be fa a4 8b c0 e6 80 95 40 b8 88 27 c1
       -0.22321476 -4.3638887 4.6719847 -10.470879
0002d0 6e 72 ac bf 8a 65 50 40 05 98 84 bf b0 70 86 c0
       -1.3472421 3.2561975 -1.0358893 -4.201256
0002e0 51 61 41 c0 5f 19 ab 3f 69 7d 20 c0 10 b8 4b 40
       -3.0215647 1.3367118 -2.5076544 3.1831093
0002f0 dd c2 74 c0 f8 9b 12 3f 5a 85 bd 3e 08 a7 c5 c0
       -3.8243935 0.5726924 0.37015802 -6.1766396
000300 83 d1 09 c0 d6 bd af bb 38 f5 9a bf 4b b7 8a 40
       -2.1534126 -0.0053632064 -1.2106085 4.3348746
000310 55 12 12 bf ec 3c d6 3f e2 83 60 40 2a 6f 35 40
       -0.5705922 1.6737342 3.5080495 2.83491
000320 93 61 c1 bf 5a 4f a0 3c 96 a5 0f bf fd c8 f9 be
       -1.5107902 0.019569088 -0.5611204 -0.48786154
000330 48 23 47 be bd 97 5d c0 39 00 cf be 33 a8 1c 40
       -0.19447052 -3.4623864 -0.40429857 2.447766
000340 5b e9 dc 3e f7 41 bd 3f 38 15 10 c0 ae 0c 9b bf
       0.43146786 1.4785756 -2.251295 -1.2113245
000350 34 ad 6f 3f 23 b6 b5 be ea 32 1b 3f f0 2e 91 3e
       0.9362366 -0.35490522 0.60624564 0.28356123
000360 4a 0f 77 bf 8b 19 a7 bf 2c cb 49 bf 9d 57 e6 be
       -0.96507704 -1.305467 -0.7882564 -0.4498872
000370 02 6d 06 c0 a1 ef 19 bd 54 c7 8a 3f 03 0d b0 bf
       -2.1004033 -0.037582044 1.084208 -1.3753971
000380 22 79 42 bf ae 46 20 bf 9f 26 d0 40 28 60 ff 3f
       -0.75966084 -0.6260785 6.5047145 1.995122
000390 66 22 89 40 74 55 18 c0 31 0c 83 be 0e 9d a2 40
       4.285449 -2.3802156 -0.2559524 5.0816717
0003a0 7d f5 a0 40 02 89 2d bf be d2 cf be a6 98 10 c0
       5.029967 -0.6778718 -0.4059047 -2.259317
0003b0 5d f2 b7 3e 8d d5 dd be 3a ad b5 3e 78 bc 06 bf
       0.35927096 -0.4332699 0.35483724 -0.5263133
0003c0 19 d3 ca c0 a4 8d c2 3f 72 4d a8 c0 5b 06 39 be
       -6.3382688 1.5199475 -5.259454 -0.1806883
0003d0 7c 70 e0 3e e2 af 51 40 9c b3 d9 40 ba e5 95 3e
       0.4383582 3.27636 6.803175 0.2927683
0003e0 63 75 4d 3f ea 54 17 be 13 89 a7 3f 0f c9 07 bf
       0.8025724 -0.14778486 1.3088707 -0.53041166
0003f0 fa ea aa 40 b9 a1 9e c0 01 dd 1c 40 85 ce 71 3f
       5.3411837 -4.9572415 2.450989 0.9445575

weight_hh_l0 f4 [64, 16]
000000 38 db 95 bf 3d d4 68 3e b3 0f 8a be db 6d 18 3f
       -1.1707525 0.22737212 -0.26965103 0.59542626
000010 81 56 3a c0 d2 a4 e8 bf 99 e2 01 c0 be be 0e 3f
       -2.9115298 -1.8175299 -2.0294554 0.557598
000020 00 ad bd 3e 34 d2 2e bf ab 51 9a bc c9 9e a2 3d
       0.3704605 -0.68289495 -0.01883777 0.07940442
000030 c4 ae 05 c1 36 80 66 bf c0 12 1f c0 6c 5f 32 bf
       -8.355167 -0.90039384 -2.4855194 -0.6967685
000040 72 e5 0a 40 fb d8 81 40 13 47 52 c0 5d af 2a 40
       2.1702542 4.057737 -3.285588 2.6669533
000050 8d ba 2a 40 d4 a5 be bd 1a e3 15 bd f0 02 ac 3e
       2.6676362 -0.09308973 -0.036593534 0.3359599
000060 f0 f7 a8 3f 39 d4 2a 3f 50 94 78 3f fd 4f 64 c0
       1.3200665 0.66730076 0.97101307 -3.567382
000070 f4 8a 80 c0 68 e1 75 3f cc c5 cb bf 2f 04 0e c1
       -4.016962 0.9604707 -1.5919738 -8.876021
000080 98 fb 00 c1 30 41 85 c0 5b e8 0c 40 58 4e 6e be
       -8.061424 -4.1642075 2.2016819 -0.23272073
000090 45 b2 00 c1 83 e0 c7 bf 4d 5d 97 40 44 b4 28 3f
       -8.043523 -1.561539 4.7301393 0.65900064
0000a0 79 06 fb 3e b6 1c 4f 3f 50 51 e2 bf 2c 35 e2 3f
       0.49028376 0.80903184 -1.7681065 1.7672477
0000b0 13 21 1d c0 08 61 14 40 41 b9 bd bf 26 cc 3a 41
       -2.4551437 2.3184223 -1.482216 11.674841
0000c0 9e 28 f8 be fa eb 02 3e 3b 0f 0d bf dc 0b 0d c0
       -0.48468488 0.1278533 -0.55101365 -2.2038488
0000d0 82 d0 86 bf 43 a4 8e bd d8 41 d7 3e e5 e8 8d 3f
       -1.0532382 -0.06964924 0.42042422 1.1086699
0000e0 2a 72 f8 3f 58 a4 85 bf 15 b8 da 3e 37 39 6b bc
       1.940984 -1.0440779 0.42718568 -0.014356903
0000f0 28 95 22 c0 0a a6 06 3e da a7 b5 3e 3a 57 c6 be
       -2.5403538 0.13149276 0.35479623 -0.38738424
000100 e0 7c 06 c1 cf b7 23 bf ad 2b 0d 41 0e 5d a1 3f
       -8.405487 -0.63952345 8.823163 1.2606523
000110 1e bc ef 3f 87 bf 00 c1 a6 0b 98 40 9b c0 98 3f
       1.8729284 -8.04676 4.751422 1.1933779
000120 9b 99 1b 41 96 df 99 3f d0 04 b7 40 c6 9a bf c0
       9.725001 1.2021358 5.7193375 -5.9876432
000130 ec aa f3 c0 43 86 e1 3f 10 0b fc 3d 12 ca 8a c0
       -7.6146145 1.7619098 0.123067975 -4.337167
000140 39 e8 80 bf 17 d9 fb 3d e0 43 b5 3e a9 e7 58 3f
       -1.0070869 0.12297266 0.35403347 0.84728485
000150 4b 14 8b bf bd b4 77 bf 07 4b ab 3f ce f9 19 40
       -1.0865568 -0.9676016 1.3382272 2.4058719
000160 d3 bb 3a 3f d7 50 25 bf 1d 2e fa 3e 52 e0 1e be
       0.72942847 -0.64576477 0.48863307 -0.15515259
000170 23 c5 c5 bd 81 8a ad be a3 f1 74 bf f0 98 d7 3e
       -0.096567415 -0.33894733 -0.9568121 0.4210887
000180 99 76 44 40 b5 a5 d4 3f 8b e1 05 c1 2d 53 9a 3e
       3.0697386 1.661307 -8.367564 0.30141583
000190 59 12 62 c0 8e 6e bb bf 16 e3 2f 41 ac 14 d6 c0
       -3.5323699 -1.4643114 10.992941 -6.6900234
0001a0 f5 ee ef be 27 6e 70 c0 f8 ca 9a 3f 5b f4 b9 be
       -0.46861997 -3.7567232 1.2093191 -0.3631924
0001b0 f0 0f 8f 3f 10 45 15 be 4f 00 cb 3f a3 ea a9 be
       1.1176739 -0.14577127 1.5859469 -0.33186826
0001c0 df 95 99 c0 e7 03 b6 40 bb 37 44 c0 c4 54 47 40
       -4.799545 5.6879764 -3.0659015 3.1145487
0001d0 c2 70 c5 3f 40 ed bb c0 eb ba 95 bf 3c d1 5b c0
       1.5425036 -5.872711 -1.1697668 -3.4346457
0001e0 1e 15 34 c0 c4 50 70 c0 17 2d 12 3f 42 69 f1 bf
       -2.813789 -3.7549295 0.5710005 -1.8860247
0001f0 dc 8d 03 c1 82 1c cc bf 80 28 ac 3f a6 e5 4c c0
       -8.222134 -1.59462 1.344986 -3.2015166
000200 0a b3 a8 bf c5 c2 b9 3f 35 70 0c 40 76 21 df 3e
       -1.3179638 1.4512564 2.1943486 0.43580216
000210 05 2b c0 bf 24 e4 0d c0 36 f7 c4 bf 40 f6 c1 40
       -1.5013129 -2.2170496 -1.5387943 6.06131
000220 fa 14 b8 be 18 39 d7 3f 59 e1 a9 bf 60 d2 a4 bf
       -0.35953504 1.6814299 -1.3271896 -1.2876701
000230 36 33 0d c0 b3 e3 bb 3d ff 57 dc 3e a3 04 f4 be
       -2.2062507 0.091742896 0.43035886 -0.47659788
000240 0c 54 0a c0 0a 0a 7a 40 a9 1f 68 c0 d8 cc 1a 3f
       -2.1613798 3.9068627 -3.6269324 0.60468817
000250 85 ea 83 bf 89 83 46 bf 01 73 fd c0 5f d8 4c 40
       -1.0305945 -0.77544457 -7.9202886 3.2007062
000260 e2 cc 9b bf 8d 8c 4c 3f a0 21 90 3f 8d c6 6b 3e
       -1.21719 0.79901963 1.1260262 0.2302496
000270 66 cd 53 c0 f7 34 e2 bf 6a 22 81 bf dc a8 05 c0
       -3.3094115 -1.7672414 -1.0088627 -2.0884314
000280 1c af 3b c1 8a 23 7a 40 ec e2 eb c0 5f ec 59 3f
       -11.730251 3.9084191 -7.3714504 0.851263
000290 ac 76 f7 bf f7 a6 0b c1 af e6 3a c0 af a5 33 c0
       -1.9333091 -8.728263 -2.9203298 -2.8069875
0002a0 85 bf 1b c1 53 04 b5 bf 7e 68 5a 3f 8d 5c 00 40
       -9.734258 -1.4141945 0.8531569 2.0056489
0002b0 d2 6e 1d c0 ec 14 bc bf bb f8 28 c0 7d 41 21 c1
       -2.459889 -1.4693885 -2.6401813 -10.078488
0002c0 61 da 89 40 72 18 3d c0 de e2 8d 40 a0 91 77 c0
       4.3079076 -2.954617 4.4339437 -3.8682632
0002d0 59 6f 39 40 2a 40 aa bf 66 ab 29 c0 0e 47 c5 40
       2.8974211 -1.3300831 -2.6510863 6.1649237
0002e0 7a 75 e4 c0 c2 bb 82 3f fe 51 1d 40 72 8b 9f 3f
       -7.1393404 1.0213549 2.4581294 1.246443
0002f0 55 cd 9f 40 b3 55 49 bf 58 6d 8e 40 a5 bb 6b c1
       4.993815 -0.7864639 4.4508476 -14.733312
000300 cf da b2 3d 02 4e 02 3e 27 d3 a3 bf 95 56 89 3f
       0.08733141 0.1272507 -1.2798814 1.0729548
000310 d8 e6 9f be 59 8a 26 c0 8b 98 b4 3f 06 88 8c be
       -0.31230807 -2.602194 1.4109052 -0.27447528
000320 13 94 71 3f 01 40 ca be f1 ba 25 3e d1 57 8b be
       0.9436657 -0.39501956 0.16184594 -0.27215436
000330 24 a5 9b 3e da 7d 89 bf 1d 6a 89 bf 52 10 31 be
       0.3039943 -1.0741532 -1.0735508 -0.17291382
000340 4d bd af c0 60 e1 d2 3d ff c4 8d 3f 42 03 62 be
       -5.491858 0.10296893 1.1075743 -0.22071555
000350 c3 19 8e c0 92 a6 40 c0 f4 c3 f2 3f 54 e2 08 41
       -4.4406447 -3.0101666 1.896605 8.555256
000360 a8 c4 44 c0 55 4e ba 3f 8b 6d 5f 3e 78 b5 c1 3e
       -3.074503 1.4555155 0.21819131 0.37833762
000370 d9 3a 56 40 f5 98 28 bf 79 d1 0e 3e ad 31 1c 3e
       3.3473418 -0.65858394 0.13947095 0.15253325
000380 1e a5 24 c0 17 2b 81 40 76 65 04 c0 33 83 91 bf
       -2.572578 4.03651 -2.0686927 -1.1368164
000390 7f 82 86 bf a6 0a 11 c0 97 57 04 41 31 b7 fa 3f
       -1.0508574 -2.266275 8.271384 1.9587156
0003a0 b2 42 61 40 fc 9e 03 c1 69 29 f9 c0 de 19 f2 3d
       3.5196958 -8.226315 -7.786305 0.1182134
0003b0 fb b2 16 41 da de ab c0 88 ec 61 3f 20 22 63 bf
       9.418696 -5.3709536 0.88251543 -0.88723946
0003c0 8b f2 bc 3f 56 2b d1 3c 71 22 b3 bf ea 7b f9 3f
       1.4761518 0.02553336 -1.3994886 1.949094
0003d0 2f 03 e0 3f 69 8c 7b c0 08 03 c1 bf 8b 97 19 40
       1.7500972 -3.930445 -1.507905 2.3998744
0003e0 06 fc d3 3f b4 a3 0c c0 76 d1 82 3f c0 c2 9d bf
       1.6561286 -2.1974916 1.0220172 -1.2325058
0003f0 30 fa 9f be 4c d7 00 bf e2 cb 69 bf 8c 35 00 bf
       -0.31245565 -0.50328517 -0.91326725 -0.50081706

bias_ih_l0 f4 [64]
000000 53 0f 68 c0 fb 5f a3 40 58 7b 5b 40 53 31 89 bf
       -3.6259353 5.1054664 3.4294033 -1.0718178
000010 2e bf cd be 48 73 6d bf b8 77 1a c0 86 b1 c1 bf
       -0.4018492 -0.9275403 -2.413557 -1.5132301
000020 b5 60 b3 bf d6 de d2 3f f9 8e 3b 40 bf b8 b2 3f
       -1.4013888 1.6474254 2.9306014 1.396263
000030 49 4b 2c c0 f7 39 3a be 5e 0c fc bf 19 ee c9 bf
       -2.692095 -0.18186174 -1.9691274 -1.5775787
000040 9f 1f 90 c0 5f 75 ca c0 8d 4b 12 c0 6c 13 ef bf
       -4.50386 -6.3268275 -2.2858613 -1.8677802
000050 e2 79 cf be 62 3f 20 40 51 f4 91 c0 84 39 bd c0
       -0.40522677 2.5038686 -4.561074 -5.913271
000060 ad db c7 bf 82 66 e9 c0 39 df 30 bf 0b 03 c1 c0
       -1.5613915 -7.293763 -0.6909061 -6.0316215
000070 be 7d d3 bf f0 19 55 c0 3f e7 87 40 f0 86 2a c0
       -1.6522748 -3.329708 4.2469783 -2.664486
000080 ea 51 d7 be 73 e5 19 3f c2 1e bc bd 3c 08 35 bc
       -0.42054683 0.60115737 -0.09185554 -0.0110493265
000090 ba 62 9b bf b6 d9 4e c0 25 53 32 c0 d3 d7 ee be
       -1.2139504 -3.232038 -2.7863247 -0.46649036
0000a0 4b a4 75 3f 15 1f 97 bf b6 9a a1 c0 21 db b8 bc
       0.95953816 -1.180636 -5.0501356 -0.022565426
0000b0 a7 2f 1c be 36 df 01 3d bb d7 ae c0 a0 a0 30 c0
       -0.15252553 0.03170701 -5.4638343 -2.7598038
0000c0 54 a1 2f 3c 7b 8b aa 3f 2b 27 54 bf 8a 38 79 40
       0.010719616 1.3323816 -0.82872266 3.8940759
0000d0 28 dc 2e c0 29 d7 0d 40 da cd 57 bf c2 5f ee bf
       -2.7321873 2.2162573 -0.8429848 -1.8622973
0000e0 d2 3d 9d bf aa fb f2 3e 9e 4d ec 3e 96 0a 2c bf
       -1.2284491 0.4745763 0.46152967 -0.6720365
0000f0 c2 8e 89 c0 4c ae e6 3d a8 88 19 bf 6a 00 84 bf
       -4.2986765 0.11263713 -0.59974146 -1.0312626

bias_hh_l0 f4 [64]
000000 17 9b 65 c0 49 42 ae 40 68 f8 53 40 13 ab ad bf
       -3.587591 5.4455914 3.3120365 -1.3567833
000010 3d c9 23 be c3 3e 80 bf 21 2b 11 c0 0a 53 e2 bf
       -0.15994735 -1.0019153 -2.2682574 -1.7681592
000020 79 8a d0 bf 0a 89 d9 3f ef 0b 3f 40 f5 0a 83 3f
       -1.6292259 1.6994946 2.9851034 1.0237719
000030 79 81 48 c0 9f d3 8e 3e 92 56 fc bf 03 14 9c bf
       -3.1329024 0.2789583 -1.9713919 -1.2193607
000040 ca 7d 90 c0 5f 83 c3 c0 ea 3a 27 c0 1a b0 f3 bf
       -4.515355 -6.1097865 -2.6129708 -1.9038117
000050 ff 44 e2 be ec 87 36 40 18 f8 94 c0 e2 7a b9 c0
       -0.44193265 2.852046 -4.655285 -5.7962503
000060 9f 0b ba bf 2c 79 e5 c0 f0 30 03 bf 5d a1 cc c0
       -1.4534796 -7.1710415 -0.5124655 -6.3946977
000070 de 75 c3 bf 2a 45 4b c0 59 e9 88 40 22 82 27 c0
       -1.5270345 -3.1760964 4.278485 -2.6173177
000080 d0 ff 04 bf bb 3f 81 3f c8 4d 0b 3e 93 9e ae be
       -0.5195284 1.0097574 0.1360389 -0.34105358
000090 0f a9 7d bf da 94 61 c0 a7 f5 2c c0 b3 17 db be
       -0.9908609 -3.5247102 -2.7024934 -0.4279152
0000a0 4c ce 81 3f 7d 4a 89 bf 2a 8e a6 c0 ae d1 d8 3d
       1.0141082 -1.0725857 -5.204854 0.10586868
0000b0 fd 08 1b 3e 9b 83 c9 3c cb ba b3 c0 e4 74 24 c0
       0.15140148 0.024598887 -5.616552 -2.5696344
0000c0 38 76 42 3e b3 cd 8a 3f 1f 2f b7 be c8 c2 82 40
       0.1899041 1.0844024 -0.35778138 4.086277
0000d0 58 f9 4b c0 ef 96 0f 40 a2 38 e3 be 72 c8 e0 bf
       -3.1870937 2.2435873 -0.44379145 -1.7561171
0000e0 52 44 93 bf 54 6b c1 3e a4 51 9c 3e 05 c1 75 bf
       -1.1505225 0.37777197 0.30531037 -0.9599765
0000f0 c9 aa 83 c0 92 b8 b4 3d 74 44 3e bf ce 4f 99 bf
       -4.114598 0.088242665 -0.743232 -1.197748

weight f4 [27, 16]
000000 f1 73 45 3e 36 5d c9 3e 87 9e b9 bf 73 1e f3 3f
       0.1928251 0.39328927 -1.4501504 1.8993667
000010 26 d6 21 bd 71 3f 7a c0 1f ac 74 3e 70 62 f6 3e
       -0.03951087 -3.9101222 0.23893784 0.48121977
000020 37 13 c2 3f 56 84 1a 3f 06 38 8c bf 24 40 10 c0
       1.5162114 0.6035818 -1.0954597 -2.2539148
000030 fd 3a 09 c0 82 78 16 bf 7a 36 f5 bf 06 a2 90 bf
       -2.1442254 -0.5877763 -1.915725 -1.1299446
000040 0f 04 a6 bf 96 a5 c2 3f de f5 e5 be ac 95 e4 bf
       -1.2969989 1.5206783 -0.44914144 -1.7858176
000050 42 ce 21 3e 01 0d 0d bf c6 8a 02 c0 32 08 ff 3f
       0.15801337 -0.5509797 -2.03972 1.9924376
000060 c0 74 73 3f 86 82 91 bf 7b 97 81 3e f8 2d 93 be
       0.9510002 -1.1367958 0.25310883 -0.2874601
000070 53 09 04 bf 08 c6 11 40 25 74 d2 3e fa 71 89 bf
       -0.5157673 2.2777119 0.41104236 -1.0737908
000080 db d4 2b 40 88 85 28 be 9c 4a 9d 3f 5b 5f 7a bf
       2.6848667 -0.16457188 1.2288394 -0.9780175
000090 3d b9 00 c0 6d 3d ac 3f 0c 45 25 40 b4 32 39 3f
       -2.011306 1.3456246 2.5823393 0.7234299
0000a0 ba 0a 88 3f e2 23 e5 3f b8 fb bd 3e 9c 90 36 bf
       1.0628273 1.7901576 0.3710611 -0.71314406
0000b0 86 97 96 3f 48 de 7a 3e b0 fc 11 bf a9 e5 20 c0
       1.1764991 0.24498856 -0.57026196 -2.5140173
0000c0 48 ea 44 be 00 93 18 3d 9b 79 c6 3e ad 1c 9e 3d
       -0.19229996 0.037249565 0.38764653 0.07720313
0000d0 4f ca 43 be 5b 3d 63 3f 57 b0 9e 3f 18 0a aa 3e
       -0.19120143 0.88765496 1.2397565 0.33210826
0000e0 d2 50 28 bf 8d 92 da 3f 37 5e 33 3f e0 62 f9 3e
       -0.6574832 1.7075974 0.70065635 0.48708248
0000f0 19 6c 28 c0 3c 8d 37 3e 90 e7 74 bf 0a b4 96 3f
       -2.6315978 0.1792497 -0.95665836 1.1773694
000100 82 a5 be 3f db 5d ec bf 6b 81 89 bf c3 8d 8b 3f
       1.4894259 -1.8466142 -1.074262 1.0902637
000110 4e 74 4d 3f 6f 8d a3 bd dd 46 ef 3e a2 8f a9 bd
       0.8025559 -0.07985961 0.46733752 -0.08279349
000120 f8 26 7c bf cd 77 1c 3f 84 59 aa 3f 1b 3a 1b c0
       -0.9849696 0.611203 1.3308568 -2.4254215
000130 1c 37 82 bf 30 7d 7f bf 93 b9 20 be 20 8b 08 40
       -1.0173068 -0.99800396 -0.15695791 2.1334915
000140 ee 0c f2 bf e4 bc a2 3f 3f 27 05 c0 d5 30 0a c0
       -1.8910196 1.2713895 -2.0805204 -2.1592305
000150 4b 07 f9 bf 53 4b 37 bf 5a 78 4b bf 96 9d 19 40
       -1.9455351 -0.7159931 -0.79480517 2.4002433
000160 49 3e b9 3f e9 e3 12 c0 fb 44 10 3f de 2f 5e 3e
       1.4472133 -2.2951605 0.56355256 0.21697947
000170 7e 95 29 40 77 74 5d 3f 9e c1 0d 3f b2 3f ad bd
       2.6497493 0.86505836 0.5537356 -0.084594145
000180 df e6 1f 40 38 cc a5 bf 35 73 a7 3f 55 f7 12 3f
       2.4984663 -1.2952948 1.3082033 0.5740865
000190 6a e2 1a 3f c2 9b 29 40 dd 41 8a 40 a8 b9 c4 bf
       0.6050173 2.6501317 4.32054 -1.5369158
0001a0 a6 d4 a3 bf c4 bd b7 3f a8 e1 a7 3f 0c dc bd 3e
       -1.279927 1.4354787 1.311574 0.37081945
0001b0 8f 06 94 c0 f2 80 48 3e 75 2b 20 c0 d0 a6 26 c0
       -4.6258006 0.19580439 -2.5026524 -2.6039314
0001c0 5b 31 97 3e 5b fe 2c c0 11 80 84 bf e5 31 8c bf
       0.29529843 -2.7030246 -1.0351583 -1.0952727
0001d0 27 09 45 3f a4 b6 90 bf ed ed 84 40 04 7c 97 c0
       0.7696709 -1.1305737 4.1540437 -4.7338886
0001e0 4a 3e 1e c0 38 b0 d5 bf 9d 60 38 3f a6 7b e7 3f
       -2.4725518 -1.6694403 0.7202242 1.808461
0001f0 99 c5 ec be eb 45 b8 bf b1 d6 41 be ac de eb 3f
       -0.46244505 -1.4396337 -0.18929555 1.8427329
000200 7b 82 79 bf 52 98 a9 3f d3 92 7c bf 57 c6 a0 3f
       -0.9746472 1.324961 -0.98661536 1.2560529
000210 7d 14 ec be 1b 46 8c bf a5 35 b3 be 56 45 bd 3f
       -0.4610938 -1.0958894 -0.35001865 1.4786785
000220 03 63 a3 bf 4f d7 1a be 00 13 d0 3f 60 2a 86 40
       -1.2764591 -0.15121196 1.6255798 4.1926727
000230 e2 ff fb 40 13 ba 7e 3f 88 a2 b6 bc 54 57 ea 3e
       7.8749857 0.99502677 -0.022294298 0.4576975
000240 25 03 b2 bf 07 24 7e 3f 0d 93 21 c0 ff fb d3 bf
       -1.390721 0.99273723 -2.5246003 -1.6561278
000250 01 d8 f9 be 3d f2 93 be 3e 10 b4 bf 13 10 4a 3f
       -0.4879761 -0.2889575 -1.4067457 0.7893078
000260 3f 67 81 3f 85 a4 6f bf 93 5e 6b bf 90 4c a0 bf
       1.0109633 -0.9361041 -0.91941184 -1.2523365
000270 5f 24 0b 40 53 36 9a bf 86 82 00 3f e5 21 67 bf
       2.174095 -1.2047828 0.5019916 -0.90286094
000280 7e 2a 8a 3f 0f 8f 64 bf 1e f4 e5 bf 80 a6 44 bf
       1.0794218 -0.8928079 -1.7965124 -0.7681656
000290 44 43 67 bf e9 3f 9c 40 21 5d 71 3f e1 42 ad bf
       -0.90337014 4.8828015 0.9428273 -1.3536035
0002a0 87 bc 77 bf 6a 85 00 bf 5a 7e 03 3f 37 1a 82 bf
       -0.96772045 -0.50203574 0.5136467 -1.016425
0002b0 3c 37 03 be b9 45 b9 bf 02 bb bb bf c6 d6 bf be
       -0.12814039 -1.4474403 -1.4666445 -0.37468547
0002c0 25 85 52 bf 6e 41 a1 bf 42 a3 22 c0 ba b8 81 be
       -0.8223441 -1.2598093 -2.5412145 -0.25336248
0002d0 1d 10 97 3f 15 bd f4 be 57 b5 f5 bf df 44 8d c0
       1.1801792 -0.47800508 -1.9195966 -4.414657
0002e0 47 73 74 be 54 38 bd 3f df 75 38 40 5b 78 f4 3f
       -0.238721 1.4782815 2.8821943 1.909923
0002f0 51 4c a9 40 58 d0 af bf df 7c 1c bf 00 2c 00 40
       5.290566 -1.3735456 -0.6112804 2.0026855
000300 d1 2b f1 bf ce be 1b bf ea 23 13 40 20 51 cb 3e
       -1.8841497 -0.6083802 2.299067 0.3971033
000310 41 1b 93 be 45 0f ae 3e a6 48 84 3f 3a 06 8a 3f
       -0.2873173 0.33996025 1.033467 1.078315
000320 bb c4 44 c0 ae b5 3a 3e 4b 66 75 bf 8d b5 23 3e
       -3.0745075 0.18233368 -0.9585921 0.15987225
000330 e2 a5 00 40 70 9f e2 3d 74 09 8f 3f da ac b6 bf
       2.0101247 0.110655665 1.117476 -1.42715
000340 47 b5 68 40 82 c9 d2 be 47 98 82 3f ce 66 e2 be
       3.6360643 -0.41169363 1.0202721 -0.4421906
000350 f3 2c 81 3f bf a9 0a 3f 8c 70 16 3f be 4f 44 3e
       1.0091842 0.5416526 0.5876548 0.19171044
000360 f4 20 41 40 a9 bc 2d 3f dd 73 51 3f eb ed 3c bf
       3.0176363 0.67866 0.8181742 -0.73800534
000370 f2 47 4f 40 a0 a9 77 3c 92 0e da be 7d fd a6 3e
       3.2387662 0.015116125 -0.4258924 0.3261527
000380 22 c4 9d 40 fb 89 11 c0 8e f5 b7 3f 7f 1c 53 3f
       4.930192 -2.2740467 1.4371812 0.82465357
000390 8b e3 6e 3f 46 fd 08 bf 03 5f a5 3f 53 b9 02 be
       0.93315953 -0.53511465 1.291962 -0.12766008
0003a0 15 7e 04 40 ea b3 6a be b8 e2 a0 bf 74 8a 3d be
       2.0701954 -0.22920194 -1.2569189 -0.18509847
0003b0 37 cd a4 c0 d5 56 29 bf 40 27 a2 3e 52 91 8c bf
       -5.1500506 -0.6614812 0.3167057 -1.0981848
0003c0 96 67 fe bf b1 c5 b8 3f a6 37 4c 3f 90 cf 6c bf
       -1.9875362 1.4435331 0.7977241 -0.92504215
0003d0 12 b0 e0 bf 7a 20 43 3f 9b 72 12 c0 bc ba a2 be
       -1.7553732 0.7622143 -2.288245 -0.31783092
0003e0 7f a7 ab 3e 42 b3 61 bf d8 da 06 be 90 56 40 bf
       0.33526227 -0.8816415 -0.1316942 -0.75132084
0003f0 79 3c 98 bf e1 3d 85 be 65 d6 91 3e 24 04 82 bf
       -1.1893455 -0.26023772 0.28483883 -1.0157514

bias f4 [27]
000000 98 77 51 bf f0 ca f2 3e 6e e5 7c be 2c ef a5 3f
       -0.8182311 0.47420454 -0.24696895 1.2963614
000010 2c 18 a2 3f 3b 7d 8a 3f f3 f7 e8 be cc 25 3f bc
       1.2663627 1.0819467 -0.4550167 -0.011666726
000020 b3 ce 63 3f 7c 5a 20 3f b8 db 03 c0 da a7 2e 3f
       0.8898727 0.6263807 -2.0602856 0.6822487
000030 a6 b6 03 3f 6e 57 31 3f 79 71 97 3c e3 ee b4 3e
       0.51450574 0.6927403 0.018486725 0.35338506
000040 55 7d 75 3e 87 d6 be bf a7 07 e5 3f a3 a5 a1 3f
       0.23973592 -1.4909219 1.789296 1.2628673
000050 1f b1 19 40 76 f4 49 bf bd 13 11 bf f5 a9 dc bf
       2.4014356 -0.7888864 -0.56670743 -1.7239367
000060 b4 ce 32 c0 ee 61 8b bf 39 5a a3 bf
       -2.7938662 -1.0889261 -1.2761909
