locales/uk/lstm_model-uk-UA.pth (torch, 281639 bytes, 7 tensors)

weight f4 [36, 12]
000000 67 66 32 c0 68 8c 8a c0 19 8b 24 40 f8 ac 30 bf
       -2.7875001 -4.3296394 2.5709898 -0.6901393
000010 32 0c b7 3f a1 ef 2d 3d ab 65 61 40 f7 cf 2c 40
       1.4300597 0.042464856 3.5218303 2.7001932
000020 ad 91 af 3f 7d 69 54 c0 90 38 b8 bf 90 49 45 40
       1.3716332 -3.3189385 -1.4392262 3.082615
000030 c8 82 0f 40 43 c0 14 bf b1 39 4e bf 11 d6 84 3f
       2.2423573 -0.5810587 -0.8055678 1.0377828
000040 bd 19 53 40 52 0b 2c c0 29 98 78 3f ca fe 8c 3f
       3.298446 -2.688191 0.9710718 1.1015255
000050 ea 5b 97 bf 5f d5 4c bf 06 51 0e bf 75 61 cd 3f
       -1.1824925 -0.8001308 -0.5559238 1.6045367
000060 f0 e7 47 bf e3 13 cb bf 30 e0 83 3f 8d c1 a8 be
       -0.78088284 -1.5865444 1.0302792 -0.32960168
000070 af 51 a3 3f 02 b3 45 be b4 9f 45 40 91 82 4e be
       1.2759303 -0.19306567 3.0878725 -0.20166995
000080 61 3f 59 3d d9 10 8b bf df a6 5f bf 59 82 88 3f
       0.05303896 -1.0864516 -0.87364 1.0664779
000090 a5 7a e1 3e ef 3c 1f 3f a9 84 d9 3f fe a3 29 3f
       0.44038883 0.6220235 1.699361 0.6626586
0000a0 9c a1 af 3f 30 25 a2 3f da 7b 99 be 3e 5a b8 be
       1.3721194 1.2667599 -0.29977304 -0.3600635
0000b0 cb e2 4a 3f 07 5a 20 40 a3 57 35 be 8f 28 03 bf
       0.7925231 2.5054948 -0.17709212 -0.5123376
0000c0 37 ff 03 3d df 5c 82 bf fc 33 51 3f ea 00 31 3f
       0.032225814 -1.0184592 0.81719947 0.6914202
0000d0 35 0e df bf 3d f9 10 40 a0 1f 82 3f dc 60 b5 3f
       -1.7426211 2.2652123 1.0165901 1.4170184
0000e0 03 85 d9 be d8 55 f4 bf f4 5a 84 3e ea 68 8c bf
       -0.42484292 -1.9088697 0.25850642 -1.0969517
0000f0 c4 1c 97 3f 09 db b6 bf 0c 76 fd 3d b5 2e 69 be
       1.1805654 -1.4285594 0.12376031 -0.22771724
000100 34 31 00 bf 98 af 00 3f 8d d0 a4 bf b7 48 eb 3f
       -0.5007508 0.50267935 -1.2876145 1.8381566
000110 35 a6 95 bf 7e f6 68 bf 27 08 60 3f 0f 50 84 c0
       -1.1691347 -0.9100112 0.8751244 -4.134773
000120 af 6f 26 c0 87 63 77 bf d4 e5 16 3f 41 5c e0 3f
       -2.6005666 -0.9663624 0.5894444 1.7528154
000130 94 c4 86 bf 66 59 55 3f be b3 d5 be 40 be 9b 3e
       -1.0528741 0.83339536 -0.41738695 0.30418587
000140 ed 39 8a bf 98 39 c6 be 0a d2 bc 3f 2c c5 02 bf
       -1.0798928 -0.38715816 1.4751599 -0.5108211
000150 0c b9 a0 3f 97 79 df 3f 83 62 eb 3f c6 7a ec bf
       1.2556472 1.7458981 1.8389438 -1.8474967
000160 39 e9 07 c0 c9 5b 6e bf c3 d1 06 40 d0 e4 92 3f
       -2.1236098 -0.93108803 2.1065528 1.1476078
000170 9d b4 77 bf 93 9c 4d be bf e4 5f bd 76 ad 53 3e
       -0.9675997 -0.2007926 -0.05466151 0.20671639
000180 42 bf 2b 3f b4 ed 09 c0 91 be 03 c0 28 07 ca 3e
       0.6708871 -2.1551332 -2.0585063 0.39458585
000190 66 07 87 3c 58 07 d5 3e 34 98 35 3e df 04 85 3f
       0.01648302 0.41607165 0.17733842 1.0392112
0001a0 23 e7 47 be 22 4b 24 40 e5 fc fe bf 10 c7 73 3f
       -0.19521765 2.5670857 -1.9920927 0.9522562
0001b0 81 54 d9 be 02 11 88 3e 29 66 07 be 91 99 e0 bf
       -0.42447284 0.26575476 -0.13222565 -1.7546865
0001c0 67 73 82 3d 0d 25 08 3f f1 40 24 3f 34 83 ac 3e
       0.063696675 0.53181535 0.6416159 0.3369385
0001d0 78 85 02 c0 ea 03 38 bf 2a ca 17 3f d3 66 96 3e
       -2.0393963 -0.7188097 0.5929285 0.29375324
0001e0 29 f6 1b c0 50 11 84 bf b0 54 0f 3f 55 11 b4 bf
       -2.4368994 -1.0317783 0.559886 -1.4067789
0001f0 05 48 ab 3f a7 31 73 bf f7 eb 41 bf 56 eb 74 bf
       1.3381354 -0.9499764 -0.7575068 -0.95671594
000200 00 57 88 bf 7c b7 86 bf e5 12 cf 3e d5 f0 7c bf
       -1.065155 -1.0524745 0.40444103 -0.9880498
000210 a6 4e f5 bf 10 e8 83 bf a7 18 03 bf f7 a3 8b bf
       -1.9164627 -1.0305195 -0.5120949 -1.0909413
000220 ec 5d c3 3f 34 34 38 40 4f 57 25 bf 5b 42 9e 3f
       1.5263038 2.8781862 -0.6458635 1.2364
000230 5f 0f 3c bf 79 72 b9 be 40 d1 5c bf 14 1d ab bf
       -0.73460954 -0.36220148 -0.8625679 -1.3368249
000240 67 0c 95 bf 3e 44 b5 3f e3 b5 13 c0 d7 ec 01 c0
       -1.164441 1.4161451 -2.3079765 -2.0300806
000250 ba 50 9b 3f aa bb 8c bf d6 a7 b7 3d d8 d8 a4 3f
       1.2134011 -1.099477 0.08967559 1.2878675
000260 5e 14 e9 3e da de 42 3f 9a eb 3e bf ac a9 8f 3e
       0.4552335 0.76121294 -0.7457825 0.28059137
000270 4c f2 b6 3e 65 dc be 3e 2e 2b 39 c0 4c 44 ae 3f
       0.35731733 0.37277523 -2.8932605 1.3614593
000280 d8 a8 30 c0 5a 17 61 3f e7 c5 03 bf fd 8b 15 bf
       -2.7603054 0.87926257 -0.5147385 -0.5841673
000290 88 f0 56 3c ee 49 a9 3e 99 b0 4e 3e a5 87 4b be
       0.013118871 0.33064216 0.20184554 -0.19875963
0002a0 89 c1 9e bf 6a f8 c8 3e d9 42 a0 be 1d c3 ea 3e
       -1.2402812 0.39252025 -0.31301 0.45851985
0002b0 13 b9 57 3e 0c 0b 3e c0 62 8b 9e bf 55 cb ec 3f
       0.21066694 -2.9694242 -1.2386286 1.8499552
0002c0 92 3f 0a 3e 77 6b e3 bf 85 7f 40 40 22 2f 1c bf
       0.13500813 -1.7767171 3.0077832 -0.6100942
0002d0 83 c3 a5 be 5f 02 06 40 51 88 aa 3e 37 16 2c 40
       -0.32375726 2.0938947 0.33307126 2.688856
0002e0 1e 73 f1 3b ec f0 85 3e 5b 06 b6 3f 23 fe df be
       0.0073684594 0.2616037 1.422069 -0.43748578
0002f0 ff 4c 3c bf e2 cf b2 bf 23 03 78 3f 6f 29 d3 bf
       -0.73554987 -1.3969691 0.96879786 -1.649702
000300 9c be 37 40 3d df 8f 3f f0 a5 42 3e fc df 5e bf
       2.8710089 1.1240002 0.19008613 -0.87060523
000310 db a1 97 3d 0a 50 90 bf 01 ea e1 bf 81 84 3f bf
       0.07403918 -1.1274426 -1.7649537 -0.7481156
000320 78 9c 36 3f 25 95 ba bf 9c 31 23 3f fc 20 12 3f
       0.713325 -1.4576765 0.6374757 0.5708158
000330 37 cf 8a 3e 32 d3 f1 3f 62 41 1a 3d 88 ff ee 3f
       0.27111217 1.8892577 0.03766001 1.8671732
000340 6b e0 4a bf 03 3e e8 3f 7d aa af be d6 6d 2e 40
       -0.79248685 1.8143924 -0.3430976 2.7254539
000350 f6 ce ea 3f d2 d9 bf 3e 51 c3 c7 bf a7 a0 2e 3f
       1.834441 0.3747087 -1.5606481 0.68213886
000360 b5 e4 f8 3f 75 89 b8 bf 2b 71 75 3f e8 a9 07 bc
       1.9444796 -1.4416949 0.95875806 -0.008280255
000370 57 c8 cd bf 00 e8 f8 3e 8a e7 4b 40 3c 37 d4 be
       -1.6076764 0.48614502 3.186007 -0.4144839
000380 0a 30 08 c0 68 b1 93 bf 54 60 59 40 cf f5 1d 3f
       -2.127932 -1.1538515 3.3965044 0.617032
000390 92 32 75 3f a7 10 8c 3f 88 49 0d bf 9a be d5 3e
       0.9578029 1.0942582 -0.55190325 0.4174698
0003a0 86 14 13 bf 13 3a a6 be 75 63 a9 bf aa 11 1d 3d
       -0.5745319 -0.32466182 -1.3233477 0.038346924
0003b0 ff f2 1e c0 27 7b 4c bd 30 5b 93 bf 71 7e ac 3f
       -2.4835813 -0.049922135 -1.1512203 1.3476087
0003c0 d0 5c 66 bf 20 18 1e 40 36 f8 e1 3e 55 b1 ff be
       -0.8998537 2.4702225 0.44134682 -0.4993998
0003d0 1a 9a 33 bf 73 bb ea 3f 95 f7 b7 be bd 85 69 bf
       -0.70157015 1.8338455 -0.35931078 -0.91219693
0003e0 f7 60 38 40 f6 b1 06 c0 cb 87 b9 3f 57 80 d1 be
       2.8809183 -2.1046119 1.4494566 -0.40918228
0003f0 bc d7 16 c0 76 fa 5c be ac 7c a8 be ac d9 e3 bf
       -2.3569174 -0.21579918 -0.32907617 -1.7800803

weight_ih_l0 f4 [480, 12]
000000 78 38 8c be 52 d5 22 3e 03 fe 2b 3e 9b 2b ec bd
       -0.27386832 0.15901688 0.16796117 -0.115317546
000010 2e ca c1 3e 57 96 a9 3e 9e 11 47 bf cf 66 14 3d
       0.37849563 0.33122513 -0.77761257 0.03623086
000020 5d b9 a4 be 95 e6 81 be 79 c0 04 be bd 31 07 bc
       -0.3217267 -0.25371233 -0.12964047 -0.008251605
000030 de ed 16 3e 7e 13 26 3e 82 a5 00 3e 76 7e 94 bd
       0.14739177 0.16218373 0.12563136 -0.07250683
000040 73 76 8d 3e 65 0b 9b 3e f7 85 eb bc 3f c7 dd 3e
       0.27629432 0.3028213 -0.028750403 0.43316075
000050 3a a6 e1 3e ef f6 1c be fc df 74 3b a8 49 dd 3d
       0.44072133 -0.15328573 0.003736495 0.108050644
000060 8a 24 87 3e cc e4 b3 3e 06 87 3e 3f e4 52 4c be
       0.26395065 0.35135496 0.7442478 -0.19953495
000070 26 49 96 3e 81 7a 67 3e 7b 26 d0 be ce 7e 3c 3e
       0.29352683 0.22605325 -0.40654358 0.18407747
000080 56 ed e6 be 72 38 80 bf 92 71 ee 3e ca 8c 47 3e
       -0.45102948 -1.0017226 0.46571022 0.194873
000090 42 b2 09 be 04 40 91 3e 35 39 b1 bd 40 5f e3 3e
       -0.13446906 0.28369153 -0.086534895 0.44408607
0000a0 d7 8d 18 bf b1 7d 5f 3e 28 ae ad be 93 6d 81 bf
       -0.5959143 0.21825291 -0.33921933 -1.0111564
0000b0 53 38 7a be a7 ad 73 be 1c 40 a2 3d ce 5d 9c be
       -0.24435548 -0.23796712 0.07922384 -0.30540317
0000c0 da c3 a7 bd 28 5c 2a 3f 3e a9 68 bf 91 82 95 3f
       -0.081916526 0.6654687 -0.90883243 1.1680471
0000d0 db 51 e2 be 11 af 43 3e 8b c0 b8 3d 0c 87 76 be
       -0.44203076 0.19109751 0.090211 -0.24074954
0000e0 94 c1 f5 3e 76 3c 22 3f 3e e9 f8 3d 01 ae 80 be
       0.4799925 0.63373506 0.121538624 -0.25132754
0000f0 12 2e 8c 3e 4a 91 ef be dc 44 2b 3e 61 b3 20 bf
       0.273789 -0.46790534 0.16725487 -0.6277371
000100 f4 7a a3 3e 56 42 22 bf a2 c2 45 3f 15 17 d8 bd
       0.31929743 -0.6338247 0.7725011 -0.105512775
000110 a5 29 23 3d 50 d1 ef bd 06 fa a6 3e f4 d3 1c be
       0.039834637 -0.11709845 0.32612628 -0.15315229
000120 4f d8 41 be 02 13 f1 bd cb 6b b2 bc 39 23 53 be
       -0.18930171 -0.117712036 -0.021779915 -0.20618905
000130 85 b3 73 3e d2 7d 04 be 40 0c 20 bd 3e 66 9e be
       0.2379895 -0.12938622 -0.039074183 -0.3093738
000140 f2 bb 0a 3f 15 91 a4 bd 1d 0f 5a 3e ae 0c 5a bf
       0.5419303 -0.08035485 0.21294828 -0.851756
000150 ee 96 14 bf d5 df bc be 51 4b 1b 3f 5a ac dc 3e
       -0.580428 -0.3688952 0.606618 0.43100244
000160 a0 cc d2 be 20 79 74 3e d9 5e d9 3e 35 8b 02 3f
       -0.4117174 0.2387433 0.42455176 0.50993663
000170 84 f9 11 3e b8 1f d0 3e ee d4 22 3d f2 bc e1 be
       0.14255339 0.406492 0.039753847 -0.44089466
000180 85 57 71 be 12 84 94 be 8a b1 7b 3e 17 28 8a be
       -0.23568542 -0.29007012 0.24579445 -0.2698371
000190 d9 2b 1e 3e 27 41 e9 3e 92 b2 7e 3e cf 71 36 3e
       0.15446414 0.4555752 0.24872807 0.17816852
0001a0 33 7c 96 3e 61 04 22 be 6a 31 31 bd e5 26 24 3e
       0.2939163 -0.15821983 -0.043260016 0.16030462
0001b0 89 6c fb bd d8 83 94 bf 8c 14 ed be 87 42 23 bf
       -0.12276561 -1.1602736 -0.4630474 -0.6377339
0001c0 23 ed 07 bf 8e 53 c7 3c 63 ee d7 3c 6b 4c fc bd
       -0.53096217 0.024331834 0.026358789 -0.12319263
0001d0 2b 10 8e be 78 f7 15 bf 16 fb 4c 3f 29 08 78 3e
       -0.2774671 -0.5858073 0.80070627 0.24221863
0001e0 9e 7d 7d 3d d1 2d 56 bd 5d 43 fa 3e 00 5c 12 bf
       0.061887376 -0.052289788 0.4887952 -0.5717163
0001f0 81 af fc be 6c eb d4 bb 48 9a d2 3e 17 2b 5c bf
       -0.4935265 -0.006497791 0.41133332 -0.8600325
000200 4e 00 c1 3d 1a c0 9e bf ac 9f 13 3f ee 91 d5 bd
       0.09423886 -1.2402375 0.57665515 -0.104282245
000210 0c 29 c6 bd b2 b9 ce 3e 5c 33 8a 3e 16 c0 2d bf
       -0.09675798 0.4037605 0.2699231 -0.67871225
000220 88 09 62 be 21 fd 1b bf ee db 7a 3f 48 ba f5 be
       -0.22073948 -0.6093312 0.97991836 -0.47993684
000230 91 e4 f5 3e d3 d2 32 bf 86 11 41 3f fb 95 76 3e
       0.48025945 -0.6985294 0.75417364 0.2408065
000240 c2 02 dd 3e 15 9c c0 3e e6 75 0a 3e 8d a6 26 be
       0.43166167 0.3761908 0.13521537 -0.16274472
000250 07 32 0a 3e 58 72 d1 3d a5 c2 9b 3e bc 07 a6 3b
       0.13495646 0.102268875 0.3042194 0.00506684
000260 00 64 09 3f 94 9e b0 be dc dc 18 3f e9 1b 17 be
       0.5366821 -0.34495986 0.59712005 -0.1475674
000270 aa e2 91 be 05 c3 4b bf 51 72 b9 be 61 69 b7 bd
       -0.28493243 -0.7959445 -0.3622003 -0.08955646
000280 06 1a 88 3e 37 74 d7 be ca cf 95 be bf d6 a2 3d
       0.26582354 -0.42080852 -0.29260093 0.07951116
000290 7c b3 43 bd 0b 83 6f 3f aa 81 7c 3f 3c 73 d0 bd
       -0.04777859 0.9355933 0.9863535 -0.10178229
0002a0 73 f4 2e 3e a1 b9 91 be 84 11 d6 bd cd 76 cd 3e
       0.17085437 -0.28461936 -0.104525596 0.401297
0002b0 6a 92 48 bf d9 06 84 3e 07 60 a2 3e aa d2 d4 bb
       -0.7834841 0.25786474 0.31713888 -0.0064948397
0002c0 33 bd f0 bd 33 4b 14 be 34 bf cc 3e 9a fd 2d 3e
       -0.11754837 -0.14481811 0.39989626 0.16991273
0002d0 8d 0c 8d be e8 c0 0c be a7 b4 c9 3e c9 46 4b 3d
       -0.27548638 -0.13745463 0.3939564 0.049628053
0002e0 51 2b 3b 3f d1 d1 1e bf 52 d4 c2 be 35 12 9c 3e
       0.7311297 -0.62038904 -0.38052613 0.3048264
0002f0 40 0d e3 bd bf 2c a7 3d 93 ee 8e bc 02 2b 19 3e
       -0.110865116 0.081628315 -0.017447745 0.14957812
000300 d9 ca 71 3e 54 0c f2 be 66 28 10 3f ba 26 c9 be
       0.23612536 -0.4727503 0.56311643 -0.3928736
000310 cf a0 b8 3d b0 fd 71 bf 57 00 2f 3f b1 da 7c bd
       0.09015047 -0.9452772 0.68359894 -0.061731998
000320 97 4d d8 be 90 9c 2a be 8c 97 21 3f 2e 0d cd bc
       -0.42246696 -0.16661286 0.6312187 -0.025030699
000330 db d9 d1 be 2f 96 c7 be ed 7e 17 bf 85 98 0c be
       -0.40986523 -0.38981768 -0.5917805 -0.13730057
000340 93 52 5e bf 8f 1a 5d bd 66 f0 07 3e 2a 78 16 3f
       -0.8684475 -0.053980406 0.13275298 0.58777106
000350 e0 96 be 3e 42 09 95 3e d6 63 f0 3e fa 75 84 be
       0.37224483 0.29108626 0.4695117 -0.2587126
000360 6e 07 0a 3f 1d 2d 14 3e e1 da 10 bf 80 68 f5 bc
       0.53917587 0.14470334 -0.5658398 -0.029957056
000370 bd c2 17 bf cf 17 ce be ad dd 3f bf 59 3d bb be
       -0.5928152 -0.4025254 -0.74947625 -0.36570242
000380 79 33 8c bf cc c7 cd be 16 fa 20 3e 26 44 02 bd
       -1.0953208 -0.40191495 0.157204 -0.031803273
000390 be a7 39 3f a9 2c a7 3e 18 ac 28 bf 17 36 2b 3f
       0.7252158 0.3265126 -0.65887594 0.6687941
0003a0 da 14 8f be 4c a4 40 3f 1b 81 39 3f cd 8b eb 3d
       -0.27945596 0.752507 0.72462624 0.11501274
0003b0 3b 47 ef 3e b5 94 01 bf 04 dd 80 be 84 40 f2 3d
       0.46734032 -0.50617534 -0.25168622 0.11828712
0003c0 58 25 d9 3e ff 7b 92 be df cf 7c 3e 75 ed 6d be
       0.42411304 -0.28610227 0.24688672 -0.23235114
0003d0 21 27 0e 3f 07 d9 22 3e 3b 56 0c 3f 34 96 d4 bc
       0.55528456 0.15903102 0.5481908 -0.025950529
0003e0 1d 69 56 be bc a8 f3 3d 6f 0e 69 3e d4 56 b5 be
       -0.20938535 0.11897418 0.22759412 -0.35417807
0003f0 7f 96 a8 3e ce 34 af ba be 77 11 3e 52 37 2e 3f
       0.3292732 -0.0013367177 0.14205834 0.6805316

weight_hh_l0 f4 [480, 120]
000000 77 b4 56 bd b1 f2 98 3e 48 8e 27 bd 54 80 c1 3e
       -0.0524182 0.2987266 -0.040907174 0.3779322
000010 02 0c 26 bb 8a 26 f0 3d 3f c9 09 3e cd 68 70 3d
       -0.0025336747 0.11726101 0.13455676 0.058693696
000020 42 56 74 3e d6 4b 36 3d 73 c1 8c be 39 4d 8d 3e
       0.2386103 0.044505917 -0.2749134 0.2759798
000030 11 67 39 3e 59 a2 b4 bd dd b7 81 be 54 d7 1d be
       0.18105723 -0.08820028 -0.2533559 -0.15414172
000040 41 6b 5e 3e 30 5a 15 bc 15 cb 9a 3e 98 5b fc 3d
       0.21720602 -0.009115741 0.30233064 0.123221576
000050 88 d2 17 be cc 01 03 3f 9d a5 75 3e c2 6a 5d 3d
       -0.14826405 0.51174617 0.23988958 0.05405689
000060 10 4f 4b 3f 53 33 c4 be d3 7d 4d be f8 53 45 3e
       0.79417515 -0.38320407 -0.2006753 0.19270313
000070 d5 ab 8f be 4d db 0d bf 28 a4 be be a8 52 45 be
       -0.28060785 -0.5541275 -0.37234616 -0.19269812
000080 0b e4 a2 be 45 03 e1 3e 80 c2 e4 3e f5 60 b6 3d
       -0.31814608 0.43947807 0.44679642 0.08905212
000090 72 4a 20 3e fa 35 90 3e be 1a 2e 3d 5b b8 04 3f
       0.15653399 0.2816618 0.042505972 0.51843804
0000a0 7d 64 ed be 95 2a 38 3e c8 d1 ee 3e c7 af 0f bf
       -0.4636573 0.17984994 0.46644425 -0.5612759
0000b0 7a e2 81 3e 48 df 50 3f aa 02 28 be 2c 3d 8a 3d
       0.253681 0.815907 -0.16407266 0.06749949
0000c0 2b 97 d9 be 78 26 5d 3e 2d 74 80 bd 0c 59 2c 3e
       -0.42498145 0.21596706 -0.06272159 0.16830844
0000d0 4c d7 07 bf 14 79 b3 be 97 ae 21 3e d1 83 42 be
       -0.5306289 -0.35053313 0.15789257 -0.18995596
0000e0 0e d1 99 be 24 66 06 bd a5 19 0b 3e 96 be bb be
       -0.3004231 -0.032812253 0.13584001 -0.36668843
0000f0 c4 dd 19 be ef 7f 68 bf 26 49 7a be 68 83 ed bc
       -0.15026003 -0.9082021 -0.24441966 -0.028993323
000100 ef fd 4b 3c 90 12 1f bd 73 cc 94 be 05 dc 04 bf
       0.012450679 -0.038836062 -0.29062232 -0.51898223
000110 ec 94 72 be a9 b8 0a be f9 24 25 bd 7b 19 50 3d
       -0.23689622 -0.13547005 -0.040318463 0.05080555
000120 8c 87 b3 be 68 7b 50 be 9c 29 af 3d 54 04 75 be
       -0.35064352 -0.20359576 0.08552858 -0.23927432
000130 5e 99 b4 bd 13 97 99 be 26 ad ed 3e 41 73 cb 3e
       -0.08818315 -0.29998073 0.46421164 0.3973637
000140 b1 36 3e 3d b8 76 03 be ec 42 d4 bd 9e a0 fb bd
       0.046438877 -0.12838256 -0.10364327 -0.12286495
000150 55 cc 12 3f 0c c7 f7 be 47 ff dc 3d 19 1f be 3d
       0.57343036 -0.48394048 0.10790878 0.09283275
000160 2e eb 12 bd 33 c0 19 3d 71 57 fa be 35 39 1e 3d
       -0.035868816 0.03753681 -0.48894837 0.038628776
000170 22 82 85 3d e5 a6 80 bd 90 3e 77 3e c7 b3 e4 be
       0.065189615 -0.062818326 0.2414496 -0.4466841
000180 e1 6c 39 be 18 88 20 3e c7 74 2b 3e 5b 6f 28 be
       -0.1810794 0.15676916 0.16743766 -0.16448729
000190 b6 f7 c7 3e b7 ba 79 3e 7b 6c 19 bf af bb 1c be
       0.39056176 0.24387632 -0.59931153 -0.1530597
0001a0 17 f9 64 be a4 b2 9f be f5 77 e3 3e 21 e4 90 be
       -0.22360645 -0.3119098 0.44427457 -0.2829905
0001b0 7c aa 6f 3c 89 95 82 bd 62 d9 0f be ec dd 05 bd
       0.014628049 -0.06376178 -0.14047769 -0.032682344
0001c0 72 40 a1 3e 27 ab fe bd a6 9d 82 be 12 8e 78 be
       0.3149448 -0.124349885 -0.255109 -0.24272946
0001d0 68 0d c0 bd d5 86 da be c1 5b 86 3e 82 b4 56 bd
       -0.09377557 -0.42680994 0.26241878 -0.05241824
0001e0 ff c6 e7 be a4 70 5c bd 35 03 5d bd 91 c8 5d 3f
       -0.4526901 -0.05381836 -0.053958137 0.86634165
0001f0 35 27 4e 3d 60 d5 84 3e 83 c9 a8 3c ba 91 45 3d
       0.05033036 0.25944042 0.0206039 0.04823468
000200 22 b9 14 3e 00 cd cb be 28 f2 84 bd 75 1f c9 3d
       0.14523748 -0.3980484 -0.064915 0.09820453
000210 19 37 42 be 1e f4 83 3e ef 4f 07 3e 66 30 09 3e
       -0.1896633 0.25772184 0.13214086 0.13397369
000220 30 e5 35 be 80 fb 89 3d 93 57 04 be 2d 54 52 bd
       -0.1776321 0.06737423 -0.12924032 -0.051349808
000230 d9 79 5b be 48 19 8f be ed db af 3e e9 3a bc bc
       -0.214332 -0.27948976 0.34347478 -0.02297731
000240 bb 23 c5 be d4 e5 93 3e a4 b1 b1 3d ba 8e 31 3d
       -0.38503823 0.28886282 0.086764604 0.043349005
000250 b6 ca 01 bf 87 83 da be 8d a6 cf 3c c9 12 62 be
       -0.5069994 -0.42678472 0.025347972 -0.22077478
000260 96 0d 41 be 53 5f b7 3d e0 b9 b6 be a1 dc b3 be
       -0.18852839 0.089537285 -0.35688686 -0.35129264
000270 ae 82 a1 3d 2a 76 44 3d 4e c8 c1 3d 81 d9 0d 3e
       0.07886253 0.047964253 0.09462033 0.13852502
000280 46 1e 0a bf 7b 00 ac 3c 56 c0 34 be c9 ae c0 3c
       -0.53952444 0.020996323 -0.17651495 0.023520844
000290 47 c1 12 bd 04 50 ac bd 95 8b de bd d0 b1 20 3e
       -0.035828855 -0.08413699 -0.10866467 0.1569283
0002a0 e2 a1 92 be 01 a3 0e be 0b 81 a3 3d 7f 2f fb be
       -0.28639132 -0.13929369 0.07983597 -0.49059674
0002b0 62 9a a3 3e 0f b3 96 bd 7d 95 bc 3d 59 af 80 bd
       0.31953722 -0.073583715 0.092082 -0.06283445
0002c0 37 b4 5c bd b1 61 cc be 8c b3 57 3d 96 00 24 bf
       -0.053882804 -0.39918283 0.052661464 -0.64063394
0002d0 7a 00 ff 3e 01 7f fe 3e c4 f4 81 3e 0d 8f 4f bd
       0.4980505 0.4970627 0.25382054 -0.050673533
0002e0 bb ec f4 bd de 74 19 3d 00 a4 7f be a8 74 6e bd
       -0.11959215 0.03746497 -0.24964905 -0.05821672
0002f0 1f 3c 82 be c8 ba 01 be 97 e9 7e 3d 1a 37 8d be
       -0.25436494 -0.12668908 0.062234487 -0.27581102
000300 d7 cd 18 3e f9 e4 1d 3e 52 3d be be 94 f5 27 3d
       0.14922272 0.15419377 -0.3715616 0.041005686
000310 3e 57 02 be cc 05 50 3e a1 ce 2e 3d 21 dc ba 3d
       -0.12728593 0.20314711 0.042677525 0.091240175
000320 2f de ea bc 40 3e 5b bd 43 d5 99 3b 10 13 23 3f
       -0.028670399 -0.053526163 0.004694612 0.6370096
000330 95 80 23 3d ad de de bd 77 a0 e2 3d ea e8 98 be
       0.039917547 -0.10882316 0.110657625 -0.298652
000340 6d 87 4f 3e 40 53 a3 bd 4f 5c c3 be e5 c4 3a bd
       0.20266505 -0.07974863 -0.38156363 -0.04559793
000350 e9 bf 33 3e 08 d2 e0 3d 75 f5 3d bd 01 3b 60 3e
       0.17553677 0.1097756 -0.046376664 0.21897508
000360 e4 f9 ac 3e 49 b7 d4 3e 8a f7 56 3e ad 84 22 be
       0.337844 0.41546085 0.20992866 -0.15870924
000370 e7 1d 79 3d 88 2f b1 bd f8 8c bc bc 18 05 54 be
       0.060819533 -0.08651644 -0.023016438 -0.20705068
000380 43 2f 7e be f2 40 74 bd ca bc 78 3e 88 80 da 3c
       -0.24822716 -0.05963225 0.24290767 0.026672617
000390 20 ef 81 3e 3c 69 0e bd d0 99 63 3e 37 3a 13 3f
       0.2537775 -0.034768328 0.22226644 0.57510704
0003a0 f7 6b 29 be fe 82 45 3e 86 43 65 bd 01 f6 e2 3d
       -0.16545092 0.19288251 -0.0559726 0.11082078
0003b0 10 14 84 3e af f2 a4 3e c7 09 7f 3d 72 ee 8c 3e
       0.25796556 0.32216403 0.062265184 0.2752567
0003c0 12 9a ad 3e 23 8f c6 3e 96 e5 09 bd fa 6e 7b bd
       0.3390661 0.3878108 -0.033666216 -0.061385132
0003d0 fe f2 40 bf 81 43 6c 3e 22 a2 cc 3e 29 42 3f be
       -0.75370777 0.23072626 0.39967448 -0.18677582
0003e0 5f 08 30 3e d4 00 b0 3e 26 b4 63 bf bb 7d 3e be
       0.17190693 0.34375632 -0.8894676 -0.1860265
0003f0 99 ca 95 3d d3 9f 67 3e 18 15 4a be b5 71 ac 3e
       0.07314033 0.22619562 -0.19734609 0.33680502

bias_ih_l0 f4 [480]
000000 e2 dc 8b 3d 98 93 af bb dc b8 70 3e a1 e0 1e 3e
       0.068292394 -0.0053581707 0.23508018 0.15515377
000010 2a 1d 21 be 3c 12 9e 3e 86 ad 89 3e 73 89 a0 3e
       -0.15733781 0.30873287 0.268902 0.31354865
000020 36 12 90 3e a3 47 1a 3e cd 28 83 3e 0f 6b 88 3c
       0.28138894 0.1506639 0.25617066 0.016652612
000030 ce 5a 7c 3e ef 7d 51 3d c5 d3 a7 3e 43 10 30 3d
       0.24644014 0.05114549 0.32778755 0.04298426
000040 86 84 6f 3e 6b 94 ac 3e 5b e2 90 3d ec 08 63 3e
       0.23390397 0.33706984 0.07074424 0.22171372
000050 a9 d9 49 3e 82 f4 ac 3d fe e8 29 3e f3 99 4c 3e
       0.19711937 0.08445074 0.16592786 0.19980602
000060 f7 6d 4f 3e 26 5a 8a 3e 0d 16 95 3e ab 63 0b be
       0.20256792 0.27021903 0.29118386 -0.13612239
000070 30 4f 8b 3e 8d c7 1e 3e 4f 53 06 3e c5 64 c6 3a
       0.27208853 0.1550581 0.13117717 0.0015136233
000080 e1 f9 0a 3e 48 a1 10 3d 65 ef 8e 3d 6a 82 89 3e
       0.13571884 0.03531006 0.06979255 0.2685731
000090 c3 c8 b6 3e 68 c8 90 3d bd 6e ba bc 9a a3 cf ba
       0.35700044 0.070694745 -0.022757882 -0.0015841604
0000a0 de b3 9e 3e 51 39 0a 3e b9 a3 b6 3d 3c d8 7f 3e
       0.30996603 0.13498427 0.08917946 0.2498483
0000b0 ce eb a8 3e b5 55 52 3d 06 9d ec 3d 90 de 66 3e
       0.32992405 0.051351268 0.11553387 0.22545838
0000c0 8c 9b 05 3e 44 77 5b 3d 7a f3 59 bd 9d a0 3b 3e
       0.13047618 0.053580537 -0.053210713 0.18322988
0000d0 81 6e 67 3e 2d 50 12 3e f7 41 f5 3d 91 e0 cd 3d
       0.22600748 0.14288397 0.119754724 0.10052598
0000e0 a0 96 86 3e 00 21 bc 3d c2 a5 41 3e 79 ff 73 3e
       0.26286793 0.09185982 0.18910888 0.23827924
0000f0 55 58 81 3d 2b 5b 80 3d 12 fd 01 3f b6 4b 56 3e
       0.06315676 0.06267389 0.5077678 0.20927319
000100 d6 98 6f 3d 90 f1 84 3d 7b 0e 51 3e 49 7c 24 3e
       0.058495365 0.06491387 0.2041568 0.16063036
000110 e0 07 40 3e 00 ef 44 3e b6 33 14 3e 72 16 c8 3c
       0.18753004 0.19231796 0.14472851 0.024424765
000120 49 fc 72 3e 4e 4e 4f 3e e6 71 34 3e ce e2 32 3e
       0.23729052 0.20244715 0.17621574 0.17469332
000130 fd 72 89 3e a1 26 8a 3e dd ae a1 3c 74 a0 86 3e
       0.26845542 0.26982597 0.019736702 0.2629429
000140 bb ed 8d 3e 62 b7 34 3e 6e ee c6 3d 44 da 4d 3e
       0.27720436 0.1764808 0.097134456 0.20102793
000150 e0 5f 41 3e 34 72 ba 3d a7 a0 36 3e 94 7f f1 3d
       0.1888423 0.09103814 0.17834722 0.11791912
000160 7b ff ca 3d 37 d2 d2 3d 20 84 e0 3d 0a da 84 3e
       0.0991201 0.102940015 0.10962701 0.259476
000170 c6 8b 53 3e 44 86 3c 3e fe eb 09 3e 18 dd 8e 3e
       0.20658788 0.18410593 0.1346893 0.27903056
000180 9c 34 01 3e 6e 18 55 3e 04 23 a7 3d 0d ca 0f 3e
       0.12617725 0.208101 0.081609756 0.1404192
000190 91 e4 1a 3e b5 03 9e 3d cc 7b cb 3e e0 11 d8 3e
       0.15126254 0.07715551 0.39742887 0.42201138
0001a0 9a 48 b8 3e 7d 51 7b 3e 4d a6 9f bc 76 8e 22 bd
       0.3599289 0.24542804 -0.019488478 -0.039686643
0001b0 5b b8 31 3e 04 56 0d 3d bb 27 7d ba 09 0f 30 3e
       0.17355482 0.03450586 -0.00096571044 0.17193235
0001c0 f9 5e 63 3e 09 ad f5 3d de fe d2 3d 47 d9 a7 3e
       0.22204198 0.119958945 0.10302518 0.32782957
0001d0 1d fe cd 3d 70 81 6b 3e e4 45 3b 3e 03 94 60 3e
       0.10058234 0.22998595 0.1828838 0.21931462
0001e0 60 14 ad 3c 0d 94 ec 3d 92 7b a9 3d a5 cf 67 bd
       0.02112788 0.11551676 0.08275522 -0.05659451
0001f0 ad be 41 be 52 d7 ae be 88 25 39 be 01 a3 0b 3e
       -0.18920393 -0.3414865 -0.18080723 0.136364
000200 18 6d 64 3e 6a 96 fb 3c a3 1f 44 be b2 78 55 3d
       0.22307241 0.030711371 -0.19152693 0.052117057
000210 41 99 dc bd 1e b3 b1 bb 51 9e c8 be 33 f1 7e be
       -0.10771418 -0.0054229638 -0.39183286 -0.24896698
000220 65 bb 1d be 89 a1 d5 bc 1a 08 a8 3d 48 92 e2 3b
       -0.15403517 -0.026078003 0.0820467 0.0069144107
000230 62 78 d0 bd b3 ae 03 be 40 5b d6 ba 97 e2 74 be
       -0.10179211 -0.12859611 -0.0016354099 -0.23914562
000240 3a f3 f5 bd e1 09 42 be 53 d0 5f be 4e 10 dd 3e
       -0.120092824 -0.18949081 -0.21856813 0.43176502
000250 00 0b 54 be 05 a9 90 be ea 53 53 bd 05 c2 31 3d
       -0.20707321 -0.28253952 -0.0515937 0.043397922
000260 b0 c3 81 be f6 f0 50 bd b2 22 80 bd 5f 71 01 3e
       -0.2534461 -0.05101105 -0.062566176 0.12640904
000270 0e dd b1 be a2 d4 35 bd 75 31 51 be cb d6 0e be
       -0.34738964 -0.044392236 -0.20429023 -0.13949125
000280 47 f7 2f 3e 2b ab 75 bc 8d 64 22 be 1f 7c c3 bb
       0.17184173 -0.014994423 -0.1585867 -0.005965724
000290 14 46 8c bd 04 eb bd be 67 7e fc bd 82 33 16 be
       -0.06849304 -0.37093365 -0.12328797 -0.14668086
0002a0 d5 9f 2a be 5f 6e 6e bd 07 2a 15 3e 54 18 2a be
       -0.16662534 -0.058210727 0.14566813 -0.16610843
0002b0 fa 0a c7 bc db 61 3d be cd 59 bd 3d 34 3a 46 3e
       -0.024297226 -0.1849436 0.09245644 0.1935814
0002c0 0f 7a 32 3e 3c 2c 11 be c4 78 8b 3d 23 6f b1 bc
       0.17429374 -0.1417703 0.068101436 -0.02165944
0002d0 c7 da 69 bd 3c 19 97 3b 1b 03 85 be ba bd 7b 3d
       -0.057093408 0.0046111625 -0.25978932 0.061460234
0002e0 1e d9 54 be 55 49 24 be 3d 66 12 be d9 3d c3 3c
       -0.20785949 -0.16043599 -0.14296813 0.023833202
0002f0 fa 74 b5 3c cc 4a c7 bd cb 61 9b bc 61 f7 eb 3d
       0.022150505 -0.09731063 -0.01896753 0.11521793
000300 58 ca 1c be 19 d5 10 3e 90 b2 cc bd 17 88 80 ba
       -0.15311563 0.1414379 -0.099949956 -0.0009806183
000310 0e f5 65 3e 65 77 8b 3d 8f b1 86 ba 4b fe c9 be
       0.22456762 0.06809882 -0.0010276305 -0.39451823
000320 2b a5 85 3d a0 3e fb bc 14 5c 98 3d 25 10 f4 bc
       0.06525644 -0.03066951 0.074394375 -0.029792855
000330 67 01 44 be 32 a7 ee bd 99 4d dc 3d c7 72 ab be
       -0.1914116 -0.11652984 0.10756988 -0.33486006
000340 0d 77 3a be e0 5c 85 be 9d c9 c7 bd ea 77 4a be
       -0.18209477 -0.2604742 -0.097552516 -0.19772306
000350 7b 7d 4a 3b 97 19 fb bd ad d5 b5 bd d2 ad d6 3b
       0.0030897546 -0.1226074 -0.08878646 0.0065514827
000360 a2 97 08 3d 91 fe 51 be 4d 70 45 bd 5d b0 5d 3d
       0.033347733 -0.20507266 -0.0482028 0.05412327
000370 42 04 a1 bc 7c b3 89 3e 40 8a 6d be 67 dc 95 be
       -0.01965535 0.26894748 -0.2319727 -0.29269716
000380 a5 d8 c8 bd 44 1d 2b be c9 3f 11 be 20 93 be be
       -0.09806947 -0.16710383 -0.14184488 -0.37221622
000390 9b 5f 01 be 0b 62 48 3e 16 bf b3 bd 6d 1d 87 be
       -0.12634127 0.1956865 -0.08776681 -0.26389638
0003a0 c7 02 7b 3e 58 8e f6 be 3d b9 be bd 69 50 3c be
       0.24512778 -0.48155475 -0.09312675 -0.18390049
0003b0 64 41 33 3e bb 41 33 bd 1b 6a 82 bd 30 d9 2d 3e
       0.17505413 -0.043763857 -0.06367894 0.16977382
0003c0 c3 b2 be bd 12 97 0a 3d b0 d0 65 be 85 be a5 3d
       -0.0931144 0.033835478 -0.22442889 0.08092979
0003d0 8a 5f 83 3e 13 64 8b 3d 5a 9d 60 3c 7d b7 89 be
       0.25658828 0.06806197 0.013709391 -0.26897803
0003e0 9f 8f 65 3e c7 15 6a be 47 00 91 bd d4 20 6d be
       0.22418068 -0.2285987 -0.07080131 -0.23157054
0003f0 0f b0 95 3d 53 f8 db bd 60 3d 24 3e b2 96 84 bd
       0.07308971 -0.107407235 0.16039038 -0.06474055

bias_hh_l0 f4 [480]
000000 b0 2b 53 3e 1f d0 01 3e 3d ee b8 3e bd 42 53 3e
       0.20622134 0.12677048 0.3611926 0.20630927
000010 aa d5 8c bd 7e cf 48 3e 72 74 a7 3e 05 0a 65 3e
       -0.06876691 0.19610402 0.32706028 0.22367103
000020 9e a1 82 3e 76 32 7a 3e ed e7 46 3e 8f d2 a2 3d
       0.2551393 0.24433312 0.1942441 0.07950317
000030 b2 c4 83 3e c5 6c d8 3c f1 d1 91 3e 67 f9 05 3d
       0.25736004 0.026419053 0.28480485 0.03270855
000040 7d ab 87 3e 75 3a 7c 3e 1d f6 04 3e dc d2 49 3e
       0.26498023 0.24631675 0.1298451 0.19709343
000050 f1 04 3a 3e a3 32 fd 3c 1a 95 30 3e 3d 7b 56 3e
       0.18165947 0.030907935 0.17244378 0.20945449
000060 f0 4f c0 3d 62 6b 9c 3e 75 0e 88 3e 80 1b 00 be
       0.09390247 0.30550677 0.2657353 -0.1251049
000070 52 e0 bb 3e 99 ac a5 3d ab c7 11 3e a0 f4 16 3e
       0.3669458 0.08089561 0.14236324 0.14741755
000080 01 b2 0e 3e 4a c8 f5 3d 53 c7 d3 bc 77 6b 8c 3e
       0.1393509 0.12001093 -0.025851881 0.2742574
000090 a7 4f 92 3e f4 2b 88 3d 89 74 ec 3d 18 75 f2 3c
       0.28576395 0.066490084 0.11545665 0.02959685
0000a0 26 36 75 3e 23 b5 72 3e 13 24 ee 3d 42 68 aa 3e
       0.23946437 0.2370191 0.11627974 0.33282667
0000b0 7c 05 9e 3e 6b 7b 18 3d fc 58 72 3e 01 a6 99 3e
       0.3086356 0.037227076 0.23666757 0.30009463
0000c0 9e f5 18 3e 31 8f e4 3c ee 18 ad bd 8f a5 8e 3d
       0.14937446 0.02790031 -0.084520206 0.069651715
0000d0 e4 1b 78 3e e1 39 01 3e a5 58 dd 3d 6e d4 13 3e
       0.2422939 0.12619735 0.10807923 0.14436504
0000e0 0e 69 7b 3e 76 e3 de 3d 1d 2d 9a 3e f2 44 07 3e
       0.24551794 0.108832285 0.30112544 0.13209894
0000f0 3d 1c 9d 3d 20 99 59 bd 28 11 b5 3e c4 93 6f 3e
       0.07671402 -0.053124547 0.35364652 0.23396212
000100 ed 06 e4 bc 54 0c 3a 3d a6 76 7a 3e d9 fa 3d bc
       -0.027835334 0.045421913 0.24459323 -0.011595451
000110 ac 60 20 3e b3 f7 91 3e 07 bc 4b 3d c8 34 47 3d
       0.15661877 0.28509292 0.049739864 0.04863432
000120 29 6b 6b 3e 69 29 83 3e ae e4 34 3e 0a 2d 93 3e
       0.22990097 0.2561753 0.1766536 0.287453
000130 34 84 59 3e 6f d0 96 3e ba 82 fe bc bd 85 b3 3e
       0.21241838 0.29455897 -0.031068195 0.35062972
000140 c5 5a 7c 3e f2 63 3c 3e 28 33 44 3e 5c b2 c4 3d
       0.24644001 0.18397501 0.1916014 0.09604332
000150 66 b3 30 3e ae 4e 69 3e bf 59 23 3e 14 5d 24 3e
       0.17255935 0.2278392 0.15952204 0.16051131
000160 84 e0 61 3d fa 4c 59 3e 72 d6 16 3e e1 78 4e 3e
       0.055145755 0.2122077 0.14730242 0.20163299
000170 c4 e0 8e 3e d8 7f 23 3e 10 4b 0f 3e 8a 1c 0c 3e
       0.27905858 0.15966737 0.13993478 0.13682762
000180 ec d4 42 3e 6c 29 6e 3e a4 75 fc 3d f9 9a 80 3e
       0.19026536 0.23257989 0.12327126 0.25118235
000190 93 35 bb 3c f2 a5 1f 3e f0 d0 ce 3e 46 f3 cf 3e
       0.022852695 0.15590647 0.40393782 0.4061529
0001a0 49 c1 80 3e 7a 15 13 3e 46 a9 55 3d 4f 76 ac bc
       0.25147465 0.14363661 0.052163385 -0.021052508
0001b0 8d ab 55 3e 65 57 4e 3e 03 bb 29 3d 82 25 9b 3d
       0.20866223 0.20150526 0.041438114 0.075755134
0001c0 f7 50 92 3e 2e c3 f0 3d 7c 96 3a 3d 8a 06 1e 3e
       0.28577396 0.117559776 0.04555367 0.15432182
0001d0 cf a3 87 3e 96 a6 39 3e b9 5c e6 3d 11 5f 4f 3e
       0.26492164 0.18129954 0.11248154 0.20251109
0001e0 89 06 ee bc 7a 97 11 3e 4d 15 63 bc df 8a 1f be
       -0.02905585 0.1421794 -0.013860059 -0.15580319
0001f0 d3 2f f1 bd 0e 73 9c be 0c f9 2b be 20 39 45 3e
       -0.117767 -0.3055653 -0.16794223 0.19260073
000200 33 80 9e 3e 2b 9a d2 3d d3 1c 16 be 44 20 5b 3d
       0.30957183 0.102833115 -0.14659433 0.053497568
000210 b5 92 18 be df de 23 3e 2e 33 7c be 8f 1e 62 be
       -0.14899714 0.16002987 -0.24628899 -0.2208197
000220 f1 1d 2c be 19 6d b1 3d 48 e7 6c 3d 5d 7d 4f bd
       -0.16808297 0.08663387 0.057837754 -0.050656665
000230 d3 6a 2d bd 9e a7 b9 bd 7d 63 69 bd 0f c9 e1 bd
       -0.042338204 -0.090651736 -0.056979645 -0.11024677
000240 ba 58 86 be 7b 38 40 be 11 c9 4d be 6a e8 a2 3e
       -0.26239568 -0.18771546 -0.20096232 0.31817943
000250 28 72 3e be 15 4d 86 be 56 a9 b8 3d 05 09 dd 3c
       -0.18598235 -0.26230684 0.09016673 0.02698184
000260 34 13 a4 be 46 fd 25 be 2d a7 0a bd 4c c6 12 3e
       -0.320459 -0.16209897 -0.033850837 0.14333457
000270 bc cf c0 be 1e a2 18 3d 09 f5 5f be 54 ea a1 bc
       -0.3765849 0.037263982 -0.21870817 -0.019765057
000280 16 9d 3a 3d b8 65 ef 3d c4 d3 f3 bd 4d da bb 3d
       0.045559965 0.11689323 -0.119056255 0.09172497
000290 41 99 9d bc 0a 34 a0 be d5 0a 2e bd e7 b3 2e be
       -0.019238116 -0.31289703 -0.0424908 -0.17060815
0002a0 ae c8 17 be aa b6 3d bd ea 20 55 3e ce c6 54 be
       -0.14822647 -0.04631678 0.20813337 -0.20778963
0002b0 fa 98 96 bd 3f 02 55 be e6 04 46 3d 01 59 81 3d
       -0.07353397 -0.20801638 0.048344515 0.06315804
0002c0 db 0a 20 3e fd cc 63 bb 54 08 8f 3d 7d a9 e0 3d
       0.15629141 -0.0034759634 0.0698401 0.10969827
0002d0 6e f0 89 bb ec 1d 6a 3d e0 2c 85 be 46 fc ee 3c
       -0.0042095697 0.057157442 -0.260108 0.029173028
0002e0 17 5b d9 bd 93 f6 bf bd d0 08 3a be 0d a4 ce 3c
       -0.10613077 -0.09373202 -0.18167424 0.02522471
0002f0 72 eb 33 bd 08 68 3f be b0 03 14 bc 22 c7 1b 3e
       -0.04392571 -0.18692029 -0.009034082 0.15212682
000300 c2 a7 1f be 6c be a7 3d b6 90 d8 bd bf c5 8d bd
       -0.15591338 0.08190617 -0.105744764 -0.06922483
000310 90 6c bd 3d d8 04 6a 3d 86 78 90 3c a2 13 a3 be
       0.09249222 0.057133526 0.017635595 -0.31850916
000320 c0 ce 34 3e d1 c3 81 3d 29 8d 13 3e 51 4b 24 be
       0.17656994 0.06336177 0.14409317 -0.16044356
000330 5d 0a da bd 2c 51 27 be fc 16 b0 3d 3d f6 92 be
       -0.10646508 -0.16339558 0.08598134 -0.2870349
000340 a6 a6 0f be c3 31 31 be 61 e5 21 be 8f 70 05 be
       -0.14028415 -0.17304139 -0.15810157 -0.13031219
000350 58 62 b6 3b 2b 3c 08 be 45 15 d4 bd 80 11 f7 bb
       0.0055659227 -0.13304202 -0.10355619 -0.007539928
000360 08 d4 b0 3d 8a 18 a8 bd 54 9d a1 3c 05 e3 c2 3c
       0.08634192 -0.082078055 0.01972834 0.023789892
000370 36 80 17 be 45 07 02 3e 80 3e 87 be 89 df 6c be
       -0.14795002 0.12698086 -0.2641487 -0.23132147
000380 f0 af 60 be 88 99 92 be e2 da 4a be d2 4c 9b be
       -0.21942115 -0.2863276 -0.1981006 -0.30332047
000390 6e ff e0 bd 60 77 12 3e 2c f9 62 bd 39 6f 73 be
       -0.10986219 0.1430335 -0.05541341 -0.23772897
0003a0 bf 31 6f 3e be 99 a5 be bf 4e 91 bd 59 0c 03 bd
       0.2335882 -0.32343858 -0.07095098 -0.031994198
0003b0 7a 0e ed 3d 1f 88 d8 bc 50 d7 9f bd f5 87 ea 3c
       0.11575027 -0.026432095 -0.078047395 0.028629282
0003c0 0d c6 9c 3d f5 7e 9d 3d ac a0 83 be 37 04 a4 3d
       0.07654963 0.07690231 -0.2570852 0.080086164
0003d0 5e f0 20 3e c3 9a ae bc 7d 9d 6d bd 88 0b 8a be
       0.15716693 -0.02131403 -0.05801152 -0.26961923
0003e0 13 cc 87 3e a5 d4 25 be 26 65 dc bd c8 1a 35 be
       0.26522884 -0.16194399 -0.1076148 -0.17685997
0003f0 07 c5 ca 3d 80 00 55 be 14 15 0f 3c b0 d6 b8 bd
       0.09900861 -0.20800972 0.008733053 -0.090253234

weight f4 [36, 120]
000000 d6 14 14 3d 41 57 d7 3e c3 cd 0c 3f a1 d3 c4 3e
       0.036152683 0.42058757 0.5500147 0.3844271
000010 b6 1b 0a 3f 16 00 31 3f 59 91 a1 3e 76 13 b9 bd
       0.53948534 0.69140756 0.31556204 -0.09036915
000020 f3 a0 f8 3c 96 08 c9 bc aa cf 0b 3f 32 5c 2e be
       0.030350184 -0.024540227 0.54613745 -0.17027357
000030 e3 fd 15 3f 29 20 73 bd db 00 a2 3d 89 74 4b 3f
       0.58590525 -0.059356842 0.079103194 0.79474694
000040 f0 75 c7 bd a9 fa bc be 64 64 a2 be 9a 9c 8d 3e
       -0.09739292 -0.3690999 -0.31717217 0.2765854
000050 1d fe 04 3f 7d c4 1f bf c6 c5 5c 3e 0d 11 7e be
       0.51950246 -0.6240919 0.2155982 -0.24811192
000060 3d e8 e5 3e 24 d7 33 3f 0e ad 42 be 99 66 1b bf
       0.44903746 0.70250154 -0.19011328 -0.60703427
000070 74 15 fc bb 1f 3d 2e bf d8 2b 35 bc db 4e 97 3b
       -0.007692987 -0.68062013 -0.011057816 0.0046175546
000080 f6 ad 60 bf b2 7b ed be e2 51 34 bd 44 0b 71 3e
       -0.87765443 -0.46383435 -0.044023402 0.23539454
000090 d6 65 ea 3d 8c aa 96 be 2d 60 73 be 26 eb c1 be
       0.11445205 -0.29426992 -0.23767157 -0.37874717
0000a0 51 a6 59 be 5a 70 e6 3e 4f 80 11 bf 9f 50 46 3d
       -0.21254851 0.45007592 -0.5683641 0.04841673
0000b0 1f 89 87 3e b6 23 2a 3f 2a fa 4b 3f 20 78 a1 3e
       0.26471803 0.6646074 0.79678595 0.3153696
0000c0 68 99 f2 be d8 af c4 3e d9 a2 ee 3d 3e af 0c be
       -0.47382665 0.38415408 0.116521545 -0.13738725
0000d0 ad 03 7e be 80 1f 06 3d a2 5e be be cb fe a2 3e
       -0.2480609 0.032744884 -0.37181574 0.31835017
0000e0 1d 3d bf bd d8 a7 98 be 8d 6c 05 be c1 38 13 bf
       -0.09337828 -0.29815555 -0.1302969 -0.57508475
0000f0 30 a4 5c 3d d7 54 9e 3d e4 8d 92 3c b2 8e 81 be
       0.05386752 0.07731026 0.017889924 -0.2530418
000100 70 f2 b0 3e 16 35 ee 3e 5a 80 ca be 2d 34 49 be
       0.34559965 0.46524876 -0.3955105 -0.1964881
000110 a6 a0 af be 39 a0 f5 3e 97 92 08 bd 64 e7 f9 bd
       -0.34302253 0.47973803 -0.033342924 -0.122023374
000120 a0 dd 80 bf 5d 28 50 be 1d 11 73 bd 9b 7f 70 be
       -1.0067635 -0.20327897 -0.059342492 -0.23486178
000130 01 49 0b be 7a 76 e6 3e 32 f6 c6 3e ed 7c 8d 3e
       -0.13602068 0.45012265 0.38859707 0.27634373
000140 7f 4d a9 3e 47 22 70 3e f1 62 9d 3d 78 2f 0f bf
       0.33066937 0.23450576 0.07684887 -0.55931807
000150 43 72 b3 be c6 94 ab 3e 2f b4 71 3d ff f2 d0 3e
       -0.35048112 0.33511943 0.059009727 0.4081039
000160 9c 11 27 bf a5 ce 6c be a9 61 4c 3f 28 8c ad 3c
       -0.65261245 -0.23125704 0.7983652 0.021184996
000170 53 12 4a 3e bd 38 3e bd 1a 91 a1 3e 2f 99 c5 3d
       0.19733553 -0.04644083 0.31556016 0.09648358
000180 82 8e 87 3e 6c 95 9b bd e5 61 49 3e 6a 17 15 bf
       0.26475912 -0.07596859 0.1966625 -0.5823885
000190 36 72 9f be d3 da 79 3d 11 b5 e3 bd 92 23 b8 be
       -0.31141824 0.060999703 -0.1111852 -0.35964638
0001a0 6c 59 82 3d b9 54 fb 3e 7c 67 bb 3d ed 03 80 be
       0.06364712 0.49088076 0.091505975 -0.25002995
0001b0 17 ff 18 3e ad dd e4 3d b6 ae 20 3e cf 66 95 3e
       0.14941059 0.11175094 0.15691647 0.2918
0001c0 99 84 9b 3c 49 b0 fd 3c 05 8d 84 bc 73 7b 75 3e
       0.018984126 0.030967848 -0.016180525 0.23972873
0001d0 be 3f dd be ce 4c ac 3e 66 d0 78 bd 10 af 99 3c
       -0.43212694 0.33652347 -0.06074562 0.018760234
0001e0 c3 34 49 be ed c4 88 be 0f 7f d9 3e 24 90 08 bf
       -0.19649033 -0.26712742 0.4247975 -0.5334494
0001f0 bf 3d 09 3e 32 55 90 3d 54 12 d9 3c e0 14 12 3e
       0.1340246 0.070475 0.026497997 0.14265776
000200 e3 dc 6c bf da eb 24 bd 3a 91 e9 3e 1b 05 db 3d
       -0.92524546 -0.040263988 0.45618612 0.10694333
000210 75 a2 82 be 54 a9 61 3f 76 31 2b 3f ae 9a e6 be
       -0.2551457 0.88149 0.66872346 -0.45039886
000220 3c 53 53 bd 7d c4 95 bc cc cc d1 3e 61 72 15 be
       -0.05159305 -0.01828217 0.4097656 -0.14594413
000230 ca 89 24 3d 37 6c ee 3e 9e ce 55 bf 12 18 26 3e
       0.04017047 0.46566936 -0.835184 0.1622012
000240 ee fd 89 3e 5a 73 13 3f b2 88 a0 3d fb b5 21 be
       0.26951545 0.5759789 0.078385726 -0.15792076
000250 e0 0a d0 be 80 49 bf 3e 2a 0d ca 3e a8 03 12 3f
       -0.40633297 0.37360764 0.39463168 0.5703683
000260 75 46 e6 be d8 53 04 3f 01 f7 f8 3c f0 c5 a6 bf
       -0.4497563 0.51690435 0.030391218 -1.3029156
000270 77 31 af 3d 32 51 3c bc 9a ed 84 3e 01 6d c7 3d
       0.085543565 -0.011493968 0.25962526 0.09737588
000280 b3 46 ca bd b3 3e 08 be 2f a8 8e 3e c1 9c 98 be
       -0.09876766 -0.13305168 0.2786269 -0.29807094
000290 4f e0 8d bd c3 6b a0 bd 34 81 37 3f d0 a0 17 be
       -0.06927549 -0.07833054 0.71681523 -0.14807439
0002a0 a0 eb c3 bd 55 0b a7 3e d9 f2 7f 3e 4b f3 ed 3e
       -0.09566426 0.32625833 0.24994983 0.4647468
0002b0 58 22 a4 3e 60 bf d3 bb 42 e1 dc 3a 2b 77 8e 3e
       0.32057452 -0.0064620227 0.00168518 0.27825293
0002c0 c3 e9 c7 3c 23 55 0b bf bf 84 d5 be f5 a7 a8 bc
       0.024403458 -0.54426783 -0.4170284 -0.0205879
0002d0 8d ed 0e be 61 cf dd bd 29 6a 50 3d 86 79 f1 be
       -0.13957806 -0.1083057 0.050882492 -0.47163028
0002e0 52 cc fa be 8b 4c fb bd 2b db 8a be 68 e7 b7 bc
       -0.4898401 -0.12270459 -0.27120337 -0.02244921
0002f0 32 c5 15 3f 39 50 a5 bd 8e 2d 16 3f f1 15 d5 3d
       0.5850402 -0.08071942 0.5866326 0.104045756
000300 7a e2 06 3c 69 01 1b 3d 46 08 33 3f be d8 c5 3c
       0.008232707 0.03784314 0.699345 0.024151202
000310 d5 62 98 3f 90 38 7b bf 53 69 d5 3d ad 55 1b bf
       1.1905161 -0.9813318 0.104204796 -0.60677606
000320 a8 3b 03 bf 64 cb 0d 3f d3 7f 88 bf c2 d6 2a 3e
       -0.51262903 0.55388474 -1.0664009 0.16683486
000330 b0 68 66 3d 77 33 be 3d fd 2b 48 bd aa 72 eb be
       0.05625218 0.0928716 -0.048870075 -0.4598592
000340 81 22 e0 3e 43 13 15 bf d6 79 a6 be 42 13 3a 3d
       0.43776324 -0.58232516 -0.32514828 0.045428522
000350 03 ce 0a bd 06 03 92 bd 0e 76 c1 3d d0 e6 a8 3e
       -0.033887874 -0.07129483 0.09446345 0.32988596
000360 7a 4f 87 3d 2a 28 be 3e 93 64 3c 3f a7 41 99 bd
       0.06606956 0.37140018 0.73590964 -0.07483225
000370 79 f5 b4 3d e3 db a4 3e 1b a1 ee 3e 34 64 ad 3e
       0.08835883 0.3219901 0.4660729 0.3386551
000380 f7 18 d7 bd cd cb cc 3e a5 85 bf 3d 15 d1 bf be
       -0.105028085 0.39999238 0.093516625 -0.37464204
000390 47 5c fa 3e 12 a2 18 be 1e ff 81 3d 43 f6 80 3e
       0.48898527 -0.14905575 0.06347488 0.25187883
0003a0 2c 99 24 be a5 d6 85 bc 71 26 8c bd fa 6e fb 3e
       -0.16074055 -0.016337702 -0.068432696 0.49108106
0003b0 6e 1b e1 be e8 1a 31 bd 8e 97 76 be 56 a4 af 3e
       -0.4396624 -0.04323855 -0.24081251 0.34305066
0003c0 6e 1b 96 3d c3 75 9b bd 93 1b 1e 3e 27 14 56 bd
       0.073294505 -0.07590821 0.15440206 -0.052265313
0003d0 e5 41 42 bf 91 a1 4d 3f f6 90 32 bd f3 6c 41 3e
       -0.758818 0.80324656 -0.043595277 0.18889217
0003e0 a2 d8 19 3d dd 80 b3 3e cf 86 26 3f 6e c9 81 3e
       0.037560113 0.35059252 0.6504945 0.2534899
0003f0 ec 44 ac 3e 9d d3 ce bd d3 42 60 3f 80 67 1f 3e
       0.33646333 -0.10098956 0.87601966 0.15566826

bias f4 [36]
000000 d4 71 f9 bd be d1 95 be b5 90 4f be 77 5b ba bb
       -0.12179914 -0.29261583 -0.20270045 -0.005687173
000010 c5 11 c9 bd c0 88 7c bc d3 89 c3 bd d3 91 53 bc
       -0.098178424 -0.015413463 -0.09547772 -0.012913185
000020 2f f3 96 3d 9d 99 3c be f5 b1 6e bc 01 50 be 3d
       0.07370602 -0.18417974 -0.014568795 0.09292603
000030 0e 82 fb 3d 59 98 d8 3c b6 03 9c bb 5d 35 0a 3d
       0.12280665 0.026439833 -0.0047611846 0.033742297
000040 1d 5f 3e 3e f3 97 1f 3e 5d f7 03 bd 0e 29 b1 3d
       0.1859097 0.15585308 -0.032218326 0.08650409
000050 11 95 99 3c 21 78 28 3e 3d 53 58 bd e1 1a 6e bd
       0.018747838 0.16452076 -0.052813757 -0.058131102
000060 23 71 a7 bd 43 a8 ad bd e1 94 c9 bd 3b 53 e2 bc
       -0.08175876 -0.08479359 -0.098428495 -0.027627578
000070 b1 ae 98 be 41 48 4e be 13 56 9a bd 25 39 1c 3c
       -0.2982078 -0.2014475 -0.075359486 0.009535109
000080 05 67 e9 3c 00 b1 a0 3d 35 1e 30 be 56 49 51 be
       0.028491506 0.0784626 -0.17199023 -0.20438132
