locales/fr/lstm_model-fr.pth (torch, 313734 bytes, 7 tensors)

weight f4 [47, 8]
-9.845336 0.7377147 -7.3714223 -6.697786 6.1057487 1.3367403 -2.1363966 -16.268229
-2.0116963 0.25623003 -3.4067547 -4.3206706 2.903108 1.4115674 1.2909727 -5.718576
-0.52023965 2.5002646 0.48236114 1.5718502 0.6496623 -0.7611995 -0.32525718 1.8600757
-1.9630452 0.17189984 -3.999622 -4.5750117 3.7985785 1.4270017 1.4205983 -7.458721
-0.11345438 0.87300706 -1.4213006 -1.258697 0.9016656 -3.4656105 2.3214502 -0.7875414
0.83499306 -0.8093288 -1.904467 -0.5407581 0.22732717 3.146668 1.4127756 -0.0041759717
1.9251868 -3.0523524 -1.9879115 -0.43096244 -1.3699075 -0.21379198 0.6887683 -1.1531478
1.3408749 2.5440915 0.18471076 0.17864911 -0.9844175 0.7330661 -2.784181 1.2570033
-3.0451348 0.8775483 1.872216 0.28704533 1.0593457 -2.1553993 -0.26740023 -0.22120333
0.8174081 -0.5335216 0.19443212 -0.14686553 0.04683139 3.88776 -0.60463345 -1.8342311
-0.41276747 -3.1037548 0.7284523 -0.7311983 0.2027144 2.6050296 -0.17536013 2.7325656
-0.8724376 -2.771312 -0.34020516 1.7213948 -0.9051943 -0.8391894 0.5984174 1.0351429
-0.048004128 2.9813178 1.6828567 -2.3761983 -0.27583718 0.32988086 1.8224947 0.9978838
-1.9334428 0.23685268 -1.6567365 -0.20134115 -2.3866003 2.9648306 1.0264184 0.82530165
-3.081667 -1.578127 -2.6856036 0.84168535 0.27010295 0.15632486 1.4466255 1.1790859
-0.970984 0.7797888 -1.6343449 2.8317783 -0.918321 0.96606636 1.7246124 -0.102028534
0.43463522 -1.2864146 -0.8062175 -1.7306063 -0.69655365 -0.46670064 -1.8531657 0.6030438
-0.16121241 0.17226294 -1.0195562 0.08472411 0.23478186 -1.4975135 -1.4949046 2.1657991
-1.8296611 0.8785171 0.8745833 -2.575019 1.4954724 1.9660019 -0.35103545 -0.923084
-0.23391005 -2.7226257 -0.6986369 0.9325915 -0.73962045 1.6461132 -1.1527945 -2.8568578
-2.5498505 -1.5797564 -1.8770363 -3.965915 -3.6612294 2.788517 1.4593012 -2.78617
0.07843498 2.362836 -0.46007037 1.5786718 0.10254071 0.35602272 -1.4632491 -1.5893044
-0.0855925 0.02462439 1.030825 -0.82431895 -3.1082418 -0.7331382 1.2135576 -0.7502457
1.7946627 -0.37822464 0.8389469 0.20233561 -2.9671817 1.35981 -1.4056376 -0.34684482
1.8839399 0.18425405 1.8232096 0.9547603 2.313879 0.384905 1.8887333 -0.113440625
2.5981026 0.8551552 -4.0680985 -0.05160281 1.9098569 2.1542075 -1.2589036 0.71645415
0.5090391 1.701554 -1.9334832 0.22076525 0.1901629 -0.07439431 0.28814405 -0.32937515
2.396088 -1.4763653 1.9695135 1.800524 -0.13169692 -0.80295765 -1.5964386 0.64710456
-1.931403 -2.1967316 -1.846623 -2.300474 0.035516106 -1.4285543 1.8317153 1.8731096
-1.2958386 -0.24460465 0.05721998 0.16557884 -2.0802746 1.9204392 -2.4497104 -0.8526468
2.795361 1.3506333 5.4266753 2.6510546 -1.689674 -3.4950259 0.61923265 -1.7317115
1.6482435 0.25894704 0.2685496 -3.6861155 5.610548 -3.7284038 -0.77152294 -0.5469918
00000000: 7f86 1dc1 dfda 3c3f b1e2 ebc0 4354 d6c0
00000010: 4b62 c340 4e1a ab3f b9ba 08c0 5525 82c1
00000020: a2bf 00c0 9530 833e 4508 5ac0 ef42 8ac0
00000030: 85cc 3940 3eae b43f 983e a53f 93fe b6c0
00000040: 6d2e 05bf 5604 2040 0af8 f63e 6332 c93f
00000050: 4550 263f f8dd 42bf 1c88 a6be f616 ee3f
00000060: 1145 fbbf 8306 303e cff9 7fc0 7f66 92c0
00000070: e91b 7340 fea7 b63f 2ad6 b53f d8ad eec0
00000080: c55a e8bd 647d 5f3f 2eed b5bf fc1c a1bf
00000090: 8fd3 663f 90cc 5dc0 a492 1440 509c 49bf
000000a0: 1bc2 553f 2c30 4fbf 93c5 f3bf 1f6f 0abf
000000b0: 74c8 683e 0263 4940 d5d5 b43f 97d6 88bb
000000c0: 856c f63f be59 43c0 e273 febf 1ca7 dcbe
000000d0: 2159 afbf 49ec 5abe 1f53 303f 599a 93bf
000000e0: caa1 ab3f 65d2 2240 d124 3d3e cbef 363e
000000f0: c902 7cbf 38aa 3b3f 0630 32c0 7ce5 a03f
00000100: 7de3 42c0 01a7 603f c6a4 ef3f 9bf7 923e
00000110: a498 873f 10f2 09c0 afe8 88be 2083 62be
00000120: a841 513f df94 08bf 3719 473e eb63 16be
00000130: 46d2 3f3d 0fd1 7840 42c9 1abf 16c8 eabf
00000140: 4256 d3be eba3 46c0 da7b 3a3f d02f 3bbf
00000150: 5d94 4f3e ceb8 2640 9b91 33be 5be2 2e40
00000160: 1258 5fbf 2d5d 31c0 5f2f aebe aa56 dc3f
00000170: d0ba 67bf 1ed5 56bf e231 193f 907f 843f
00000180: fa9f 44bd e9cd 3e40 d967 d73f a213 18c0
00000190: 883a 8dbe 25e6 a83e 8247 e93f 5075 7f3f
000001a0: 0e7b f7bf 8289 723e f10f d4bf 602c 4ebe
000001b0: 0fbe 18c0 c9bf 3d40 ae61 833f f846 533f
000001c0: 083a 45c0 1100 cabf eee0 2bc0 b178 573f
000001d0: ef4a 8a3e a013 203e 062b b93f 49ec 963f
000001e0: 6892 78bf 3da0 473f 3732 d1bf db3b 3540
000001f0: 1617 6bbf 2050 773f 19c0 dc3f 56f4 d0bd
00000200: 8288 de3e 3ca9 a4bf 4564 4ebf 8284 ddbf
00000210: 5751 32bf 63f3 eebe 8934 edbf 1461 1a3f
00000220: de14 25be b265 303e d180 82bf d683 ad3d
00000230: a86a 703e 86ae bfbf 0959 bfbf 749c 0a40
00000240: 5632 eabf 7fe6 603f b1e4 5f3f 1ccd 24c0
00000250: a46b bf3f f3a5 fb3f ebba b3be 3c4f 6cbf
00000260: 1e86 6fbe 803f 2ec0 ded9 32bf 51be 6e3f
00000270: c457 3dbf d6b3 d23f c58e 93bf c2d6 36c0
00000280: c030 23c0 7535 cabf ba42 f0bf 8dd1 7dc0
00000290: 9551 6ac0 1077 3240 62ca ba3f 9c50 32c0
000002a0: 85a2 a03d b438 1740 588e ebbe eb11 ca3f
000002b0: dd00 d23d 9c48 b63e bf4b bbbf 546e cbbf
000002c0: 1f4b afbd 17b9 c93c 13f2 833f 9106 53bf
000002d0: 6fed 46c0 f2ae 3bbf db55 9b3f 1a10 40bf
000002e0: 82b7 e53f a9a6 c1be 39c5 563f 1131 4f3e
000002f0: 4ee6 3dc0 410e ae3f efeb b3bf a595 b1be
00000300: f124 f13f 18ad 3c3e ef5e e93f 2c6b 743f
00000310: 9816 1440 4512 c53e 03c2 f13f 8f53 e8bd
00000320: 5047 2640 74eb 5a3f dd2d 82c0 785d 53bd
00000330: 3176 f43f 89de 0940 c123 a1bf 8a69 373f
00000340: 6350 023f 85cc d93f 617c f7bf 4910 623e
00000350: 10ba 423e 0b5c 98bd 9e87 933e dca3 a8be
00000360: 8159 1940 8af9 bcbf 0519 fc3f 9277 e63f
00000370: 8fdb 06be a28e 4dbf 1a58 ccbf a5a8 253f
00000380: 3738 f7bf 4097 0cc0 245e ecbf f73a 13c0
00000390: 5679 113d deda b6bf a675 ea3f 0ec2 ef3f
000003a0: 0ade a5bf a479 7abe 7f5f 6a3d 808d 293e
000003b0: 3823 05c0 f4d0 f53f 0ec8 1cc0 1047 5abf
000003c0: 32e7 3240 8de1 ac3f 53a7 ad40 e1aa 2940
000003d0: 3d47 d8bf 81ae 5fc0 0886 1e3f b9a8 ddbf
000003e0: a5f9 d23f b594 843e 557f 893e 51e9 6bc0
000003f0: 9c89 b340 2b9e 6ec0 8782 45bf a807 0cbf

weight_ih_l0 f4 [512, 8]
-1.0158459 0.068558805 0.8471686 -3.098294 -0.5176629 -1.246271 0.33573937 -1.0678092
-0.98013794 0.48291925 0.025792627 0.6678469 -1.1949674 0.19047865 -0.43224877 0.86852366
2.912693 -0.5216961 -0.1288877 -0.22582035 -0.94939965 -0.08260239 0.6545477 4.4022794
-0.32368553 0.58857703 0.36610588 -0.10428034 -0.20338684 -2.2546525 2.1266773 -0.7721455
0.8060485 -0.76788104 0.6529588 -0.64046305 0.5986525 -1.0179396 -1.4405798 -0.80482095
1.3326535 -1.1593248 -1.4562157 -0.8029337 -0.5675648 0.5799774 -1.8290534 -1.0714873
-1.377843 -1.0733843 0.46912614 -1.1057577 -0.6349106 -1.0779041 -0.37499398 -0.8217242
-0.9315968 0.3200761 -0.8392114 -2.6402051 2.482574 0.08240995 2.744862 -0.57314825
0.6202341 0.82200205 0.93225515 -2.1832023 -0.5132646 0.4410514 -0.7247558 -2.3943186
-0.9616577 0.8579435 1.2709924 -0.24678086 0.14096424 -2.104839 1.161597 0.36605883
-0.4577749 -0.019340223 0.6826573 0.32624918 1.2023678 0.07463567 -0.44150528 0.47679985
1.0052464 -0.40646285 -1.0231315 -0.17481795 -0.04185157 -0.63090765 -0.61951244 -1.5426799
-1.2193098 1.6601053 0.4795586 1.3088585 -0.4384848 -0.51618916 -0.25899735 0.7120317
1.6237452 -1.4357986 1.107945 1.396251 -2.4055264 0.57144684 -1.3277075 0.15011749
-2.8300853 -2.1824532 0.36800814 -0.2823574 1.4207182 -0.32443428 -0.2895586 0.941816
2.47243 -1.0017636 2.1471398 0.038908944 -1.7496493 -2.4065773 -1.7423282 0.34374171
1.2592595 -0.47003895 -0.39558986 -2.1126068 0.044125225 -0.7104107 0.9169389 1.422883
0.22909102 1.3577511 1.639992 0.30308667 0.42634812 0.083360076 -0.12141402 1.807156
-0.14463139 -0.32879585 0.12703045 -0.6329348 0.28611624 -0.25138462 0.2254028 -0.07363725
2.330916 -1.4573126 -0.7466211 1.6144042 1.9346662 -1.5688804 1.7432348 0.33075598
-0.48355472 -0.07350939 -0.4541969 -0.5390276 0.02377445 0.029754512 -0.2500984 -0.31451234
-2.08804 1.1813707 -1.6031662 -0.48477343 0.19739114 -3.0956988 -0.85960937 -0.13571657
0.5005924 -2.3323722 -1.4738239 0.786015 0.65987873 0.11812223 -0.18051752 -0.5607427
0.053938746 0.27803898 -0.16292727 0.026490001 0.15543656 0.29476038 -0.010238473 -0.52512926
-0.4711123 -0.86616105 0.68018556 -0.0729734 0.07053186 1.7635522 1.3679633 -2.2819793
0.5867243 0.14717147 -0.19979817 -0.80823684 0.4577343 -1.9897891 -1.8056041 1.1322416
-1.7322026 -0.69796157 -2.996103 -0.2585342 1.0345696 0.40850344 0.1141982 -2.4064767
1.0149237 1.3159963 -0.2810431 0.26280728 -1.3280793 -0.30648673 0.4217447 -0.039481737
-1.985627 -0.095471755 -0.73075724 -1.0052928 2.7431161 1.6028495 -3.6946604 -0.63372624
1.5198473 0.5583274 0.45289245 -0.4732834 0.18558918 -0.122608736 -0.54471886 0.39457914
1.8577027 -1.193361 0.41917306 -0.17406343 -2.0400715 -1.0399562 1.80822 0.79520214
-0.056606654 -0.13868567 -0.4200015 -2.8505263 0.2322092 0.14943433 2.009137 2.7415092
00000000: 3d07 82bf 8f68 8c3d 0be0 583f 734a 46c0
00000010: 8e85 04bf cf85 9fbf 08e6 ab3e f9ad 88bf
00000020: 52ea 7abf 3141 f73e 0f4b d33c 04f8 2a3f
00000030: b1f4 98bf d60c 433e b64f ddbe 9157 5e3f
00000040: 9069 3a40 e08d 05bf 23fb 03be 733d 67be
00000050: db0b 73bf 712b a9bd 7090 273f 79df 8c40
00000060: 1cba a5be fcac 163f 3b72 bb3e ee90 d5bd
00000070: a444 50be 3a4c 10c0 7b1b 0840 54ab 45bf
00000080: 3259 4e3f da93 44bf 4f28 273f 63f5 23bf
00000090: 4a41 193f d84b 82bf eb64 b8bf bf08 4ebf
000000a0: 6494 aa3f c164 94bf 4765 babf 108d 4dbf
000000b0: ed4b 11bf 6679 143f 6c1e eabf 7f26 89bf
000000c0: 295d b0bf a864 89bf 4d31 f03e 7889 8dbf
000000d0: 8089 22bf c3f8 89bf 36ff bfbe 845c 52bf
000000e0: 217d 6ebf 04e1 a33e 8fd6 56bf 1ff9 28c0
000000f0: 7ee2 1e40 8cc6 a83d d2ab 2f40 d8b9 12bf
00000100: a9c7 1e3f ba6e 523f 46a8 6e3f 96b9 0bc0
00000110: 4f65 03bf 7dd1 e13e 9989 39bf 843c 19c0
00000120: 332f 76bf 2fa2 5b3f e1af a23f 1fb4 7cbe
00000130: ee58 103e afb5 06c0 36af 943f 106c bb3e
00000140: 7961 eabe 636f 9ebc a1c2 2e3f 220a a73e
00000150: 30e7 993f 96da 983d fb0c e2be 1c1f f43e
00000160: eaab 803f e61b d0be f9f5 82bf 7a03 33be
00000170: 8d6c 2bbd 2a83 21bf 5e98 1ebf 8976 c5bf
00000180: 5812 9cbf 557e d43f b488 f53e ad88 a73f
00000190: 1481 e0be f924 04bf 4d9b 84be b647 363f
000001a0: e2d6 cf3f 40c8 b7bf 24d1 8d3f 5ab8 b23f
000001b0: 25f4 19c0 574a 123f 52f2 a9bf 66b8 193e
000001c0: 1e20 35c0 50ad 0bc0 906b bc3e 2691 90be
000001d0: 18da b53f 401c a6be 0641 94be da1a 713f
000001e0: 4b3c 1e40 ca39 80bf bd6a 0940 fc5e 1f3d
000001f0: 82f4 dfbf 5d05 1ac0 9c04 dfbf eafe af3e
00000200: 6a2f a13f f2a8 f0be c18a cabe f334 07c0
00000210: a7bc 343d 7add 35bf 82bc 6a3f 0821 b63f
00000220: d696 6a3e caca ad3f 42eb d13f 2d2e 9b3e
00000230: 4d4a da3e b0b8 aa3d eaa7 f8bd e350 e73f
00000240: 401a 14be ee57 a8be 4514 023e 0408 22bf
00000250: d47d 923e 7cb5 80be fecf 663e 20cf 96bd
00000260: ba2d 1540 3889 babf 8f22 3fbf cca4 ce3f
00000270: 24a3 f73f 13d1 c8bf 5122 df3f d958 a93e
00000280: 7c94 f7be 178c 96bd 7f8c e8be b6fd 09bf
00000290: a3c2 c23c bcbf f33c e60c 80be c307 a1be
000002a0: 73a2 05c0 2837 973f 8d34 cdbf 3934 f8be
000002b0: e720 4a3e ee1f 46c0 5c0f 5cbf 49f9 0abe
000002c0: d326 003f 9645 15c0 43a6 bcbf 4738 493f
000002d0: d0ed 283f 11ea f13d 96d9 38be d58c 0fbf
000002e0: e0ee 5c3d 205b 8e3e 68d6 26be 8f01 d93c
000002f0: c32a 1f3e d5ea 963e 45bf 27bc df6e 06bf
00000300: a235 f1be bbbc 5dbf a420 2e3f 1473 95bd
00000310: 0273 903d 14bc e13f 6c19 af3f f30b 12c0
00000320: 9033 163f 1eb4 163e e497 4cbe 9ce8 4ebf
00000330: 265c ea3e 69b1 febf 091e e7bf 4bed 903f
00000340: d1b8 ddbf 9cad 32bf 27c0 3fc0 985e 84be
00000350: c76c 843f 5d27 d13e bfe0 e93d b703 1ac0
00000360: 05e9 813f 9172 a83f e2e4 8fbe ad8e 863e
00000370: 81fe a9bf d4eb 9cbe ecee d73e 9ab7 21bd
00000380: 0729 febf b286 c3bd e812 3bbf 6fad 80bf
00000390: 378f 2f40 2c2a cd3f 5175 6cc0 e23b 22bf
000003a0: 5b8a c23f 8bee 0e3f 85e1 e73e 3452 f2be
000003b0: 170b 3e3e 4a1a fbbd b272 0bbf 4706 ca3e
000003c0: 34c9 ed3f 0ec0 98bf da9d d63e af3d 32be
000003d0: 8890 02c0 491d 85bf c173 e73f 5e92 4b3f
000003e0: 61dc 67bd 9e03 0ebe 700a d7be 066f 36c0
000003f0: 40c8 6d3e 5005 193e b395 0040 e374 2f40

weight_hh_l0 f4 [512, 128]
-0.95857346 -0.28828436 0.86717254 0.094294846 1.5225276 -1.4091102 -0.99923235 2.947285
-1.0543936 -1.1204033 0.6714962 0.3027375 -2.1683662 1.0881382 -1.5387332 0.09563658
-0.977041 1.407018 1.9519762 1.3692906 0.041305266 0.9652416 -1.1638474 0.1332729
0.9597622 0.17143618 0.6358096 -2.2170408 -0.18970719 0.41307557 -3.6193 -0.583044
-0.48323315 -0.7459806 -1.2996478 0.6157383 -1.2883071 -3.7700255 4.8614345 0.11341175
-0.14136943 -0.47088763 -1.911303 -1.0530065 -4.1443796 -1.4272966 -0.090544835 0.055370566
1.8784825 -2.3155923 1.3722867 -2.601408 -1.120181 0.055879872 -2.018925 -0.83712065
-2.4839077 -0.6059029 1.9448011 1.3174723 -2.067986 3.2361286 1.2588222 -1.7845929
-0.45474946 2.6410851 0.030726502 -2.261677 1.2387774 -0.6789466 2.23625 2.1178465
-1.4473131 -1.5061848 -0.036475662 0.77420753 -1.279136 -0.65788585 -0.33424816 -0.34348723
-2.9548852 -0.93815947 2.3409188 0.66031224 0.25457892 -2.4093988 -1.036566 -0.26085478
-0.21102506 2.3025465 0.93320864 0.006436763 -1.6230115 -1.2424711 3.6687336 2.5010319
2.1620371 0.10235196 -1.0932788 -3.206521 -0.75278443 0.6621602 -1.8858945 -0.32328945
-0.092074096 -0.28310087 0.9446814 -0.73905355 1.3905976 2.0445018 2.696796 0.5194051
-0.634477 -0.5562656 1.7006134 0.021512842 -1.1103107 -3.0773776 2.1998107 0.20574345
-1.2304229 -2.25163 -0.5392979 -1.5885655 0.8740059 -0.50018245 0.21849574 -0.40840265
-1.7267232 -0.58862 -0.41993847 -2.692213 0.8927757 -1.6711574 0.6423001 0.7460098
-0.64403903 0.38943914 0.89245737 1.3245447 0.30807737 0.6380829 2.1776352 0.17265458
1.5694004 -0.7649181 3.1600037 0.108224116 2.6831877 2.8349607 1.2951899 -2.724034
2.408776 0.9189102 -0.8101488 -2.4168863 -0.0040031467 -0.82985544 1.3790767 -1.3413049
-0.18200898 -0.2938066 1.1045319 0.89352083 1.0449458 -0.58653486 0.06020972 -0.97061914
0.28236303 -0.6588584 0.13147175 0.98037434 -0.8496707 0.84454584 1.1604707 0.19225511
1.2085724 -0.30478573 -0.5929117 -0.9242182 1.6276067 0.21593715 0.30457264 0.4861551
-2.5357592 0.37081337 -0.0132786725 0.6802681 -1.8884674 1.6227462 -0.054148592 1.1181543
-0.34690735 0.6870972 -2.2114289 -1.168796 -0.9630178 -0.21177207 1.9559566 -0.11943872
1.0154903 0.021776928 -0.1690678 -0.8433128 1.4589846 -1.9995263 -2.0850174 0.017096348
0.26038125 -1.0350069 -0.40701807 0.06813237 0.83659506 -0.19186857 -0.86114305 0.6381239
2.2835553 -0.8434285 -0.83435285 1.7015862 -2.192952 0.37109697 4.2018194 -0.05259921
-0.6959641 0.9191983 1.7227014 -0.48507515 -0.31581384 2.9494936 -3.1659725 2.770087
-0.45647842 0.81511724 -0.20365873 -0.3348908 0.76727146 0.051469445 -0.035065364 0.23548318
-1.9501398 2.191221 -0.43064824 -0.6720593 0.7294718 0.8332924 -0.79185116 0.0053011063
1.3375207 -0.617871 -0.4323574 -0.8201792 -0.5640871 -0.54373896 -2.3025956 2.0107746
00000000: 1265 75bf 029a 93be 05ff 5d3f a81d c13d
00000010: 2fe2 c23f b95d b4bf b1cd 7fbf 51a0 3c40
00000020: 5ff6 86bf 6069 8fbf 2de7 2b3f 6900 9b3e
00000030: 83c6 0ac0 1d48 8b3f 36f5 c4bf 1cdd c33d
00000040: 5c1f 7abf 2a19 b43f 5bda f93f ea44 af3f
00000050: b62f 293d 131a 773f f4f8 94bf b178 083e
00000060: fab2 753f f78c 2f3e 6bc4 223f ffe3 0dc0
00000070: 9a42 42be a47e d33e 9ca2 67c0 5f42 15bf
00000080: 566a f7be 96f8 3ebf dc5a a6bf 06a1 1d3f
00000090: 3fe7 a4bf 1948 71c0 df90 9b40 6b44 e83d
000000a0: 26c3 10be 2f18 f1be 94a5 f4bf ebc8 86bf
000000b0: c29e 84c0 a8b1 b6bf 926f b9bd 3fcc 623d
000000c0: 1d72 f03f aa32 14c0 17a7 af3f 787d 26c0
000000d0: 1762 8fbf 4be2 643d 1136 01c0 8a4d 56bf
000000e0: 58f8 1ec0 741c 1bbf 3eef f83f efa2 a83f
000000f0: e259 04c0 bb1c 4f40 1621 a13f 8a6d e4bf
00000100: ecd4 e8be 8a07 2940 25b6 fb3c 51bf 10c0
00000110: 4290 9e3f 72cf 2dbf b81e 0f40 cc8a 0740
00000120: 8e41 b9bf aaca c0bf 8167 15bd 7732 463f
00000130: baba a3bf 356b 28bf 9322 abbe 8fdd afbe
00000140: d71c 3dc0 382b 70bf 9dd1 1540 390a 293f
00000150: 2b58 823e 9733 1ac0 32ae 84bf c28e 85be
00000160: f416 58be ec5c 1340 c3e6 6e3f 7beb d23b
00000170: d7be cfbf 4b09 9fbf 88cc 6a40 e810 2040
00000180: d15e 0a40 e89d d13d 8ff0 8bbf a437 4dc0
00000190: 7bb6 40bf 5583 293f fe64 f1bf 3286 a5be
000001a0: 5891 bcbd 99f2 90be a4d6 713f 9d32 3dbf
000001b0: 1aff b13f 1ed9 0240 4e98 2c40 bcf7 043f
000001c0: 166d 22bf 6c67 0ebf b3ad d93f b33b b03c
000001d0: a91e 8ebf c1f3 44c0 b3c9 0c40 69ae 523e
000001e0: 7f7e 9dbf b51a 10c0 6d0f 0abf 1d56 cbbf
000001f0: dabe 5f3f f50b 00bf 59bd 5f3e 271a d1be
00000200: 4405 ddbf cdaf 16bf 2d02 d7be 384d 2cc0
00000210: f38c 643f 7ce8 d5bf c86d 243f 80fa 3e3f
00000220: bedf 24bf 9164 c73e 1678 643f ae8a a93f
00000230: 51bc 9d3e 6759 233f 605e 0b40 5dcc 303e
00000240: 1de2 c83f acd1 43bf 803d 4a40 9ba4 dd3d
00000250: 59b9 2b40 ff6f 3540 c8c8 a53f 9356 2ec0
00000260: 6329 1a40 b33d 6b3f e965 4fbf 44ae 1ac0
00000270: d42c 83bb 6871 54bf 9685 b03f e1af abbf
00000280: 9060 3abe d26d 96be 4d61 8d3f c8bd 643f
00000290: c9c0 853f 2627 16bf 789e 763d 7f7a 78bf
000002a0: e391 903e f2aa 28bf 88a0 063e d0f9 7a3f
000002b0: 0584 59bf 2834 583f 4e8a 943f 86de 443e
000002c0: 80b2 9a3f e00c 9cbe 10c9 17bf 9099 6cbf
000002d0: 6b55 d03f a11e 5d3e f2f0 9b3e 52e9 f83e
000002e0: e149 22c0 40db bd3e ca8e 59bc 0d26 2e3f
000002f0: 4db9 f1bf 26b6 cf3f eaca 5dbd ae1f 8f3f
00000300: d79d b1be 9ae5 2f3f 0d88 0dc0 1b9b 95bf
00000310: 5688 76bf c7da 58be c95c fa3f 4a9c f4bd
00000320: 96fb 813f 8765 b23c 1c20 2dbe 59e3 57bf
00000330: 02c0 ba3f 7af0 ffbf ed70 05c0 a40d 8c3c
00000340: b150 853e 1b7b 84bf ac64 d0be fc88 8b3d
00000350: 182b 563f 3279 44be df73 5cbf 175c 233f
00000360: c525 1240 eeea 57bf 2698 55bf 94cd d93f
00000370: 5359 0cc0 6c00 be3e 4e75 8640 4572 57bd
00000380: b42a 32bf 9450 6b3f 7b81 dc3f c55b f8be
00000390: 5ab2 a1be 81c4 3c40 4b9f 4ac0 1b49 3140
000003a0: 8ab7 e9be 86ab 503f ea8b 50be cf76 abbe
000003b0: e76b 443f a0d1 523d b3a0 0fbd 8122 713e
000003c0: 2e9e f9bf f73c 0c40 ed7d dcbe 140c 2cbf
000003d0: aabe 3a3f a752 553f c2b6 4abf e7b4 ad3b
000003e0: e133 ab3f cb2c 1ebf f35d ddbe 44f7 51bf
000003f0: 0368 10bf 7a32 0bbf ba5d 13c0 88b0 0040

bias_ih_l0 f4 [512]
-0.09798979 0.39923558 -0.41458234 0.5378123 1.8611875 0.68802905 0.9235325 -0.40543404
-0.07390976 -0.9582106 -0.71728426 0.42256904 1.157208 0.9910744 0.5898022 0.16703278
0.4974534 0.07703791 0.30877346 0.9310336 0.5605526 1.0920225 2.0156693 0.56582564
-0.4222247 -0.041416783 -0.01946877 0.9359435 1.3443847 -0.42502433 0.21076009 -0.26360348
0.49711284 -0.070145205 -0.7770538 1.8254228 -0.6532707 0.229822 0.98189664 0.30101964
-1.2534668 0.9588208 -0.5859955 0.70891416 -0.5393599 0.5474072 0.8633388 0.064400956
0.27659094 0.89845705 0.23818913 1.0303546 -0.9928429 -1.2637585 1.2203027 -0.9503285
0.7409472 1.3057861 0.0057983957 -1.1833233 0.096758194 0.91804963 -0.84695655 -0.3814356
-0.18767533 1.041593 0.47738394 0.9028962 1.2993976 0.47529668 0.2076193 0.27747527
-0.6394379 -0.26226568 1.0324585 1.0082399 -1.0471493 0.94327456 -0.6587297 0.2788552
1.2129387 -0.5483073 0.4280586 -0.017469537 1.4555004 0.80630046 -0.6981046 0.76479125
0.8988408 -0.57236665 0.6224843 -0.5202674 0.6187607 -0.6502918 -0.12159534 0.21018806
0.1335036 0.91284513 -0.036630843 -0.25268495 1.0056189 0.13710311 -0.29266152 -1.1937214
1.610634 1.4933109 0.13131279 0.081959546 0.12415003 -0.027305597 1.6820489 -0.33335617
-0.027146673 0.23278959 0.05080271 0.7681289 1.0778774 0.15402694 0.5244877 -0.5298783
-0.43771482 -0.47058204 -0.2920663 0.52861893 -0.5409764 0.62864417 0.08253073 -0.19185324
-0.11956363 -0.18492846 -0.58317524 -0.090103164 -1.4885517 0.45637456 -1.6727979 -0.82397646
-0.9243612 -0.041003473 0.36004558 0.4565827 0.39363548 -1.4724392 -2.2776456 -0.09290096
-0.70164263 1.570355 0.6429471 -0.48351115 0.77561945 -0.41151497 -1.1938794 0.83023036
0.30362996 0.25793943 -2.442103 1.1220657 -1.2335273 -0.27444184 -1.8359962 0.18708399
0.9345822 -1.7604192 0.2977084 -1.2580953 -1.6087052 0.37420008 0.30235466 0.24109276
0.94284517 0.7957906 -0.6030984 -1.1134431 -0.74325496 0.5012575 -0.57275474 -0.5884226
-1.7977378 -0.37209317 0.68158615 0.6026745 -0.106201485 -1.2340388 -0.9011182 0.023445545
-0.5570419 0.1673563 -0.44868094 0.30270454 -1.7919288 -1.3363608 -0.52437615 -0.32662493
-0.6996333 -2.5335982 -0.8312724 0.8574589 -2.0373895 0.5459764 1.479721 0.50801873
-0.28626683 -0.25611436 -0.616722 -1.2780689 1.2009401 -1.0811626 -0.80622077 -0.013667501
-0.22670968 -0.08309979 -0.35228062 -1.0778842 -0.3018197 1.0221486 0.062428925 0.900239
-0.87473935 -0.4162055 -1.2583096 -2.5582917 0.64853156 -0.7943999 0.36861798 -0.7790594
1.1436347 0.1453474 0.95422775 0.016990373 -0.66537666 -0.12110079 -0.78414136 -0.43975708
-0.079598814 -0.4289149 0.25122347 -1.3860002 -0.18480211 -1.0264894 -1.1757836 0.53691983
0.056539442 -0.029523568 -0.7316112 -1.463042 -1.1807563 -0.32075533 -0.17352961 -0.34953135
0.9229992 -0.4420204 -1.3730478 -0.3772387 0.03410567 0.41959226 0.99850094 -0.5705519
00000000: dfae c8bd 9b68 cc3e 2344 d4be 11ae 093f
00000010: 643b ee3f ac22 303f a06c 6c3f 0d95 cfbe
00000020: 005e 97bd 4a4d 75bf f19f 37bf f85a d83e
00000030: 641f 943f 0db7 7d3f 47fd 163f a40a 2b3e
00000040: 36b2 fe3e 0dc6 9d3d 8e17 9e3e 3858 6e3f
00000050: 6080 0f3f 65c7 8b3f ba00 0140 f3d9 103f
00000060: d62d d8be a5a4 29bd f87c 9fbc fe99 6f3f
00000070: cc14 ac3f ca9c d9be 7ed1 573e 09f7 86be
00000080: 9385 fe3e 4aa8 8fbd ffec 46bf 74a7 e93f
00000090: c03c 27bf 7556 6b3e 945d 7b3f 3f1f 9a3e
000000a0: 9a71 a0bf 4875 753f cd03 16bf 667b 353f
000000b0: 7e13 0abf e122 0c3f c603 5d3f a6e4 833d
000000c0: 549d 8d3e 4801 663f dae7 733e a9e2 833f
000000d0: f42a 7ebf d7c2 a1bf e132 9c3f bb48 73bf
000000e0: b7ae 3d3f 0024 a73f 7800 be3b 2377 97bf
000000f0: 2929 c63d 4d05 6b3f 25d2 58bf 874b c3be
00000100: f62d 40be eb52 853f ab6b f43e 3524 673f
00000110: a952 a63f 165a f33e 279a 543e 3d11 8e3e
00000120: 34b2 23bf b047 86be 9a27 843f 010e 813f
00000130: fd08 86bf 717a 713f 82a2 28bf 1cc6 8e3e
00000140: 9341 9b3f de5d 0cbf 7f2a db3e 461c 8fbc
00000150: d64d ba3f b569 4e3f fcb6 32bf 5cc9 433f
00000160: 6e1a 663f 9f86 12bf 225b 1f3f 3f30 05bf
00000170: 1a67 1e3f 8679 26bf fa06 f9bd 8a3b 573e
00000180: 2bb5 083e 38b0 693f 390a 16bd ec5f 81be
00000190: 1fb8 803f c264 0c3e bbd7 95be ddcb 98bf
000001a0: 4129 ce3f d024 bf3f dc76 063e 68da a73d
000001b0: 5f42 fe3d fdaf dfbc 614d d73f a9ad aabe
000001c0: b362 debc 6560 6e3e 8116 503d 18a4 443f
000001d0: e3f7 893f 3db9 1d3e d344 063f 1ba6 07bf
000001e0: 281c e0be 21f0 f0be b789 95be 9253 073f
000001f0: 6e7d 0abf d3ee 203f df05 a93d 2d75 44be
00000200: c7dd f4bd e35d 3dbe f94a 15bf 0288 b8bd
00000210: dd88 bebf eda9 e93e 3e1e d6bf 1ff0 52bf
00000220: f0a2 6cbf 42f3 27bd e557 b83e 35c5 e93e
00000230: 978a c93e e378 bcbf f2c4 11c0 dc42 bebd
00000240: da9e 33bf 6501 c93f 2e98 243f c68e f7be
00000250: ff8e 463f 17b2 d2be 0ad1 98bf fa89 543f
00000260: 6375 9b3e a310 843e 6a4b 1cc0 d99f 8f3f
00000270: 39e4 9dbf a483 8cbe ec01 ebbf f292 3f3e
00000280: c740 6f3f 6b55 e1bf 3c6d 983e 4409 a1bf
00000290: 0dea cdbf 2797 bf3e 3bce 9a3e 05e1 763e
000002a0: 4d5e 713f efb8 4b3f a864 1abf 4e85 8ebf
000002b0: f545 3ebf 6952 003f 0ea0 12bf dda2 16bf
000002c0: 461c e6bf ff82 bebe 6e7c 2e3f e048 1a3f
000002d0: 2a80 d9bd fcf4 9dbf afaf 66bf df10 c03c
000002e0: 4c9a 0ebf 735f 2b3e 82b9 e5be 17fc 9a3e
000002f0: ec5d e5bf df0d abbf 843d 06bf 623b a7be
00000300: 2b1b 33bf 7926 22c0 45ce 54bf 6d82 5b3f
00000310: 9764 02c0 1cc5 0b3f 7f67 bd3f 840d 023f
00000320: 9191 92be 6c21 83be 7ee1 1dbf c397 a3bf
00000330: 68b8 993f 8963 8abf 7c64 4ebf a7ed 5fbc
00000340: 9526 68be 3930 aabd 205e b4be 1cf8 89bf
00000350: 1d88 9abe c4d5 823f 79b5 7f3d 1076 663f
00000360: ebee 5fbf e318 d5be 4a10 a1bf 0dbb 23c0
00000370: 2a06 263f cb5d 4bbf 7fbb bc3e 7070 47bf
00000380: 9f62 923f f3d5 143e 4548 743f 652f 8b3c
00000390: 2056 2abf b103 f8bd 7dbd 48bf d727 e1be
000003a0: b404 a3bd bc9a dbbe 5da0 803e 7468 b1bf
000003b0: c43c 3dbe 0164 83bf 1480 96bf 9473 093f
000003c0: e795 673d 69db f1bc df4a 3bbf f644 bbbf
000003d0: 0623 97bf 0b3a a4be bfb1 31be c6f5 b2be
000003e0: ad49 6c3f 7f50 e2be 08c0 afbf 6e25 c1be
000003f0: 63b2 0b3d ccd4 d63e c29d 7f3f b00f 12bf

bias_hh_l0 f4 [512]
-0.1600583 0.3692005 -0.33756015 0.40020743 1.8380821 0.74609363 0.90762794 -0.4594049
-0.11079506 -0.9544158 -0.5982495 0.43961555 1.1714847 0.8491078 0.6042449 0.14700976
0.45720273 -0.010580461 0.3654874 0.9150528 0.5839332 1.0737058 2.0964568 0.58963746
-0.5584011 0.053267207 0.0071406076 1.0138723 1.2641561 -0.3874911 0.071338184 -0.15992247
0.4518532 0.002309811 -0.7267278 1.7743299 -0.54240453 0.18541108 1.0237862 0.19485119
-1.2516029 0.84981984 -0.5737391 0.5712732 -0.63322866 0.5383889 0.8600118 0.13640392
0.22304954 0.87047315 0.19576122 1.0296427 -1.0744989 -1.2165207 1.1686639 -0.9725831
0.7723058 1.4498734 -0.07955174 -1.1532301 0.10237068 0.8991557 -0.89227015 -0.4342403
-0.26299986 1.1350845 0.57863206 0.8441146 1.3791662 0.4274187 0.25544932 0.1997381
-0.5813618 -0.2697305 1.053394 1.030561 -1.1337284 0.89428633 -0.6669431 0.34898025
1.1306089 -0.60572195 0.410979 -0.08657969 1.3368142 0.7965368 -0.6810396 0.76918966
0.8099563 -0.5988489 0.5357361 -0.4480696 0.7494583 -0.70914686 -0.1281717 0.26489756
0.15357623 0.86349404 -0.03567783 -0.2517401 0.9699789 0.10993106 -0.27855512 -1.1927596
1.5573422 1.3988962 0.1426742 0.09712982 0.048873466 0.045764957 1.6677538 -0.22204907
0.0579173 0.110804066 0.112132214 0.74113584 1.160417 0.21928678 0.40921444 -0.46074298
-0.55785275 -0.44558743 -0.28880325 0.5496447 -0.57320607 0.6254626 0.073319726 -0.28945598
-0.11933396 -0.17516156 -0.57202417 -0.108756006 -1.4997352 0.47060224 -1.6156132 -0.75483924
-0.8077514 0.028679803 0.33461794 0.4049236 0.37971517 -1.3660525 -2.3556757 -0.09834473
-0.75196695 1.5997461 0.5787189 -0.51061094 0.8127846 -0.4739217 -1.290518 0.8143456
0.44796282 0.28528693 -2.3811588 1.0942066 -1.272523 -0.22787297 -1.734735 0.23563927
0.94640297 -1.7213451 0.42738467 -1.1700525 -1.7203728 0.47652662 0.20525128 0.2693241
0.92441493 0.91071534 -0.71562624 -1.0784748 -0.8220646 0.45299768 -0.51945806 -0.4816949
-1.808325 -0.4022061 0.8309406 0.6233382 -0.19003919 -1.3285975 -0.9478004 0.122321755
-0.64301276 0.20109232 -0.47558096 0.29991606 -1.7723784 -1.2708114 -0.45267576 -0.21209443
-0.6183272 -2.4098232 -0.7222486 0.8216382 -2.0233407 0.65663147 1.439291 0.41800612
-0.24415477 -0.2198085 -0.60314953 -1.2588524 1.2014949 -1.1057247 -0.8356551 0.06358637
-0.2961756 -0.107367314 -0.287427 -1.073105 -0.24320023 1.0847213 0.084149696 0.832242
-0.85967296 -0.38958243 -1.176147 -2.4751618 0.58747846 -0.76242024 0.32634893 -0.7924608
1.1550584 0.13693748 0.9594755 -0.047149602 -0.6579238 -0.22489245 -0.82213 -0.44639006
-0.037820477 -0.5562448 0.1595864 -1.3796644 -0.15565501 -1.0713259 -1.0821381 0.5564089
-0.00010445231 -0.043119397 -0.74359494 -1.4441378 -1.1951892 -0.28187367 -0.14862575 -0.34762877
0.8774944 -0.5432363 -1.2397447 -0.40235627 0.013636792 0.35733426 0.95872796 -0.5446675
00000000: 53e6 23be d907 bd3e afd4 acbe fde7 cc3e
00000010: 4646 eb3f feff 3e3f 4e5a 683f 1e37 ebbe
00000020: 85e8 e2bd 9854 74bf e126 19bf 4a15 e13e
00000030: 36f3 953f 215f 593f cbaf 1a3f ba89 163e
00000040: 7a16 ea3e ab59 2dbc 2a21 bb3e e640 6a3f
00000050: a57c 153f 316f 893f 592c 0640 7bf2 163f
00000060: 60f3 0ebf b72e 5a3d c2fb e93b 91c6 813f
00000070: decf a13f 3c65 c6be c119 923d b7c2 23be
00000080: 4d59 e73e 3360 173b d50a 3abf 3e1d e33f
00000090: 06db 0abf 67dc 3d3e 6d0b 833f 1287 473e
000000a0: 8634 a0bf cb8d 593f 91e0 12bf f63e 123f
000000b0: 461b 22bf dbd3 093f bc29 5c3f 78ad 0b3e
000000c0: 1967 643e 54d7 5e3f a175 483e 55cb 833f
000000d0: 2e89 89bf f3b6 9bbf c796 953f 35fb 78bf
000000e0: d5b5 453f 7495 b93f 06ec a2bd 0b9d 93bf
000000f0: b8a7 d13d 112f 663f d16b 64bf bf54 debe
00000100: eba7 86be 734a 913f 3b21 143f e517 583f
00000110: 8588 b03f a0d6 da3e 41ca 823e 2588 4c3e
00000120: 20d4 14bf 1e1a 8abe 9dd5 863f 6ce9 833f
00000130: 031e 91bf f3ef 643f c8bc 2abf 8aad b23e
00000140: cbb7 903f 9810 1bbf d76b d23e b150 b1bd
00000150: ba1c ab3f d6e9 4b3f 9c58 2ebf 9de9 443f
00000160: 4c59 4f3f 294e 19bf 0026 093f 6169 e5be
00000170: 80dc 3f3f a68a 35bf 713f 03be a7a0 873e
00000180: 1643 1d3e f20d 5d3f eb22 12bd 14e4 80be
00000190: 8a50 783f 8923 e13d c79e 8ebe 59ac 98bf
000001a0: fd56 c73f 080f b33f 2f19 123e 00ec c63d
000001b0: 8b2f 483d 0974 3b3d f578 d53f d560 63be
000001c0: b13a 6d3d 3eed e23d 93a5 e53d 14bb 3d3f
000001d0: 8b88 943f b78c 603e 8e84 d13e 81e6 ebbe
000001e0: 70cf 0ebf 0924 e4be 05de 93be 84b5 0c3f
000001f0: a2bd 12bf 511e 203f a728 963d 9333 94be
00000200: 5d65 f4bd 8d5d 33be 2d70 12bf 78bb debd
00000210: 53f7 bfbf c7f2 f03e 6acc cebf 253d 41bf
00000220: ccc8 4ebf e8f1 ea3c 0b53 ab3e 2552 cf3e
00000230: 076a c23e cfda aebf 64c3 16c0 f668 c9bd
00000240: e880 40bf 7bc4 cc3f ec26 143f 66b7 02bf
00000250: a712 503f dda5 f2be b22f a5bf f478 503f
00000260: 625b e53e 2111 923e e864 18c0 f60e 8c3f
00000270: 09e2 a2bf 8857 69be cc0b debf 6c4b 713e
00000280: 7747 723f 0955 dcbf 2ad2 da3e 48c4 95bf
00000290: 2d35 dcbf 4cfb f33e 642d 523e d9e4 893e
000002a0: 75a6 6c3f a424 693f 4833 37bf 760b 8abf
000002b0: d372 52bf 50ef e73e 34fb 04bf b7a0 f6be
000002c0: 3277 e7bf f5ed cdbe 86b8 543f 1893 1f3f
000002d0: a299 42be 7c0f aabf 0ca3 72bf d483 fa3d
000002e0: 7c9c 24bf 25eb 4d3e 597f f3be 998e 993e
000002f0: 4cdd e2bf f3a9 a2bf 1ec5 e7be 482f 59be
00000300: b14a 1ebf 8b3a 1ac0 49e5 38bf e256 523f
00000310: 6a7e 01c0 0019 283f b03a b83f e604 d63e
00000320: b503 7abe 7b15 61be 0268 1abf 1322 a1bf
00000330: 96ca 993f 6388 8dbf 7eed 55bf 9239 823d
00000340: 54a4 97be 65e3 dbbd a229 93be 815b 89bf
00000350: 7b09 79be 26d8 8a3f ad56 ac3d d00d 553f
00000360: 8713 5cbf 5977 c7be fc8b 96bf 0d69 1ec0
00000370: fd64 163f f92d 43bf 3517 a73e b6de 4abf
00000380: f4d8 933f 5739 0c3e 30a0 753f f11f 41bd
00000390: b26d 28bf 354a 66be 1d77 52bf 3d8d e4be
000003a0: a5e9 1abd 0f66 0ebf 9e6a 233e d898 b0bf
000003b0: 0764 1fbe 3521 89bf 8083 8abf d070 0e3f
000003c0: 680d dbb8 f79d 30bd 3d5c 3ebf 82d9 b8bf
000003d0: f6fb 98bf bf51 90be 5931 18be 66fc b1be
000003e0: 79a3 603f 8911 0bbf f4af 9ebf a401 cebe
000003f0: da6c 5f3c 84f4 b63e 326f 753f 546f 0bbf

weight f4 [47, 128]
-0.006041279 0.2750106 -0.09144117 0.19074306 0.49405026 0.3525546 -0.10075904 -1.2572638
-0.1075713 0.8773397 0.13845867 -0.106372036 -0.20680004 -0.39987117 0.65559673 0.43795198
0.1441412 -0.003977093 0.44113004 0.086176775 0.134723 0.5519723 -0.13022283 0.49242732
-0.36379072 0.6296341 -0.55664754 -0.33139977 -0.8047445 -0.28861034 0.2847514 0.2798497
-0.2818429 -0.075141154 -0.48052633 0.8774668 0.36992896 0.09183344 -0.6114283 -0.45631942
0.29848018 -0.07107133 -0.6437419 -0.07758194 0.0768953 0.36415744 -0.384533 0.6262484
0.006612389 0.032882553 0.5866542 0.14256264 0.27957377 0.40364802 0.1702052 -0.62551856
0.6463332 -0.24139325 -0.9165324 1.1576716 -0.8802272 0.37064007 0.071439415 -0.081787504
0.41043597 -0.73710716 0.094120204 -0.029093731 -0.54022354 0.5329867 -0.0994511 -0.20216179
-0.23068754 -0.0866042 0.2033503 0.40648136 1.0128849 0.15907708 -0.629762 -0.23445956
0.6264523 -0.5438896 0.034729905 -0.19326104 0.51385534 0.121864974 0.18209612 -0.28242445
-0.4898708 0.20501928 0.19322103 0.5950653 -0.1462219 -0.026320975 0.39787477 0.15666373
0.09079617 0.14458184 0.28141025 0.7300904 -0.05208519 -0.079275854 -0.2790938 -0.04545461
0.8314435 0.44904205 -0.36175156 0.15308107 0.14472513 -0.76156735 0.6675439 0.16960457
0.69146466 0.5916505 0.2381293 0.52848977 0.6654584 0.46088994 0.12955792 1.0769104
-0.9784931 0.5697852 -0.40756378 0.3614554 0.0741155 -0.26238698 -0.14243668 0.4267134
-0.7462769 0.6210178 0.20160867 -0.9130746 0.7275465 0.231671 -0.08055675 -0.7894118
0.062210087 0.55875343 -0.72130126 -0.31004855 -1.1462809 -0.29316983 0.63615304 0.86995476
-0.3812095 -1.0196216 0.53068477 -0.8882158 -0.15868352 -0.74091697 -0.3100985 0.3850295
0.48748884 0.63429147 -0.19882625 0.35066685 -0.5708971 -0.16193245 -0.33707055 -1.0333569
-0.095696725 0.00799261 -0.37778428 0.45235306 0.3528175 -0.5067394 0.00060394045 0.440838
0.54617435 -0.4993924 -1.7045292 0.58803767 0.35552573 0.31436095 -0.38403443 0.42275223
-0.6778035 0.43496165 0.63172036 1.1492568 -1.550213 0.5298687 0.09075937 0.38813633
-0.0949106 0.15798464 -0.82641274 0.7075164 -1.778338 -0.30512932 0.24520582 -0.22688054
0.51131046 -1.3031032 0.31245258 1.4554818 -0.7574371 0.7954453 -0.4962244 1.552022
-0.4298097 1.3970234 0.12918207 0.13940376 2.4792929 -0.16459633 0.00831758 0.44099638
1.5308423 -0.23988903 1.5647295 -1.4605312 0.6100972 0.7673765 0.2421188 0.04308756
-1.2300354 0.08129883 -0.07405878 -0.17034598 0.078641005 0.110898934 -1.6525989 0.9521847
0.72854626 -0.12441023 -0.93001586 1.2999375 0.21075574 0.7884882 0.7468662 -0.4554557
-1.3167949 1.3219085 0.8460672 -0.4596304 0.14366911 0.3970838 -0.17917356 -0.21464746
0.77798337 0.6865192 0.08975796 1.0702668 0.72570497 0.105468355 -0.2629701 0.45137998
0.08401831 0.010691152 -0.5908221 1.8839799 1.346597 -0.30042264 -0.31720242 0.08412033
00000000: ecf5 c5bb 30ce 8c3e 8245 bbbd 2652 433e
00000010: 28f4 fc3e 0982 b43e c15a cebd 05ee a0bf
00000020: 574e dcbd 5699 603f 1cc8 0d3e 95d9 d9bd
00000030: 64c3 53be eabb ccbe 30d5 273f 3e3b e03e
00000040: c099 133e 4652 82bb ccdb e13e 737d b03d
00000050: d3f4 093e 0f4e 0d3f 2259 05be 6f1f fc3e
00000060: c742 babe b32f 213f 7480 0ebf 3bad a9be
00000070: bc03 4ebf bcc4 93be efca 913e 7648 8f3e
00000080: b64d 90be 9be3 99bd 8c07 f6be aaa1 603f
00000090: 5467 bd3e 2c13 bc3d 9186 1cbf b3a2 e9be
000000a0: 65d2 983e d88d 91bd 45cc 24bf 48e3 9ebd
000000b0: 487b 9d3d d872 ba3e 82e1 c4be d151 203f
000000c0: bdac d83b dbaf 063d f82e 163f f1fb 113e
000000d0: 4b24 8f3e f4aa ce3e 464a 2e3e fc21 20bf
000000e0: 1876 253f cb2f 77be dea1 6abf 952e 943f
000000f0: 9256 61bf 89c4 bd3e d44e 923d 3580 a7bd
00000100: aa24 d23e 0eb3 3cbf 18c2 c03d fa55 eebc
00000110: 174c 0abf d171 083f 05ad cbbd 8003 4fbe
00000120: 5b39 6cbe 8b5d b1bd 103b 503e 531e d03e
00000130: 36a6 813f 1ae5 223e 1538 21bf 2b16 70be
00000140: 2e5f 203f 593c 0bbf f240 0e3d 39e6 45be
00000150: 068c 033f 5894 f93d 6877 3a3e f099 90be
00000160: 58d0 fabe 93f0 513e bcdb 453e 3356 183f
00000170: 32bb 15be 169f d7bc 3eb6 cb3e 756c 203e
00000180: 58f3 b93d 430d 143e 0115 903e 34e7 3a3f
00000190: 4857 55bd 615b a2bd 62e5 8ebe 9d2e 3abd
000001a0: 7bd9 543f d7e8 e53e 8037 b9be 49c1 1c3e
000001b0: d332 143e 14f6 42bf 28e4 2a3f d2ac 2d3e
000001c0: d403 313f 6876 173f 2bd8 733e 1b4b 073f
000001d0: 7b5b 2a3f c4f9 eb3e d5aa 043e 33d8 893f
000001e0: 867e 7abf 71dd 113f 33ac d0be af10 b93e
000001f0: dec9 973d 9657 86be ecda 11be 2e7a da3e
00000200: 010c 3fbf 06fb 1e3f 8172 4e3e 42bf 69bf
00000210: 7d40 3a3f 2a3b 6d3e f0fa a4bd e416 4abf
00000220: 01d0 7e3d 770a 0f3f 33a7 38bf afbe 9ebe
00000230: 55b9 92bf 5b1a 96be edda 223f 5bb5 5e3f
00000240: e42d c3be f682 82bf f5da 073f 1c62 63bf
00000250: ef7d 22be bcac 3dbf 3bc5 9ebe 9622 c53e
00000260: 2398 f93e ed60 223f 1c99 4bbe 9b8a b33e
00000270: 5026 12bf 9fd1 25be 8394 acbe 0a45 84bf
00000280: a5fc c3bd 70f3 023c f16c c1be d29a e73e
00000290: 7fa4 b43e acb9 01bf c251 1e3a 85b5 e13e
000002a0: 15d2 0b3f 5cb0 ffbe 032e dabf a389 163f
000002b0: 7807 b63e ebf3 a03e 29a0 c4be fb72 d83e
000002c0: 8884 2dbf 4bb3 de3e 6db8 213f d91a 933f
000002d0: 616d c6bf 7aa5 073f 0ce0 b93d ceb9 c63e
000002e0: 7d60 c2bd bac6 213e c98f 53bf cb1f 353f
000002f0: 94a0 e3bf e939 9cbe 3c17 7b3e 5f53 68be
00000300: 3ee5 023f 16cc a6bf c9f9 9f3e 3a4d ba3f
00000310: 66e7 41bf 4ea2 4b3f 2011 febe a8a8 c63f
00000320: 0410 dcbe aad1 b23f 4e48 043e dcbf 0e3e
00000330: bcac 1e40 f18b 28be 7646 083c 47ca e13e
00000340: a4f2 c33f 78a5 75be 0e49 c83f b0f2 babf
00000350: 552f 1c3f c972 443f feed 773e 957c 303d
00000360: cd71 9dbf 0080 a63d 21ac 97bd 2d6f 2ebe
00000370: 890e a13d fb1e e33d 5c88 d3bf 60c2 733f
00000380: 0282 3a3f caca febd 8515 6ebf 5a64 a63f
00000390: 5ad0 573e 5dda 493f a032 3f3f 7d31 e9be
000003a0: bc8c a8bf 4c34 a93f dc97 583f ad54 ebbe
000003b0: ff1d 133e 914e cb3e 4679 37be 8bcc 5bbe
000003c0: eb29 473f b9bf 2f3f 05d3 b73d 81fe 883f
000003d0: cdc7 393f cbff d73d 04a4 86be 471b e73e
000003e0: cb11 ac3d f129 2f3c 1e40 17bf 4126 f13f
000003f0: 4a5d ac3f ffd0 99be 5b68 a2be 4847 ac3d

bias f4 [47]
0.42965367 -1.0580406 -1.2892587 -0.3750103 0.43498987 -0.5249326 0.28912982 -0.0006537299
0.4512185 -0.121521115 0.06578562 -0.34588006 0.6378012 -1.1645105 -1.5556439 -0.13526616
0.44101626 0.5387013 0.4174969 0.22449817 -1.0742235 0.084916495 0.22213179 -0.011958653
0.59746003 -0.6317016 -0.75061625 -1.5642676 -0.41759288 -1.5629492 -1.3933322 -1.520237
-1.4980302 -0.16575944 -1.1658297 -1.2168508 -0.046343695 -0.85969204 0.35112447 -1.0093548
-0.88200307 -2.427341 -0.36451763 -1.8827038 -1.4659053 -0.45438802 -1.5002207
00000000: 91fb db3e e06d 87bf 6e06 a5bf 5a01 c0be
00000010: feb6 de3e fc61 06bf d308 943e 125f 2bba
00000020: 1c06 e73e 10e0 f8bd 9cba 863d 3117 b1be
00000030: f046 233f ae0e 95bf 571f c7bf 3683 0abe
00000040: e2cc e13e 54e8 093f 27c2 d53e d9e2 653e
00000050: 2880 89bf b3e8 ad3d 8476 633e 3aee 43bc
00000060: 24f3 183f 32b7 21bf 6328 40bf ec39 c8bf
00000070: bcce d5be b80e c8bf b658 b2bf 2097 c2bf
00000080: 74bf bfbf d8bc 29be e839 95bf c4c1 9bbf
00000090: e3d2 3dbd c714 5cbf 96c6 b33e 8a32 81bf
000000a0: f4ca 61bf 8e59 1bc0 0ea2 babe 70fc f0bf
000000b0: c9a2 bbbf 8ca5 e8be 3b07 c0bf
